qlearning_agent_policy_20250528_201732.pth (torch, 6473 bytes, 6 tensors)

0.weight f4 [24, 4]
000000 8c 12 8d 3e a2 27 99 3f 8f 93 6d 40 1f 39 b9 3f
       0.27553213 1.196522 3.7121313 1.4470557
000010 34 a6 7b 3e 8e c9 cc 3e c8 32 26 3e e2 38 b0 3d
       0.2457512 0.39997524 0.16230309 0.086045995
000020 68 69 ec 3d 14 90 05 3f eb c2 55 be f9 73 3f 3e
       0.11543542 0.5217297 -0.20875137 0.18696584
000030 f2 b6 b3 3d 5c a9 10 3f 33 40 90 3e 8c e7 be 3e
       0.087751284 0.5650842 0.2817398 0.3728603
000040 eb b2 b6 3f 6c 81 30 3f f0 1d a2 3f 60 07 79 3e
       1.4273351 0.6894748 1.2665386 0.2431922
000050 1b 77 5f 3e 1c 21 a6 3e 6b 1f 7c be aa 20 45 3d
       0.21822779 0.32447135 -0.2462136 0.048126854
000060 f9 2c 96 3d a6 f2 0e 3f 6f e4 81 3f f4 5c aa 3e
       0.073327966 0.55839 1.0147837 0.33274043
000070 19 50 08 3f 90 de 1c 3f f0 9e 24 c0 25 94 cc be
       0.5324722 0.61277103 -2.5722008 -0.39956775
000080 4d 44 1e 3e 12 64 b1 3e 52 52 39 3f ac 57 ed 3e
       0.15455742 0.3464666 0.72391236 0.4635595
000090 9b 2e 86 3d a3 ca 6a 3e 80 3d 8d 3f a9 0b 8b 3e
       0.06551858 0.22928862 1.1034393 0.27157333
0000a0 e0 69 26 3e fb 55 03 3f 43 d2 fa 3f aa 25 23 3f
       0.16251326 0.5130307 1.9595417 0.63729346
0000b0 22 bd 31 3e b2 21 d2 3e a1 3e 99 3f 8e 42 cc 3e
       0.17357305 0.41041332 1.1972238 0.39894527
0000c0 e0 b2 26 3e 33 aa 9f 3e 0c 14 2b be e5 fa 16 be
       0.16279173 0.3118454 -0.16706866 -0.14744146
0000d0 9f 1d 3b 3e d4 1f f2 3e 65 cc 1a bf d0 89 d2 bd
       0.18273018 0.47289908 -0.6046813 -0.10280192
0000e0 28 70 ab 3e f6 88 89 be 51 35 43 c0 ce 0d a4 bf
       0.33484006 -0.26862305 -3.0501292 -1.2816713
0000f0 de cb c1 3e 94 4e 2a 3e e2 b7 2d 3f 7a ce 79 3e
       0.3785085 0.16631538 0.6785871 0.24395171
000100 ca 1b 89 3e 37 cd c3 3e c9 e7 d7 3f cb ec 28 3f
       0.26779014 0.38242504 1.686761 0.6598632
000110 3c 6e 11 3e 35 4b 12 3f 9a 5b 21 40 8a 7e 11 3f
       0.14202207 0.57146007 2.521216 0.5683371
000120 91 70 dd 3d 1f 52 d2 be 59 a1 ef bf 62 09 20 bf
       0.10812486 -0.41078278 -1.8721114 -0.6251432
000130 7e ee 3c 3e a2 05 02 3f a7 f6 a2 3f 2f 31 29 3f
       0.18450353 0.50789845 1.2731522 0.66090673
000140 eb 22 75 3e 60 50 a4 3e 00 90 a0 3f 00 f5 ca 3e
       0.23939101 0.3209257 1.2543945 0.39640045
000150 64 46 e8 3d db 2e 4c 3e 4c 76 54 3c b4 6a 22 3e
       0.11341551 0.19939749 0.012967657 0.15861017
000160 41 47 1f bc f5 ba da 3c 71 5b 49 40 d3 9b 9c 3f
       -0.009721578 0.026700476 3.1462061 1.2235054
000170 5b 1c 6d 3e 77 bd e3 3c df b2 fc bf e1 e2 da be
       0.23155348 0.027800305 -1.9742087 -0.4275122

0.bias f4 [24]
000000 68 eb bb 3d 9f df 9e 3f d6 7b 8f 3f ce 24 85 3f
       0.091757596 1.2411994 1.1209667 1.0401857
000010 28 02 19 3f 27 18 93 3f 2d f3 9f 3f 4c b8 cc 3f
       0.59768915 1.1491746 1.2496086 1.5993743
000020 d2 41 ab 3f b6 a5 90 3f a6 bc 92 3f b4 a5 82 3f
       1.3379462 1.1300571 1.1463821 1.0206819
000030 a9 b5 92 3f c4 f5 a0 3f 39 23 80 3f 2e 7b 9b 3f
       1.1461688 1.2575002 1.0010749 1.2146966
000040 bd 92 a7 3f dd b0 93 3f ad ab b3 3f 04 93 95 3f
       1.3091656 1.1538349 1.4036766 1.1685491
000050 58 68 90 3f 4a 3f 9a 3f 32 0d 3e 3f 98 50 c3 3f
       1.1281843 1.2050564 0.74238884 1.525897

2.weight f4 [24, 24]
000000 d6 6d be bf 8e 06 a5 be c5 6e 75 bf e7 47 88 bf
       -1.4877269 -0.32231563 -0.95872146 -1.0646943
000010 8d fa 8a bf c5 86 9c bc 0e f5 65 bf 99 bb aa 3f
       -1.0857712 -0.019107232 -0.8982705 1.33385
000020 2c 99 17 bf c4 93 11 bf f5 9b b2 bf 4b a2 86 bf
       -0.59218097 -0.568661 -1.3953844 -1.0518278
000030 a9 39 58 3d d5 44 e4 bd 34 30 c6 3f ee ab c3 3d
       0.052789364 -0.11145941 1.548346 0.09554277
000040 9f d5 78 bf ab 0b b8 bf 85 9d 01 3d c5 8b 9e bf
       -0.9720096 -1.4378561 0.031644363 -1.2386404
000050 8c 0f 0c bf ee 18 12 bf 56 26 07 3f 2f 1e 27 bc
       -0.5471122 -0.5706929 0.5279287 -0.010200067
000060 e9 28 e7 bf 36 a6 9c 3f 83 a6 9f 3f 5d 6e 48 3f
       -1.805936 1.2238224 1.247269 0.782934
000070 48 1a f7 3f fe 24 8d 3f 7a db 16 3f b9 cf 05 40
       1.9304895 1.1026914 0.58928645 2.0908034
000080 8e b8 25 be 87 24 87 be 02 04 13 c0 46 f7 98 be
       -0.16183683 -0.26395056 -2.2971196 -0.29876155
000090 d1 5b b2 3f 60 29 b7 3f 1e b7 d3 3f c4 e4 9c 3e
       1.393427 1.4309502 1.6540258 0.30643284
0000a0 80 71 ca bf 2a 40 14 c0 ea 22 04 40 e8 42 52 bf
       -1.5815887 -2.3164163 2.064631 -0.8213334
0000b0 02 ed 02 bf 5d 5d 03 3e a0 3e 5a bf 69 d7 f1 3f
       -0.51142895 0.12828584 -0.8525181 1.8893863
0000c0 f8 4d 04 3e 87 1e 9a 3c 56 f9 14 be da ed cc bd
       0.12920368 0.018813385 -0.14548239 -0.10006304
0000d0 81 40 f8 bc ea 04 02 be 7e d8 1e 3d 16 93 44 be
       -0.030304195 -0.12697187 0.03878068 -0.19196734
0000e0 ab 6a 3d be dc d3 d0 bd bb 99 0b bd dc f2 16 3d
       -0.18497722 -0.10196659 -0.034082156 0.036852702
0000f0 08 41 60 bb 96 7d ab 3d 5e 07 7f 3d 70 16 92 bd
       -0.003421845 0.08373563 0.062262885 -0.07133186
000100 4f a8 3f bc a9 09 24 bc 0c b4 d8 bd da b7 ce 3d
       -0.011697843 -0.010012069 -0.10581216 0.10093661
000110 7e 98 ec 3d fb 19 52 bd bd 17 3b be 62 9b f8 38
       0.11552523 -0.05129431 -0.18270774 0.00011854504
000120 ba 09 0a c0 b9 c6 4d 3f 6c 10 5c 3f 66 04 65 3f
       -2.1568437 0.8038135 0.8596256 0.89459836
000130 57 bc 96 bf 25 23 77 3f d8 1d 3f 3f 86 05 50 3d
       -1.1776227 0.96538 0.7465491 0.050786518
000140 ad 6a 81 3f 1d 9b 5b 3f d9 c1 41 3f cd 25 23 3f
       1.011068 0.8578356 0.75686413 0.63729554
000150 24 22 3a 3f b3 d4 60 3f 95 05 c8 bf 11 37 3f 3f
       0.72708344 0.87824553 -1.5626704 0.746934
000160 28 a1 43 3f 7e d7 45 3f c8 0e e1 3e ee f6 0d 3f
       0.7641778 0.7728194 0.4395659 0.5545491
000170 7d 73 48 3f ae a8 30 3f e6 ed 8d bf 53 5f 29 3f
       0.7830122 0.69007385 -1.1088226 0.6616108
000180 b1 03 1c bf a1 05 5b 3e 84 03 9f 3e 06 66 7f 3e
       -0.6094313 0.21388866 0.3105737 0.24941263
000190 b1 c0 ae bf 6e c8 0d 3f 6f 37 12 3f 3c eb 52 3e
       -1.3652555 0.55383956 0.57115835 0.20597547
0001a0 0f 68 1b 3f 30 06 52 3f 8e 11 8f 3e e6 36 89 3e
       0.60705656 0.8204069 0.2794308 0.26799697
0001b0 f0 11 14 3f e8 17 d5 3e 3b d8 fd bd be 15 b0 3e
       0.5783987 0.41619802 -0.12394758 0.34391588
0001c0 b2 78 bb 3e 17 0b c0 3e e6 56 c9 3e 88 ca b0 3e
       0.3661552 0.3750846 0.3932411 0.3452952
0001d0 fb 88 21 3e 2d 1b 5d 3f e2 c8 6a be ea b7 08 3f
       0.1577491 0.8636959 -0.22928193 0.5340563
0001e0 d0 b2 fe bf d4 d8 69 3f 53 05 60 3f b2 68 51 3f
       -1.9898319 0.9134648 0.87508124 0.8180038
0001f0 ea f3 a2 bf e9 73 61 3f 68 ed 6c 3f 9f 4c 0c 3e
       -1.2730687 0.8806749 0.92549753 0.13701104
000200 34 7a 81 3f 2c 60 79 3f 4e 25 12 3f 4e 47 3d 3f
       1.0115418 0.9741237 0.5708817 0.7393693
000210 41 3e 57 3f 94 f4 72 3f 92 d5 dc bf 16 a9 62 3f
       0.84079367 0.94904447 -1.7252676 0.88539255
000220 d0 73 40 3f b2 b0 1a 3f 29 22 1f 3f fc c9 e1 3e
       0.75176716 0.60425866 0.621615 0.44099414
000230 fb d8 5c 3f 41 cd 31 3f 9e 8d 95 bf f8 6a 4c 3f
       0.86268586 0.6945382 -1.1683843 0.7985072
000240 b4 a6 1a 40 0b d9 ab bd 2c 38 96 be 3c 66 f7 3d
       2.4164248 -0.08391007 -0.2933973 0.120800465
000250 76 11 c2 3f c4 cd 0e bf bb 6f 44 3f 70 70 cf be
       1.5161579 -0.55782723 0.7673299 -0.4051547
000260 fb f4 26 3f 60 4a 26 3f 37 a4 b4 3f 04 ee 5c 3f
       0.6521756 0.6495724 1.4112614 0.86300683
000270 81 ce 3c bf fd 99 22 bf ed 7d 3e 3f 03 66 30 3f
       -0.737526 -0.6351622 0.744109 0.6890566
000280 3e f5 8c 3f 49 7e be 3f ce 76 1c c0 18 b4 7e 3f
       1.1012342 1.4882289 -2.4447513 0.9949355
000290 43 59 89 3f e5 de c1 3e bf 38 db 3f f0 e1 f1 bf
       1.0730366 0.37865368 1.7126693 -1.8897076
0002a0 e6 3b 23 40 a4 18 a7 3d 78 c9 72 bc 49 4c b6 3e
       2.550531 0.08158997 -0.014818542 0.35605076
0002b0 c4 16 3d 3f 36 ba b7 be 25 7f f1 3d bf bb cf bf
       0.7386286 -0.35884255 0.11791829 -1.622917
0002c0 be 06 9e 3c aa 0f 5f 3c 31 09 0f 3f ea 56 cc 3e
       0.019290324 0.013614574 0.558734 0.3991006
0002d0 74 31 eb be c7 d0 48 bf 85 a9 c7 bf 3e b3 c7 bd
       -0.45936167 -0.7844357 -1.5598608 -0.097509846
0002e0 45 bd 5d 3f 2a 10 64 3f 50 7c 11 c0 a0 19 d4 3e
       0.8661693 0.89087164 -2.2732124 0.414258
0002f0 e7 b9 6b 3e 46 1b 5e bf da a3 a9 3f 95 37 da bf
       0.23020135 -0.86760366 1.3253129 -1.7048212
000300 26 14 25 be 71 3c b4 bd 31 bc 0d 3e 1a d5 4b bd
       -0.16120967 -0.08800591 0.1384132 -0.049763776
000310 02 4b aa bd 4f d7 88 3d 8f b1 2f be 56 97 c7 bd
       -0.08315088 0.06681692 -0.17157577 -0.09745662
000320 73 c0 31 3d 46 75 07 be 43 48 2d bd 6d 6a d2 3d
       0.043396425 -0.1322833 -0.042305242 0.10274205
000330 e7 96 30 3d 7e 57 e9 bd d1 c2 1f be c3 82 50 3d
       0.04311266 -0.11393641 -0.1560166 0.050905954
000340 55 3d da 3d 7c 4f 24 bd 7d 98 0e bd 8e c2 ca bd
       0.106562294 -0.040114865 -0.034813393 -0.099003896
000350 2e bf ba 3d fe 14 13 3e 23 c6 35 be f0 3c c1 bd
       0.09118496 0.14363477 -0.17751364 -0.09435451
000360 24 ad 02 c0 34 80 40 3f 75 1f 40 3f 3e ca 64 3f
       -2.0418177 0.7519562 0.75048 0.893711
000370 10 6c a6 bf 25 4c 7d 3f 5e e2 82 3f dd 39 cc bc
       -1.3001728 0.9894431 1.0225332 -0.024929935
000380 83 f5 6c 3f 14 e2 71 3f 51 d2 3c 3f 59 3b 72 3f
       0.9256212 0.9448559 0.7375842 0.9462181
000390 fe b3 3e 3f 79 3a 83 3f bf 85 b0 bf dd 0d 1b 3f
       0.74493396 1.025222 -1.3790816 0.6056803
0003a0 ad 3f 75 3f a7 d9 34 3f 88 bb f4 3e bb 5a 1a 3f
       0.95800287 0.7064461 0.47799325 0.60294694
0003b0 93 74 44 3f 10 28 23 3f b7 20 86 bf 1f 14 2c 3f
       0.7674038 0.63733006 -1.0478734 0.672182
0003c0 8f da 8d bd f2 e5 59 bc 45 36 10 be c2 b9 ff 3d
       -0.06926452 -0.013299452 -0.14083202 0.12486602
0003d0 0b a5 ea bd 53 7e 34 3c 26 45 81 3d de b9 d7 3d
       -0.11457261 0.011016446 0.06312017 0.10533498
0003e0 7e 08 15 3d dd 62 5b 3d e7 a6 97 bd 94 70 4b bd
       0.036385052 0.05356108 -0.07404881 -0.04966791
0003f0 ed 98 36 bd c3 71 9c bd 7a 18 e3 bd 40 af 20 be
       -0.044579435 -0.07638886 -0.11088653 -0.15691853

2.bias f4 [24]
000000 71 a5 d5 be 63 2e 9a 3f 49 cb 5c be 65 99 4e 3f
       -0.41727784 1.2045406 -0.21561922 0.8070281
000010 bf d8 26 3f 48 6a 58 3f 70 72 46 bd a8 1a 2b bf
       0.6517448 0.8453717 -0.04844898 -0.6683755
000020 44 6f 58 bc 3a 4f 7d 3f 89 54 bf bd 4f 69 10 3f
       -0.013210122 0.98949015 -0.09342296 0.5641069
000030 bc 87 2f 3f 58 8b e2 3e 18 81 54 3f 97 74 6e 3f
       0.6856649 0.44246936 0.8300948 0.9314665
000040 4f ea ba bc 03 f3 81 3f c0 1a 0a 3d e3 ff 49 3f
       -0.022816805 1.0152286 0.033716917 0.7890608
000050 b8 ed 7f 3f c9 e5 6a 3f 85 84 e1 bd 70 6c 6d 3f
       0.99972105 0.91756874 -0.11011604 0.9274359

4.weight f4 [2, 24]
000000 13 e4 3a 3f 56 84 00 c0 1c 12 62 bd 6a 38 7f 3f
       0.73004264 -2.0080771 -0.05519305 0.99695456
000010 f6 82 4d 3f d9 de 83 3f 99 9e 03 c0 56 09 2c c0
       0.80277956 1.0302383 -2.056555 -2.6880698
000020 1b 05 a7 3d f7 ba 87 3f d0 87 fc bd 6f 4e 4d 3f
       0.08155271 1.0603932 -0.12330592 0.80197805
000030 8a 04 92 3f dc c0 26 3f 75 27 8d 3f 43 52 8d 3f
       1.1407635 0.6513803 1.1027666 1.1040729
000040 9c 1a d9 bd 11 e0 a6 3f 8f 65 10 3a 79 00 82 3f
       -0.106007785 1.303713 0.00055082975 1.0156394
000050 7d be ab bf 1b b6 a8 3f 67 f3 de 3d ed 3c 8e 3f
       -1.3417507 1.3180574 0.10886269 1.1112343
000060 c4 49 94 3f a1 df e3 bf 8d f5 b6 3c 0a df 86 3f
       1.1585011 -1.7802621 0.022333885 1.0536816
000070 48 42 00 3f 37 7b 93 3f 0b 1a ee bf fd d6 e5 bf
       0.5010114 1.1521977 -1.8601698 -1.7956234
000080 be 8b ee bd 9d 0c 70 3f 81 98 64 3a f3 fc 98 3f
       -0.116477475 0.93769246 0.00087202346 1.1952194
000090 df 2e 8e 3f 4d c3 6e bf 77 19 9a 3f 6c 24 7b 3f
       1.1108054 -0.93266755 1.2039021 0.9810245
0000a0 22 b0 01 bd bc 31 d6 3f dd 7d 0a be 3b b6 9a 3f
       -0.031662114 1.6733928 -0.13524576 1.2086862
0000b0 f8 c9 d9 bf 6b bc dd 3f 4e b3 c5 3c 9f 14 8e 3f
       -1.7014761 1.7323126 0.02413335 1.1100043

4.bias f4 [2]
000000 99 ad 4a 3f c9 b6 9c 3e
       0.7917114 0.30608204
