qlearning_agent_policy_20250528_193940.pth (torch, 9471 bytes, 8 tensors)

0.weight f4 [24, 4]
000000 a1 55 5c bb df 4f 87 3e a7 f4 9f bf 07 cf 0a 3f
       -0.0033620375 0.26428124 -1.2496537 0.5422215
000010 04 e5 8b 3f da 8f 77 3e ee 92 c4 3e b7 0a a3 3e
       1.0929265 0.24175969 0.38393348 0.31844112
000020 a3 56 23 3f 89 50 58 3e f4 e0 8e be ce 77 11 be
       0.6380407 0.21124472 -0.27906 -0.14205858
000030 0a 9d 06 3f d1 2b 5a 3f c2 47 79 3f 5d 11 b7 3e
       0.5258337 0.8522311 0.9737512 0.35755435
000040 eb 81 c2 be 44 2d 42 bf 11 1e eb bf 25 a8 5f bf
       -0.37989745 -0.7585032 -1.836855 -0.87365943
000050 1f 21 68 3d 8a c9 fb 3e 3e b7 0b 3e 17 2f 8a 3e
       0.05667221 0.491772 0.1364412 0.26989052
000060 c2 0e 01 3e 42 49 5e 3f 3f a5 94 3d e1 28 04 3e
       0.12603286 0.8683053 0.07258081 0.12906219
000070 70 fd 75 3f a1 4f cf 3e c4 14 0b be 14 04 65 bd
       0.9608984 0.4049044 -0.1358214 -0.055912092
000080 95 8d 05 3f 9d 39 a0 bd 50 96 60 bf cb ef ab bd
       0.5216916 -0.07823489 -0.8772936 -0.08395346
000090 0f 14 99 3d 46 ff 83 bf a8 76 11 c0 ec 96 91 bf
       0.07474529 -1.0312278 -2.2728672 -1.1374183
0000a0 57 c9 b4 bf c8 f6 29 3e ec fc c4 3e e7 a4 d4 3c
       -1.4123944 0.16598046 0.38474214 0.025957538
0000b0 de c6 9a 3e a9 e1 22 3f db a2 02 3e b8 43 2b 3d
       0.3022985 0.6362558 0.12757437 0.04181263
0000c0 c5 4e 21 bf f9 a2 09 3f a8 7a f0 3f 06 8b ce 3e
       -0.6301082 0.537643 1.8787432 0.4034044
0000d0 0d 8e 1c 3f c2 8c 38 3f 7b 50 e2 3d 78 29 c3 3e
       0.6115425 0.7208978 0.11050507 0.38117576
0000e0 ba de da 3e 01 54 5b 3f 4a 5d c9 3e a6 61 b9 3b
       0.42748052 0.85675055 0.39328986 0.0056573926
0000f0 09 73 61 3f 39 03 b3 3c 59 29 54 bf 64 84 bf be
       0.88066155 0.021852123 -0.8287559 -0.37405694
000100 62 25 87 3f 17 60 03 3e d3 78 b6 be 89 fc 8d 3e
       1.0558283 0.12829624 -0.35639057 0.27731732
000110 dd 8c a6 be 25 ea 5f bf 56 df 2f c0 de 8a 88 bf
       -0.32529345 -0.8746665 -2.7480063 -1.0667379
000120 02 c9 ef be c9 02 bf 3e 3f 19 00 40 ef 81 14 3f
       -0.46833044 0.37306812 2.001541 0.5801076
000130 90 5d c4 3d 87 64 e0 3e f2 66 11 3f b1 93 08 bd
       0.09588158 0.43826696 0.5679771 -0.033343975
000140 e5 49 1e bf 5a 15 66 bf a8 45 3f c0 ea d4 a3 bf
       -0.61831504 -0.8987633 -2.9886265 -1.2799351
000150 78 c2 5d 3f b7 8d 71 3e 7b 32 28 be 43 94 73 bd
       0.8662486 0.23589216 -0.16425507 -0.059467565
000160 9b c4 0c 3f 5f b5 3d 3f f2 0c 82 3f 51 81 08 3e
       0.54987496 0.74104875 1.01602 0.1333058
000170 08 71 09 3d cc df 39 be 26 b9 df 3e 97 67 73 be
       0.03355506 -0.18151778 0.43695945 -0.23769985

0.bias f4 [24]
000000 4a 7a 81 3e 3b 0f b7 3f c6 d6 c0 3f 26 b3 9d 3f
       0.25288612 1.4301523 1.5065544 1.2320297
000010 fc 82 36 bb 42 0a c9 3f 13 dd c2 3f 44 ad c5 3f
       -0.002784907 1.5706255 1.5223716 1.5443501
000020 55 d7 8f bf a7 94 9d 3d 5e ed 69 bd f8 5d d4 3f
       -1.1237589 0.07694369 -0.057111137 1.6591177
000030 23 74 0e be 91 49 9d 3f 08 6f da 3f 59 1e ea 3e
       -0.1391149 1.2288076 1.7065134 0.45726278
000040 07 c2 52 3f 26 bf b7 3d 7c 73 b7 be 7c 6c af 3f
       0.8232731 0.089720055 -0.35830295 1.3704982
000050 b1 24 96 3e ff 5a b2 3f c1 c8 88 3f 87 00 d2 be
       0.29324868 1.393402 1.0686265 -0.41016027

2.weight f4 [24, 24]
000000 6f 0c 1f 3f eb e5 b7 3d a6 1e ca be e0 c8 c3 3e
       0.6212835 0.089794 -0.39476508 0.38239193
000010 8a 5e 14 3f 71 2d 96 3d b2 30 17 be 43 d3 af be
       0.57956755 0.07332886 -0.1476467 -0.34340867
000020 69 c5 de be a9 d6 d8 3e ea ed 69 3f 20 81 df bd
       -0.43509987 0.42351273 0.91378653 -0.109133005
000030 57 87 19 40 5e 9d a1 3e 2e 2f 30 be f4 82 0d bf
       2.3988855 0.31565374 -0.17205498 -0.55277944
000040 3a 4f 78 3e 66 2c 12 3f 61 c0 04 40 c8 1e 8f be
       0.24248973 0.57098997 2.0742419 -0.27953172
000050 88 fa cd bf b4 cf 7f be 11 df 85 3e 63 0e a8 3d
       -1.6092081 -0.24981576 0.2614675 0.08205869
000060 e2 71 dc bd b9 6c 5b 3f cc bb 71 3f a3 37 4c 3f
       -0.10763909 0.8571277 0.9442718 0.79772395
000070 70 72 0c bf ea 76 60 3f 4c 11 8f 3f 5e e0 76 3f
       -0.5486212 0.8768145 1.1177154 0.9643611
000080 0b 41 67 bf bf b5 79 bf 6e e2 79 be 39 2d 8f 3f
       -0.9033362 -0.9754295 -0.24402782 1.1185676
000090 c0 96 ad bf 64 2d 96 3f df 33 7f 3f 59 5d 6f 3d
       -1.356163 1.1732602 0.99688524 0.058438633
0000a0 9d e4 e9 3e da 18 97 bf ee 63 c3 bf 6a d2 80 3f
       0.4568223 -1.1804459 -1.5264871 1.0064213
0000b0 e6 b9 1b bf 26 27 61 3f b8 4a 4f 3f 5e 23 1c be
       -0.60830534 0.8795036 0.80973387 -0.15247867
0000c0 92 18 c6 bd c2 c4 67 3f 91 69 1d 3f 7b 59 6a 3f
       -0.09672655 0.90534604 0.61489207 0.91542786
0000d0 a6 9f 43 bf 49 90 5f 3f 68 7f 4e 3f f6 7c 1d 3f
       -0.7641548 0.87329537 0.80663157 0.615188
0000e0 18 ce 53 bf ae 3e 7f bf 90 11 cc 3e 4d 21 3a 3f
       -0.8273635 -0.99705017 0.3985715 0.7270706
0000f0 ff 22 0b bf cb d3 3b 3f b2 21 3d 3f ec 00 5e 3e
       -0.54350275 0.73370045 0.7387954 0.21680039
000100 5e d0 66 3f 0f f3 a9 bf 63 e1 63 bf 99 0b 72 3f
       0.90161693 -1.3277301 -0.8901579 0.94548947
000110 64 b4 ba be a8 7e 59 3f 85 01 36 3f 13 3f 42 3d
       -0.36465752 0.8495889 0.7109607 0.047423434
000120 08 36 db 3e af e1 f8 be 55 09 6b 3e 7a 03 57 bf
       0.4281466 -0.48609683 0.22952779 -0.8398968
000130 98 63 86 3f ac 9b e2 be 07 5a 0b bd 78 46 43 3d
       1.0499144 -0.44259393 -0.034021404 0.047674626
000140 69 f3 95 3f c5 7f cf 3f 40 ee 58 3f e5 fe f4 3d
       1.1714908 1.6210867 0.8473854 0.1196268
000150 22 f5 8a 3f a4 27 d0 be 85 19 97 3c 0f 7b f0 3e
       1.0856059 -0.40655243 0.018444786 0.46968886
000160 e7 af 99 3e 0f 82 cd 3f 4a 12 be 3f 05 18 e8 bd
       0.30017015 1.6055316 1.4849331 -0.11332706
000170 3e a9 83 3f a8 09 69 3e 21 fe 0c 3e ab 5e 41 3e
       1.0286024 0.2275759 0.13768817 0.18883769
000180 32 5c 2f 3e 9e aa 71 3f b6 8f 76 3f 8b 73 92 3f
       0.17125013 0.94400966 0.96313035 1.1441511
000190 37 4e 50 bf d7 6c 65 3f 94 15 85 3f 24 64 84 3f
       -0.81369346 0.896192 1.039721 1.034306
0001a0 73 38 67 bf a7 48 88 bf 00 e5 c1 be d7 89 90 3f
       -0.9032051 -1.0647172 -0.37870026 1.1292065
0001b0 18 2b b6 bf 55 01 92 3f fa 03 56 3f c1 b9 aa 3e
       -1.4231901 1.1406657 0.8359982 0.33344844
0001c0 5f 66 55 3f dc de 67 bf 8e a5 ca bf 20 8c 83 3f
       0.8335933 -0.9057443 -1.5831773 1.0277138
0001d0 92 9f 11 bf 2b 2a 64 3f 73 d8 32 3f 02 de de bd
       -0.5688411 0.89126843 0.69861525 -0.108821884
0001e0 d3 b8 b5 3e 94 9f 41 bd b8 b7 35 3b 03 58 a7 be
       0.35492572 -0.047271326 0.0027727913 -0.32684335
0001f0 64 df 86 3f f9 45 8f bd 01 63 9a bd 94 53 c9 3c
       1.0536923 -0.06995768 -0.07538415 0.024575986
000200 0d 7e 52 3f 66 ea d7 3f 5a ac 8d bf 91 44 08 3e
       0.8222359 1.6868408 -1.1068223 0.13307406
000210 b7 f5 17 be c8 79 17 3e b0 9f 7e be a2 a6 c9 3c
       -0.14839827 0.1479255 -0.24865603 0.02461559
000220 f9 4f 05 bf 00 1d d9 3f 94 ec 4c be 8e ef 14 be
       -0.52075154 1.6961975 -0.20012122 -0.14544508
000230 4c 43 46 3f a7 cb 2f 3e de fd 28 bd 73 c7 43 3e
       0.77446437 0.17167531 -0.04125773 0.19119053
000240 34 c0 35 bc 9c 1e 06 be 28 46 ff bc 8b 17 10 be
       -0.011093188 -0.13097614 -0.031161383 -0.14071481
000250 e7 79 16 be 9f ec 27 bd 15 42 fa 3d f1 57 d6 3d
       -0.1469494 -0.040997144 0.122196354 0.10465992
000260 ad be 3e be b5 da f4 bd 3e 60 cd 3c af a0 12 be
       -0.18627425 -0.119557776 0.025070306 -0.14319108
000270 44 1e 09 3e 86 01 9d 3d ce 14 bf bd 48 e4 65 bd
       0.13390452 0.07666306 -0.0933014 -0.05612591
000280 fb 6c bf 3d 77 9f 64 3d b7 53 23 be 24 81 3f be
       0.09346958 0.05581614 -0.15949903 -0.18701607
000290 b4 6d f3 3d 65 6e 52 be fc ba 39 bd f4 0a 11 3d
       0.118861586 -0.20549925 -0.045344338 0.035410836
0002a0 09 24 52 3e ff da 61 3f 37 ae 2b 3f 06 4f 9b 3f
       0.20521559 0.88224787 0.67062706 1.2133491
0002b0 67 62 18 bf 62 e0 8f 3f 76 96 8a 3f 2b d2 72 3f
       -0.5952515 1.1240351 1.0827167 0.9485194
0002c0 8b 0c 5a bf 8d a3 7a bf 80 e7 3c be 8b ae 81 3f
       -0.8517539 -0.9790581 -0.18447685 1.0131391
0002d0 69 82 86 bf 13 27 83 3f ad 6e 6b 3f a0 64 b0 3d
       -1.0508548 1.02463 0.9196575 0.08612943
0002e0 99 30 2b 3f 14 07 9b bf 5f 70 bf bf 25 00 8b 3f
       0.6687103 -1.2111535 -1.4956168 1.0859419
0002f0 71 55 57 bf 86 50 7e 3f ae be 2d 3f 78 0f eb 3d
       -0.8411475 0.9934162 0.6786908 0.1147756
000300 64 4b a4 3e db 70 37 3d df 00 14 bf 76 f6 08 3f
       0.32088768 0.04478536 -0.5781383 0.5350107
000310 db 0a 3b 3f 52 cf 83 3e 99 dc 34 be de 02 6b be
       0.7306344 0.2574411 -0.17662276 -0.22950312
000320 56 8f 4f 3d 3a b3 fa 3e 66 a4 5d 3f 9d fe 6b 3d
       0.050673805 0.48964864 0.8657898 0.057615865
000330 4c 92 11 40 2f 85 a4 3e de bf d0 be b3 9c c4 be
       2.2745543 0.3213286 -0.40771383 -0.38400802
000340 19 9f 12 3e df b6 56 3f 50 ad f6 3f 53 e2 9e be
       0.14318503 0.8387279 1.9271641 -0.31032047
000350 2c a9 51 bf 32 64 b9 be bf 38 26 bc 87 1b 15 be
       -0.8189876 -0.36209255 -0.010145365 -0.14561282
000360 1d 40 12 3e 99 6d 8c 3c ae 0e 06 3e ef fe 79 be
       0.1428227 0.017142104 0.13091537 -0.24413656
000370 b5 24 c6 bd f5 d1 6f 3d d5 d5 64 be 71 d2 d6 bd
       -0.0967497 0.05854984 -0.22347195 -0.10489357
000380 61 60 98 3d 03 17 de bc a6 94 00 be 79 f5 27 be
       0.07440258 -0.027110582 -0.12556705 -0.16402234
000390 46 d5 97 3d e2 10 95 ba 69 3e a6 be 98 df 45 3d
       0.074137256 -0.0011372829 -0.3246949 0.04830894
0003a0 30 d3 f3 3d 82 80 9a ba 74 49 28 bd 7d a3 ee bd
       0.11905515 -0.0011787566 -0.041085675 -0.11652277
0003b0 25 5f 39 bd f3 c9 9b bc 3b ca 60 3d 26 ce 18 be
       -0.045256753 -0.019017195 0.054880362 -0.1492239
0003c0 e4 f0 11 be 54 c2 6c 3f 0e 88 3f 3f e4 1b 86 3f
       -0.14252049 0.9248402 0.7481698 1.0477262
0003d0 9c 87 f9 be e1 b6 62 3f 1a 79 90 3f 1f 5f 68 3f
       -0.48736274 0.885603 1.1286957 0.90770143
0003e0 16 15 68 bf 1d 75 8e bf 83 1b 0e bf 5a e2 63 3f
       -0.90657175 -1.112949 -0.5551073 0.8901726
0003f0 60 e6 95 bf ab c5 94 3f 79 55 6a 3f b8 f6 7f 3e
       -1.171093 1.1622823 0.9153667 0.2499646

2.bias f4 [24]
000000 24 00 34 3e 72 62 94 3f 2a b4 6b 3f a6 25 b9 be
       0.17578179 1.1592543 0.92071784 -0.36161536
000010 be 86 94 3f 57 80 62 be 00 0e cc 3d b5 35 7f 3f
       1.160362 -0.2211927 0.09963608 0.99691325
000020 4e 26 19 be c7 ea 58 be 0c 8b 80 3f 01 a2 7e 3f
       -0.14956018 -0.2118331 1.0042434 0.9946595
000030 5a 7f 93 3f 86 c6 9a 3f 26 70 1e be 3a 5b a2 3f
       1.152324 1.2091835 -0.15472469 1.268409
000040 60 fd 8a 3f ac ca 7f 3f a6 ff 60 be dc ed 90 3f
       1.0858574 0.9991863 -0.21972522 1.1322589
000050 d2 a1 78 bd 61 da 81 3f 37 11 74 be ce 4f e0 bd
       -0.0607012 1.0144769 -0.23834692 -0.109527215

4.weight f4 [24, 24]
000000 e1 e5 81 3c cb b6 4f be 20 48 d2 bd 3b 3d e4 bd
       0.015856685 -0.20284574 -0.10267663 -0.11144491
000010 e8 ad 0d bd b8 63 7b 3d 65 33 8e bc a7 ec ae bc
       -0.034589678 0.061374396 -0.017358491 -0.021353079
000020 0c 19 c9 bb e1 90 48 bd 8d 6a 33 3d 38 57 17 bd
       -0.006137019 -0.048966292 0.043802787 -0.036948413
000030 c8 07 10 bd 03 67 02 3e 53 fa b9 bd d5 fb a7 3d
       -0.03516367 0.12734608 -0.09080949 0.0820233
000040 f5 7d 09 be 67 0e 41 3e 58 9f 12 be e1 ba 24 be
       -0.13426955 0.1885315 -0.14318597 -0.16086914
000050 f4 1a 33 3b dd ff 50 be 04 1f 1b 3e 85 27 b8 bd
       0.0027329298 -0.20410104 0.1514855 -0.08991913
000060 eb ca 7a bd 16 4a ae 3f ad 0f 9a 3f e8 0a 92 bf
       -0.061228674 1.3616359 1.2036034 -1.1409578
000070 bc e6 b1 3f 20 db 95 bf 03 fc 90 3d 16 0e d0 3f
       1.389854 -1.1707497 0.070793174 1.6254299
000080 77 13 c2 be ff 7c a2 39 a4 ba d0 3f 48 4b 26 3f
       -0.37905475 0.00030992177 1.6306958 0.6495862
000090 b2 4b 85 3f 80 1c a1 3f ac b3 e4 bc e4 b9 c0 3f
       1.0413725 1.2586823 -0.027917705 1.5056729
0000a0 ff f6 9b 3f 4d 07 ad 3f 41 a1 45 bf 6e 93 86 3f
       1.2184752 1.3517853 -0.7719918 1.0513742
0000b0 d9 63 3e bc 42 23 aa 3f dd 02 bf bf e6 49 e1 bf
       -0.011620485 1.329201 -1.4922749 -1.7600677
0000c0 a3 25 38 be 20 72 f6 3c 48 fd cb 3d cf c2 00 be
       -0.17983107 0.030083716 0.09960419 -0.12574314
0000d0 e6 d5 57 be 38 52 3b be c7 d6 2f 3d 53 40 1c be
       -0.2107769 -0.18293083 0.042929437 -0.15258913
0000e0 28 42 c0 3c fa 76 1b bd 06 bc cf 3d 4f 12 ed 3d
       0.023469046 -0.03795526 0.101432845 0.11575758
0000f0 7f 7a c7 bd 11 3a a1 bd c6 48 20 3e 9d e4 1f be
       -0.09740161 -0.078724034 0.15652761 -0.15614553
000100 0b c3 b9 3d e3 0c 3c be 19 e6 91 bd a7 2a ad 3d
       0.090704046 -0.18364291 -0.07123966 0.08455401
000110 e0 9e 3a be 66 51 1d be 03 bc fe 3d 0a 0e 1c bd
       -0.18224669 -0.15363082 0.12438204 -0.038099326
000120 8f 77 a2 bd 68 3a 04 3d 18 6f cd 3d 4e f6 cd bd
       -0.0793296 0.032282263 0.10030955 -0.100567445
000130 f9 f5 1b bd bc 98 c2 3d a9 62 20 be b0 75 8b 3b
       -0.038076375 0.09501788 -0.15662636 0.004255973
000140 57 37 a2 bc 66 08 26 be b0 c7 26 3e 0d ee 97 3d
       -0.019801779 -0.16214141 0.16287112 0.074184515
000150 27 d5 99 3d 24 e2 4d bd 47 9e 3c 3e 2a 6d 4a bd
       0.07511359 -0.050264493 0.18419753 -0.049420513
000160 f0 49 21 be 6e 08 f3 bd 73 27 ce 3c 8e 21 85 bc
       -0.15750861 -0.11866842 0.025165295 -0.016251352
000170 bd 45 f8 bd d7 f1 b0 bd 3a 07 cc bc 60 68 4c bd
       -0.121226765 -0.08639877 -0.02490579 -0.049904227
000180 92 ca 86 3e 56 f2 35 3c d4 ec 80 3f 9e 2d 19 be
       0.26326424 0.011105141 1.0072274 -0.14958808
000190 28 3d ac 3e 36 af 82 bf 9f 99 17 be d4 44 3e 3e
       0.3364041 -1.020972 -0.14804696 0.18580943
0001a0 69 d9 d3 3e b1 d1 fb 3d f4 cd a2 3c ea 78 09 bf
       0.41376808 0.12295855 0.019873597 -0.53700125
0001b0 0d 87 ba 3d bb 5c 53 3c 2d 1f 53 bc 13 c9 92 be
       0.0910779 0.012900527 -0.012885851 -0.28669032
0001c0 5a 96 52 be 03 e0 14 be 8c a4 67 bf e3 3e 9a be
       -0.20565167 -0.14538579 -0.90485454 -0.30126104
0001d0 6c a3 11 3d 8c 82 77 be b6 47 84 bf 29 57 41 bf
       0.035556242 -0.24170893 -1.0334384 -0.7552362
0001e0 93 f0 9b 3d 33 10 ba 3f de 98 b1 3f b6 77 f3 bd
       0.07614245 1.4536194 1.3874776 -0.118880674
0001f0 43 bd cd 3f a5 cb cc bd b6 67 26 3e c4 37 c4 3f
       1.6073383 -0.099997796 0.162505 1.5329518
000200 40 f6 25 be 40 1b 3b be 5c fa bb 3f bc 1a c8 3f
       -0.16207218 -0.18272114 1.4685779 1.5633159
000210 55 ad cc 3f 8f 65 b7 3f 78 2e d0 3d cd c6 c3 3f
       1.5990397 1.4327868 0.10165113 1.5295044
000220 e2 1b cb 3f 20 96 b3 3f 5a 4a 22 3f 1a 30 ca 3f
       1.5867884 1.403019 0.633947 1.579593
000230 eb d8 ea 3d 71 2c b2 3f 34 1f 2c bf 92 1a 80 bf
       0.11467155 1.3919812 -0.6723511 -1.0008109
000240 33 61 6e bf d5 1d 66 3f 5a 24 86 3f 8a 7e 24 bf
       -0.93117064 0.8988927 1.0479844 -0.64255583
000250 0b 7b 4e 3f 08 9f f5 be 7b 28 48 bd 27 93 8a 3f
       0.806565 -0.47972894 -0.04886673 1.0826157
000260 50 54 96 bf 50 fe 0f 3d 7c dc 98 3f 95 8a 86 3f
       -1.174448 0.03515464 1.1942286 1.0511042
000270 a0 cf 3b 3f af 2a 56 3f 2b 8b 40 bd 91 59 6c 3f
       0.73363686 0.8365888 -0.04700772 0.9232417
000280 6a 2b 99 3f 73 10 97 3f 92 18 58 3e 62 9d 6e 3f
       1.1966374 1.1801895 0.21103123 0.932089
000290 ae 26 5d bd 3a d2 90 3f d6 5f 81 bf 9e 22 b0 bf
       -0.053991966 1.1314156 -1.0107372 -1.3760564
0002a0 b6 4d 3b bc 5f 0a bc 3f fa cf 9f 3f c8 2a 31 bf
       -0.011432102 1.4690665 1.2485344 -0.69205904
0002b0 03 ab c4 3f 4d ae 0d bf 7d bf 21 be cb 77 d8 3f
       1.5364689 -0.55344087 -0.15795703 1.6911558
0002c0 d3 d6 21 bd 45 be e9 3d e4 87 bf 3f 1c 61 7c 3f
       -0.039511513 0.11413244 1.4963346 0.9858568
0002d0 c7 9d b7 3f 82 c3 c0 3f 9a af 42 be a1 ff bd 3f
       1.4345025 1.5059664 -0.19012299 1.4843637
0002e0 c4 67 af 3f 0e 0e 98 3f 0c c8 75 bd b1 9f a8 3f
       1.3703542 1.1879289 -0.060005233 1.3173734
0002f0 12 65 bf 3d a2 21 a5 3f c3 a9 8a bf a9 83 9b bf
       0.093454495 1.2900889 -1.0833057 -1.2149554
000300 dc 56 15 3f 1e f0 bb be c8 e5 4c 3f 24 d7 d7 3c
       0.5833566 -0.36706632 0.8003812 0.026347704
000310 6e 63 6e 3d be cc 82 bf 80 52 c9 3b 1f ba 97 3e
       0.058200292 -1.0218732 0.006143868 0.29634187
000320 c2 83 28 3f ec 48 d8 3c 36 99 96 bd a2 9a 01 bf
       0.65826046 0.02640196 -0.073534414 -0.50626576
000330 d7 ff 0c 3e 03 a7 b5 3d ec 15 39 be 84 2e 00 be
       0.1376947 0.088697456 -0.18074769 -0.12517744
000340 fa d1 72 be e6 08 26 be 2f 18 63 bf 25 3f fe be
       -0.23712912 -0.16214332 -0.88708776 -0.4965755
000350 bf 76 2c 3e 96 33 03 be a7 07 42 bf 37 bc 81 bf
       0.16842173 -0.12812647 -0.75792927 -1.0135564
000360 b1 57 0e be 9d 99 18 be e6 61 f0 3d 4d e1 31 bd
       -0.13900639 -0.14902349 0.11737423 -0.043427754
000370 18 ae 49 3d 1b 68 44 3d 8b 7c 35 be 3f 1f 16 be
       0.049238294 0.047950845 -0.1772329 -0.14660357
000380 d1 fd 03 be 3d 06 3b 3e 23 5c d2 bd a1 29 cf bd
       -0.12889792 0.18264098 -0.1027148 -0.10115362
000390 03 dd 12 3e 77 eb 9d bd 79 14 f5 bc 08 eb 20 bc
       0.14342122 -0.07710927 -0.029916989 -0.009821661
0003a0 7a e5 47 be 38 56 32 3d fb 89 f4 bd 27 2e c4 bb
       -0.19521132 0.043539256 -0.1194038 -0.005986947
0003b0 52 48 7b 3d 7d 9c 3a be 62 8b 06 3e a9 06 1f 3e
       0.061348267 -0.18223758 0.13139108 0.15529884
0003c0 be f6 a6 3f d9 72 66 3f c2 3d 9f 3f 18 bc a7 bf
       1.304405 0.90018994 1.2440722 -1.3104277
0003d0 05 34 20 3f 29 81 9e bf b6 14 fe bd 54 ba 9c 3f
       0.62579376 -1.2383167 -0.12406294 1.2244363
0003e0 05 ca 9c 3f eb 0e 58 3d 6a e7 89 3f f5 94 de 3c
       1.2249151 0.052748602 1.0773747 0.027170638
0003f0 b8 81 5a 3f 81 7f 5b 3f 94 50 08 bd 66 cc 59 3f
       0.85354185 0.8574143 -0.03327997 0.8507751

4.bias f4 [24]
000000 b3 51 c6 bd 9c 57 82 3f dc 8f 88 3d 7a fc ae bb
       -0.09683552 1.0182986 0.06668064 -0.005340156
000010 d9 e4 1f 3e db af af 3f cc 59 93 3f 66 66 c6 3f
       0.15614642 1.3725542 1.1511779 1.55
000020 49 9b 60 3e 28 98 da bd 06 87 76 3f 02 9d b0 3f
       0.21934237 -0.10673553 0.9629978 1.3797915
000030 c0 89 49 3e 4a 05 bf 3f ad be c6 bd 32 c5 a2 3f
       0.19681454 1.4923489 -0.09704337 1.2716429
000040 e9 03 91 3d f8 8d 8f 3f 3b ab b8 3f da 06 18 3d
       0.07080824 1.12152 1.4427255 0.03711591
000050 af 98 ae 3f 25 52 9e 3f 9b c0 6b 3f b3 db a4 3f
       1.3640345 1.2368819 0.9209077 1.2879547

6.weight f4 [2, 24]
000000 45 b4 22 be 54 e7 95 3f 3e eb 78 bc ce 3f 23 be
       -0.1588908 1.1711221 -0.015192805 -0.15942308
000010 fa 99 41 be 1c cd a4 3f 83 6f a9 3f 09 1e b1 3f
       -0.18906394 1.2875094 1.3237156 1.3837291
000020 e7 34 4c be 44 47 27 3e 67 89 9b bd 60 28 bf 3f
       -0.19942056 0.1633578 -0.07594567 1.4934196
000030 e4 17 4f 3f d2 bd b9 3f c5 f9 6e 3c 32 59 95 3f
       0.8089583 1.4511054 0.014585917 1.1667845
000040 ce 77 08 be e4 95 aa 3f 0c 40 c5 3f 7e 60 af 3d
       -0.13326952 1.3326993 1.541017 0.08563326
000050 86 36 be 3f 07 c2 c7 3f 62 19 05 be 09 28 8e 3f
       1.4860389 1.5606087 -0.12997964 1.1105968
000060 0e 96 c4 bd 04 68 c9 3f 22 fe 29 be 5c 68 26 3d
       -0.09598933 1.5734868 -0.1660085 0.04062687
000070 51 5c 0e bf 6f 85 ad 3f 43 88 9e 3f 7f d3 a3 3f
       -0.55609614 1.3556346 1.2385334 1.2798918
000080 16 a3 84 bf 83 39 fa bc f3 e4 dc 3f 31 c0 98 3f
       -1.036227 -0.030545002 1.725737 1.1933652
000090 ce b1 b2 be ec e6 94 3f 86 94 ed 3d 48 0a bf 3f
       -0.3490128 1.1632972 0.11600594 1.4925013
0000a0 e9 1a 5a 3c 75 93 a8 3f e5 fd 87 3f eb 83 b5 bd
       0.01331208 1.317 1.0624357 -0.08863052
0000b0 c1 c8 9f 3f f1 ec a5 3f 20 49 f0 3f 60 31 c7 3f
       1.248314 1.2962934 1.8772316 1.5561943

6.bias f4 [2]
000000 8e 72 aa 3f d9 83 d2 3f
       1.3316209 1.6446487
