qlearning_agent_policy_20250526_164429.pth (torch, 6473 bytes, 6 tensors)

0.weight f4 [24, 4]
00000000: d8a3 fabb 305c 133f 5b91 f6be 29b1 5ebe
00000010: e979 c2be a3af 28be 619b 8c3e 5f06 bcbc
00000020: 6782 a93e b768 c43e e5d1 9dbe 76b8 bdbe
00000030: 1462 b93e c248 e43e 84d1 173b 04f6 b83e
00000040: 254f c93e 0950 84be c2ef fabe 1f36 103e
00000050: b7b1 06be a45e a83e a17b bbbe f0b7 d03e
00000060: fd7b 56be c5ea 8e3e 953e 143c 7230 b8be
00000070: 5821 093f b90e 13be 5fae 7e3e 9560 a0bc
00000080: a9a0 e8bd f62e 5b3e e6de 513e ebd7 babe
00000090: 7143 a73e 4e1a 973d 1112 03be 9553 0dbf
000000a0: c6f1 a6be 5b38 163e 77a9 103e 2d21 693e
000000b0: 87f1 46be ca73 fcbe 40bf 60bd d50f b33e
000000c0: d8f7 cdbe d88e d03e 2041 0c3e e6d1 03be
000000d0: cfd5 d1bd ab73 133e eec9 e1be 7830 0bbf
000000e0: f8e2 07bd 4d0c 02be 830d e53e a8ee 443d
000000f0: 6a6d 85be 8d67 68be 9363 9c3d 4830 a8be
00000100: 978e 7fbe ac0e ba3d c3f5 07bf 275f e43e
00000110: bc08 aabd 911a fc3e 42e5 c2be 9adf e2be
00000120: 4a54 06bd 4b07 13bf 9255 acbe 6ef8 d5bc
00000130: 92c9 19be d199 ca3e da76 4e3e 240d 8d3d
00000140: 1a7b cabd 1c64 0e3f 7ffe f9bd 5d7d f6be
00000150: 87a6 1dbe 8209 6fbe c773 423e 1e82 c0be
00000160: ffed 083f f79e 143e 51be f7be c248 07bf
00000170: fd7e 2bbd ab3d af3e 0601 d53e 318a 973d
-0.007648926 0.5756254 -0.48157772 -0.21747269 -0.37983635 -0.1647325 0.27462295 -0.022952257
0.33107302 0.3836114 -0.308242 -0.37054795 0.3620764 0.4458676 0.0023165653 0.36125195
0.39318195 -0.25842312 -0.49011046 0.14083146 -0.1315373 0.32884705 -0.3661776 0.40765333
-0.20945735 0.2791349 0.009048124 -0.3597446 0.53566504 -0.14361085 0.24871205 -0.019577304
-0.113587685 0.21404633 0.20495185 -0.36492857 0.3266864 0.07378064 -0.1279986 -0.5520566
-0.32606333 0.14669935 0.14127146 0.22766562 -0.19428073 -0.4930709 -0.05486989 0.34973016
-0.40228152 0.4073398 0.13696718 -0.12873039 -0.10245859 0.14399593 -0.44099373 -0.5437083
-0.03317544 -0.12700005 0.4473687 0.048079163 -0.2606004 -0.22695751 0.0763618 -0.32849336
-0.24956737 0.0908483 -0.5310938 0.44603845 -0.08302447 0.4923902 -0.38065535 -0.4431122
-0.032795228 -0.57433003 -0.33659035 -0.026119437 -0.15018299 0.39570478 0.20162526 0.06887272
-0.09886761 0.55621505 -0.122067444 -0.4814252 -0.15395556 -0.2334347 0.18989478 -0.37599272
0.53488153 0.14513765 -0.48387387 -0.52845395 -0.041869152 0.34226736 0.41602343 0.07399405

0.bias f4 [24]
00000000: d184 343f 6690 563f 1c47 323f d985 efbe
00000010: 4f8e 243f 3fa9 fe3e 42a9 343f 4ea3 2a3f
00000020: ea67 9c3e 7d70 90be cf91 d73e fb99 de3e
00000030: c9e4 303f 8832 b33c 1d16 293f 9ecd cc3e
00000040: 5719 023f f244 ecbd a299 a23e 3c47 4b3f
00000050: bacc fe3e 4ce2 523f 6e87 493e 9fd9 aabe
0.7051516 0.83814085 0.69639754 -0.46781805 0.64279646 0.497385 0.70570767 0.66655433
0.3054803 -0.28210822 0.4210343 0.43476853 0.690991 0.021874681 0.6604937 0.40000623
0.50819916 -0.11536588 0.31757838 0.7940557 0.4976557 0.8237655 0.19680569 -0.33369157

2.weight f4 [24, 24]
00000000: b9ec 893e 1cc5 163e fbdc c83e 098f 873d
00000010: e670 003e 656a e93d 5057 ea3e 655f f03e
00000020: 852b 8b3c 9233 39be 9cbf b13d c694 b3bd
00000030: 06aa a03e b35a 5d3e 100c d93e f45b 393e
00000040: d114 e23d 0f1e 323e f7f4 8c3e 6a0d 9d3e
00000050: 6d06 8f3e 7636 6b3e ccf4 633d e417 7fbd
00000060: 50ad 0fbe 3fbc 4fbe 1790 db3d 261d 18be
00000070: 3314 ffbd facb 1f3e 66f6 643d d7e6 5fbe
00000080: 0379 073c bce1 28be 7f4e 66be 150a 0bbd
00000090: 1811 23be 3bea 85bb ff9b 233e 0d87 66be
000000a0: 2dc7 ba3d 379c 11be c0a5 7d3c d779 153d
000000b0: 7860 923b e83f 5c3d c27f 243d 7397 e53d
000000c0: 117a 6b3e 822b 00be 6cd9 96bc 60a4 11be
000000d0: 132a 81be 573e 75be 6096 4e3d 8a66 5abe
000000e0: 9acf 643d 0850 c13e a31b b7be d23b d2bd
000000f0: 07c2 0ebd 8d30 3a3e db3e 82be 6bc4 9a3e
00000100: 3b53 a13c f00e c33e 590c c23c 5476 253e
00000110: a17d 983e cbb9 f0bd d5a6 313e 2cc1 1d3e
00000120: af17 a73d 65ad ba3e 2c3d 0e3e 94e0 393e
00000130: 5188 f83e b11d f53e 9e25 8d3e 5322 b63e
00000140: ed10 893c 9a8a f9bd b3dd 713e 7232 893e
00000150: 1cc3 de3e 8072 9d3d 8ef7 103f d0db a93e
00000160: c5b7 5c3e 5144 27be 2676 c33e 11a8 e23e
00000170: 04e5 bf3e 69cb 903e 19e0 69bd 5f82 a93c
00000180: 98fb 413e 72b5 c83e 672e 8b3e 2e5b 0ebe
00000190: 87a4 b93e 876f b43e 0a19 793e 1c43 c73d
000001a0: c456 4fbe a55c 81be ea40 c43e 8d6d 66bd
000001b0: c24b 11bd cb3a c4be b5d0 333d 3886 a9bd
000001c0: ed8a 1a3e e5e5 16be f82f 213e ccad 1b3d
000001d0: 1ccd f3bd ea2c c53d f3fa ac3d 7009 e43d
000001e0: 728c 66be 750f a4bd a51c 3a3c 5db4 203e
000001f0: e7b7 9bbd 949a 41be 4827 2fbe fb82 a73d
00000200: 63d3 953d 1639 6f3d 00e0 d13d eddf d03d
00000210: f55b 65be d4a3 0e3e c537 4abe 17e2 e23d
00000220: 3bd8 b8bd e649 1abe adbe f8bd 4fe8 d93d
00000230: 35f7 9a3d 509c d53d f4da ae3d 25fd 0c3e
00000240: 1c70 bf3e 96e8 f43e 95d0 1c3e 658a 16bd
00000250: 9441 303e bb05 0f3f d5b1 bb3e c98d 843e
00000260: ee03 3e3c 5c34 9fbe a93f 983e 96ee 233e
00000270: be21 ea3e 1275 f73d 92b1 123e b9f1 c03e
00000280: 40c2 943e 7281 8fbd 9d90 703e 19ed 0b3e
00000290: d78a b23e 7c4a f33e 952b c13e c889 de3d
000002a0: 37ba 273e f4a2 a7bb c8e9 4f3e b365 42be
000002b0: 87ce a6be d07e 59be 8871 6a3e 9212 bbbd
000002c0: e6ca 1b3d 2be8 443e 1054 87be b914 d33d
000002d0: 0ca2 19be f4f6 423e d160 b23d 398a a6bd
000002e0: 8493 07be 49d4 4d3e 85b0 203e d1a7 703c
000002f0: 8582 ce3d 4a12 99bd 306c 5e3e ef21 44be
00000300: 5514 203d cbcc cdbd 2e4c 263e c653 2bbd
00000310: 6a5a 173d 6d49 4b3d 34c3 e6bd 863a 023e
00000320: eac0 f1bd bfa4 a1bc f537 3dbe 3e9f 70bc
00000330: f8e5 a53d b1aa 2b3e 62f1 6dbe 93b6 ed3c
00000340: 07fe c4bc c20a 013e 38dc 90be 66d9 993d
00000350: 3e00 203e 0609 dc3d 391f f03d 116b cbbd
00000360: ba6b 853e b2c8 033f 8c14 ec3e 8657 fbbc
00000370: f512 5e3e 95d0 a73e cdad b63e 797c 5e3e
00000380: d7f1 843e 3949 3cbe 4bb5 723e 2312 d03e
00000390: 382f 473e 10a1 b83d feac c43e 13ec fa3e
000003a0: f40f d43e 8435 153e af1c 503e 1b4e 803e
000003b0: 941a d63e 6a7c bc3e 0fd1 aa3e 08ab 4b3d
000003c0: aecd 1e3e cfa7 c73e 9253 c63e 39db 2d3e
000003d0: a26a f03e 11d1 043f 42ac 1c3e ab82 883e
000003e0: 8fac 723e e4a0 51be e0f1 ba3e e63e ce3e
000003f0: 5e71 c43e db82 c63d 7249 af3e c321 cc3e
0.26938418 0.14723629 0.39231095 0.06619079 0.12543067 0.11397246 0.4576974 0.4694778
0.016988525 -0.18086079 0.08679125 -0.08768611 0.31379718 0.2161663 0.42392015 0.18101484
0.11039127 0.17394279 0.27530643 0.30674297 0.2793459 0.22969994 0.05565338 -0.062278643
-0.14030957 -0.20286654 0.10720842 -0.14854869 -0.124550246 0.15605155 0.055899046 -0.21865402
0.008268598 -0.16492361 -0.22490881 -0.03394516 -0.1592449 -0.0040867603 0.15977477 -0.22512455
0.09120021 -0.14219747 0.015481412 0.03649315 0.0044670664 0.053771883 0.0401609 0.11210527
0.22995783 -0.12516597 -0.018414222 -0.1422286 -0.25227413 -0.23949562 0.050436378 -0.21328178
0.055862047 0.37756371 -0.35763273 -0.10265316 -0.034853008 0.18182583 -0.2543858 0.3022798
0.019693008 0.38097334 0.023687528 0.1615842 0.29783347 -0.11754187 0.17348798 0.1540572
0.08158814 0.36460415 0.13890523 0.18152076 0.485415 0.47874215 0.27567762 0.35573062
0.016731704 -0.12184639 0.23619728 0.267963 0.43508232 0.07687855 0.5662774 0.33175516
0.21554478 -0.16334654 0.38176078 0.4426885 0.37479413 0.2828019 -0.05709848 0.020692049
0.18943632 0.39200932 0.2718384 -0.1390197 0.36258337 0.3524134 0.24325958 0.09729597
-0.20247942 -0.25265995 0.38330775 -0.05625682 -0.03547264 -0.38326105 0.04390021 -0.08277553
0.15092058 -0.14736135 0.15740955 0.038007542 -0.11904356 0.09627707 0.08446302 0.111346126
-0.22514513 -0.08010761 0.011359368 0.15693803 -0.07603436 -0.18906623 -0.17104828 0.081792794
0.073157094 0.05840405 0.10247803 0.101989605 -0.2239836 0.13929683 -0.19747837 0.110782795
-0.09025618 -0.15067253 -0.121457435 0.106400125 0.07566682 0.10430205 0.08537856 0.13768442
0.3739022 0.478337 0.15313943 -0.036753077 0.17212516 0.5586812 0.36659113 0.25889423
0.011597617 -0.31094635 0.2973607 0.16008982 0.45728868 0.12082876 0.1432555 0.3768442
0.2905445 -0.070071116 0.23492666 0.13664664 0.3487155 0.47517765 0.37728563 0.108661234
0.16379629 -0.005115861 0.20304024 -0.18984108 -0.32579443 -0.21239781 0.22894871 -0.091344014
0.038035296 0.1922919 -0.26431322 0.10306687 -0.15003222 0.19039518 0.087098725 -0.08131833
-0.13239866 0.20100512 0.15692337 0.014688448 0.100834884 -0.074741915 0.21720958 -0.1915357
0.03908189 -0.10048827 0.16239998 -0.04182794 0.03695146 0.04963057 -0.11267701 0.12717637
-0.118043736 -0.019731877 -0.18478377 -0.014686404 0.08100504 0.16764332 -0.23236611 0.029017722
-0.02404691 0.1260176 -0.28293014 0.075121686 0.15625092 0.107439086 0.11724705 -0.09932531
0.2605875 0.5147811 0.46109426 -0.030681383 0.21686919 0.32776323 0.35679474 0.2172717
0.2596576 -0.18387307 0.2370197 0.40638837 0.19451606 0.09015095 0.38413233 0.49008235
0.4141842 0.14571196 0.20323442 0.2505959 0.41817153 0.3681367 0.33362624 0.049723655
0.15508148 0.38995215 0.38735634 0.16978158 0.46956354 0.5188151 0.15300086 0.26662192
0.23698638 -0.20471531 0.3651266 0.40282363 0.38367742 0.096929274 0.34235722 0.39869508

2.bias f4 [24]
00000000: 03f4 cb3d 00c8 c03d 5982 25be e21f 923e
00000010: 1a94 8b3e 4ad5 0d3e 2063 a93e d131 b1bd
00000020: 542b 5fbe 5297 6c3e b400 a53e 8160 dcbd
00000030: 099e 153e 8885 5abe 0d41 1b3e c5c7 5f3e
00000040: 6410 e93d 2417 c13e d731 cb3e c90a 613e
00000050: 1940 a03b e613 8d3b 416b eabd de8a 23be
0.09958651 0.09413147 -0.16163005 0.2853995 0.2726143 0.13850895 0.3308344 -0.0865208
-0.21793872 0.23104599 0.322271 -0.10760594 0.14611067 -0.2134 0.15161534 0.2185355
0.113800794 0.37712967 0.39686462 0.2197677 0.0048904535 0.0043053506 -0.11446238 -0.15970942

4.weight f4 [2, 24]
00000000: 8d37 413d 7100 c5bd ef83 b3be b5f5 003f
00000010: 447d 073f 1a5e 80bd c64a 9f3e f3f8 79be
00000020: 40fb 5fbd c34a a83e f216 bf3e 74d5 24bd
00000030: de7c 013f 41a4 3dbe 58d5 91bd af2b 733e
00000040: cf04 2cbe 0391 fd3e 3424 fa3e d540 4d3e
00000050: ea84 14be 9891 143e 7e1a 653d 7cfb c8bd
00000060: 837a f23e d94d d6bd 4b22 a8be 6db4 9c3e
00000070: 70bc 4b3e 7cf7 30be bc86 e53e 024b 0ebd
00000080: 5c5a 3dbe 5dbe af3e 6c64 ae3e c98e 0d3e
00000090: ccdd 7c3e 708e 08be f536 1cbe 8c12 9d3e
000000a0: cf65 25be 4ed3 d73e b5f2 893e 55ac f93e
000000b0: 9ee0 43be cad7 f5bd a074 353e 729d 4ebc
0.047172118 -0.09619225 -0.35061595 0.5037492 0.52925515 -0.062679484 0.31111735 -0.24411373
-0.05468297 0.3286954 0.37322193 -0.040242627 0.5058116 -0.18519689 -0.0712077 0.23747133
-0.1679871 0.49524698 0.48855746 0.20044263 -0.14503828 0.14508665 0.055933468 -0.09813592
0.47359094 -0.10464067 -0.32838663 0.30606404 0.19896102 -0.17281908 0.44829357 -0.0347395
-0.184915 0.34324923 0.3406099 0.13824 0.24693984 -0.13335586 -0.1525534 0.30678213
-0.16152118 0.421534 0.26942983 0.4876429 -0.19128653 -0.12004049 0.1772027 -0.01261078

4.bias f4 [2]
00000000: 56e3 6f3d 27d7 723e
0.058566414 0.23714887
