qlearning_agent_policy_20250526_164621.pth (torch, 6473 bytes, 6 tensors)

0.weight f4 [24, 4]
0	0x3ea38d1e	0.319436
1	0x3f1a24ca	0.60212386
2	0x3e97198b	0.29511675
3	0xbf2c6fd5	-0.6735814
4	0x3e7b0cda	0.24516621
5	0x3eb080bd	0.3447322
6	0x3ed4b71c	0.4154595
7	0xbeb9b207	-0.36268637
8	0xbe939a9e	-0.288289
9	0x3ed38acc	0.4131683
10	0x3e132496	0.14369425
11	0xbede4fa2	-0.4342013
12	0x3ed41204	0.41419995
13	0xbe804e6a	-0.25059825
14	0x3e652359	0.22376765
15	0xbc13ba88	-0.0090166405
16	0xbe69b5cc	-0.22823256
17	0x3def5121	0.11685396
18	0x3db323a2	0.08747031
19	0xbeef7341	-0.4676762
20	0xbd02c167	-0.031922724
21	0x3eb56bca	0.354338
22	0xbec7afee	-0.3900141
23	0xbf00703f	-0.50171274
24	0xbe9ee79c	-0.3103608
25	0xbf2f97df	-0.6859111
26	0xbd7cb264	-0.061693564
27	0x3f45a53f	0.7720527
28	0xbe8266dc	-0.254691
29	0xbe589fe6	-0.21154746
30	0xbaa96e40	-0.0012926534
31	0xbe5c749e	-0.21528861
32	0x3ee0a69e	0.4387712
33	0xbd7b1f53	-0.06130917
34	0xbddf33e9	-0.10898573
35	0xbe9dfb6c	-0.30855882
36	0x3ec9e7b7	0.39434597
37	0xbd163273	-0.036669206
38	0xbea2eb9c	-0.3182038
39	0x3dc55ad7	0.09636467
40	0x3f0cbbcf	0.54974073
41	0xbd64c07f	-0.05584764
42	0x3e0a8f40	0.13531208
43	0xbeffd4b7	-0.49966976
44	0x3e723205	0.23651893
45	0x3ef4e829	0.47833374
46	0x3ea9e780	0.33184433
47	0xbf163b2c	-0.5868404
48	0xbe63f8e2	-0.2226291
49	0xbf1639fe	-0.5868224
50	0x3ebc8778	0.36822104
51	0x3ef0cac2	0.47029692
52	0x3eb4ad2b	0.35288367
53	0x3f2f5e60	0.6850338
54	0x3e416cb9	0.1888913
55	0xbea8fbde	-0.3300466
56	0x3e8694ea	0.26285487
57	0x3ec6dc08	0.38839746
58	0xbe19e03d	-0.15026946
59	0xbef51739	-0.4786928
60	0x3f2dc344	0.67876077
61	0x3f3f26f6	0.74668825
62	0xbf120d63	-0.57051677
63	0xbe164790	-0.14675736
64	0xbe4ef6cc	-0.20211333
65	0x3f1eb73d	0.6199835
66	0x3cae41b0	0.021271557
67	0xbf0ff5ea	-0.5623461
68	0xbe1762b7	-0.1478375
69	0x3e9933fa	0.29922467
70	0xbe0bf3db	-0.13667242
71	0xbe9d0798	-0.30669856
72	0xbe58cdcc	-0.21172255
73	0x3d82ce9b	0.06387063
74	0x3e700f66	0.23443374
75	0x3ec30c81	0.38095477
76	0x3cb572d9	0.02214949
77	0x3e8c3f9c	0.2739228
78	0xbf015a29	-0.505282
79	0xbf0031a8	-0.5007577
80	0x3e5d656d	0.21620722
81	0x3ee3b8ca	0.4447692
82	0xbf10214c	-0.56300807
83	0xbf332b1e	-0.69987667
84	0xbe7c68b1	-0.24649312
85	0xbf44acc0	-0.76826096
86	0x3f17f8a1	0.5936375
87	0x3f1a930d	0.6038063
88	0xbe0c5874	-0.13705617
89	0x3eb70ecb	0.35753474
90	0x3eb0ca13	0.3452917
91	0xbd6393a2	-0.055560715
92	0x3ecc3280	0.39882278
93	0x3de24b55	0.11049525
94	0xbef80c50	-0.48446894
95	0xbe361491	-0.17781283

0.bias f4 [24]
0	0xbdddcc2e	-0.1082996
1	0x3ecb5e1d	0.3972024
2	0x3ef99289	0.4874461
3	0xbea97d09	-0.33103207
4	0x3f2c12d6	0.6721624
5	0x3f4eb03c	0.8073766
6	0x3ec52328	0.38503385
7	0xbe3e7ecd	-0.18603058
8	0xbe2038ce	-0.1564667
9	0x3f61c737	0.881946
10	0x3f66ceef	0.90159506
11	0x3edc31e2	0.43006808
12	0xbdf69aa8	-0.12041217
13	0x3e5a535b	0.2132086
14	0x3de5fcd1	0.112298615
15	0x3e81949e	0.25308698
16	0x3d662dd3	0.056196045
17	0x3ef4721b	0.47743306
18	0x3f502fde	0.8132304
19	0x3f0cec37	0.55047935
20	0x3f32cb93	0.6984188
21	0x3f017f67	0.50585026
22	0x3f30e34f	0.69096845
23	0x3f005381	0.50127417

2.weight f4 [24, 24]
0	0x3d9261ab	0.07147535
1	0xbe505de9	-0.20348324
2	0xbd79affa	-0.06095884
3	0xbc4b2220	-0.012398273
4	0xbe365185	-0.17804535
5	0x3dd93d40	0.10607386
6	0x3d499f5c	0.049224243
7	0xbe49c942	-0.1970568
8	0x3d87d30e	0.06632052
9	0xbe6601f0	-0.22461677
10	0x3db95732	0.09049834
11	0xbddaa55a	-0.106760696
12	0x3befc5c1	0.0073172753
13	0xbe5cdc9f	-0.21568535
14	0xbe51686d	-0.20449992
15	0x3de643d9	0.1124341
16	0x3e2eaa4f	0.17057155
17	0xbdf5b4c0	-0.11997366
18	0x3e0050f5	0.12530883
19	0xbd9759c4	-0.07390168
20	0x3df7ae3a	0.12093778
21	0xbe0b2612	-0.13588741
22	0xbd92b661	-0.07163692
23	0x3d0b88e4	0.034066096
24	0x3dbe5d3b	0.09295126
25	0xbdc1703e	-0.094452366
26	0xbe1edf07	-0.15514766
27	0x3dfd0de3	0.12356164
28	0xbd114b29	-0.03547207
29	0xbd34ed18	-0.044171423
30	0xbe5c3a92	-0.21506718
31	0xbe32847c	-0.17433351
32	0xbe15c7e5	-0.14627035
33	0x3cc05ce9	0.023481803
34	0xbdb87410	-0.09006512
35	0x3d4c5d1d	0.049893487
36	0xbe56a87c	-0.20962709
37	0xbe4d3b5e	-0.20042178
38	0xbe312f9b	-0.17303316
39	0x3c0ba107	0.008522279
40	0x3d531c94	0.051540926
41	0xbe46b294	-0.1940406
42	0x3d9084a4	0.07056549
43	0x3dece469	0.11567003
44	0xbdd5bfce	-0.104369745
45	0xbe46bcdb	-0.1940798
46	0xbe195e74	-0.14977437
47	0xbe0807e3	-0.13284259
48	0x3c37b646	0.011212891
49	0x3ec67bab	0.38766226
50	0x3ed80f76	0.42199296
51	0xbdb6b13b	-0.08920523
52	0x3ef0b8ca	0.47015983
53	0x3e61650a	0.220112
54	0x3eeafaf6	0.45894593
55	0xbe2d6f8d	-0.16937084
56	0xbe2dd747	-0.16976653
57	0x3ee2c42a	0.44290286
58	0x3ec09c3e	0.37619203
59	0x3ef0f001	0.47058108
60	0x3df39088	0.118928015
61	0x3e3b0f9d	0.18267675
62	0x3d69cd1c	0.057080373
63	0x3e2d3da2	0.16918042
64	0x3e24ae6f	0.16082166
65	0x3eba5888	0.3639567
66	0x3e85c9a3	0.261304
67	0x3ed821d0	0.42213297
68	0x3ece4cc5	0.40292946
69	0x3eac1269	0.33607796
70	0x3f0f9926	0.5609306
71	0x3ece9dc7	0.4035475
72	0x3d9d8b2b	0.0769256
73	0x3e777b0a	0.2416803
74	0x3ee90f38	0.45519423
75	0x3d8f4250	0.0699507
76	0x3e6fe8a9	0.23428597
77	0x3eb3efc5	0.35143867
78	0x3ed6328c	0.4183544
79	0xbda59476	-0.08084957
80	0xbe4a0cde	-0.19731471
81	0x3e4fbf75	0.20287879
82	0x3e38a37d	0.18031116
83	0x3e2d129d	0.16901632
84	0x3e548c6c	0.20756692
85	0x3e485f48	0.19567597
86	0x3eafa2d4	0.34303916
87	0x3e8bc3ab	0.2729772
88	0x3e058568	0.13039172
89	0x3ec6b2ea	0.38808376
90	0x3f19c0ae	0.6005963
91	0x3e85cf9d	0.2613496
92	0x3ed29bd2	0.41134506
93	0x3f17586a	0.59119284
94	0x3f1181b9	0.56838566
95	0x3ebddc6e	0.37082237
96	0x3d80ad0c	0.06283006
97	0x3e1fc5b0	0.15602756
98	0x3dd0b9bc	0.10191676
99	0xbe4c3440	-0.19941807
100	0xbdcfaf6b	-0.1014088
101	0xbd9ea568	-0.077463925
102	0xbe4dd8f5	-0.20102294
103	0xbe34ea0a	-0.17667404
104	0xbe100918	-0.14065969
105	0xbc92f98f	-0.017941264
106	0x3e18e986	0.14932832
107	0xbe05b974	-0.13059026
108	0xbe02a23b	-0.12757199
109	0xbdc725a3	-0.097239755
110	0xbe43d815	-0.19125398
111	0xbe3ec133	-0.18628387
112	0x3dcbf9b0	0.099597335
113	0xbd0f31be	-0.034959547
114	0xbd8070af	-0.06271493
115	0x3e203f83	0.15649228
116	0xbe4e3d04	-0.20140463
117	0xbd3b20ba	-0.045685507
118	0xbd83fa86	-0.06444268
119	0x3d54006b	0.05175821
120	0x3e279d4d	0.16368599
121	0x3ece27a8	0.4026463
122	0x3ec7186c	0.3888582
123	0x3e2ad224	0.16681725
124	0x3eb4ff38	0.35350966
125	0x3f11a291	0.5688868
126	0x3e80f82e	0.25189346
127	0xbdf3861d	-0.118908145
128	0xbe2a55b8	-0.16634262
129	0x3e9203a7	0.28518412
130	0x3f01f4c7	0.50764126
131	0x3e1844fc	0.14870065
132	0x3e907269	0.28212288
133	0x3e272ec8	0.1632644
134	0x3ebd8c32	0.37021023
135	0x3e76a945	0.24088009
136	0x3d203cca	0.039120473
137	0x3e4d7569	0.2006432
138	0x3e930be3	0.28720006
139	0x3e972077	0.29516956
140	0x3f07e120	0.5307789
141	0x3f21d4eb	0.6321551
142	0x3ec1ee7f	0.3787727
143	0x3f0d6fd2	0.5524875
144	0x3e00c83c	0.12576383
145	0x3ed12454	0.4084803
146	0x3e919b96	0.28439015
147	0x3e2ddbf2	0.16978434
148	0x3ef4dfd4	0.47827017
149	0x3ebd702d	0.36999646
150	0x3f0193d5	0.506162
151	0xbdc5c823	-0.09657314
152	0xbe693033	-0.22772293
153	0x3e740ca5	0.23832949
154	0x3e84114f	0.25794455
155	0x3ef00018	0.46875072
156	0x3e805b8f	0.25069854
157	0x3eec3ed9	0.461417
158	0x3e36517b	0.1780452
159	0x3ec63907	0.38715383
160	0x3d27ae59	0.040937755
161	0x3eb38f3a	0.3507021
162	0x3e988a59	0.2979305
163	0x3eb792ed	0.35854283
164	0x3ed6b311	0.41933492
165	0x3e561436	0.20906147
166	0x3eece657	0.46269485
167	0x3ec85b60	0.39132214
168	0xbe1af674	-0.15133077
169	0x3dfad88f	0.122483365
170	0xbdbc7fc0	-0.09204054
171	0xbd202ae4	-0.039103404
172	0x3c33058d	0.010926616
173	0x3def4f22	0.11685015
174	0x3d642fb7	0.055709567
175	0xbd6e2b88	-0.058146983
176	0xbe00df81	-0.1258526
177	0x3d865229	0.065586396
178	0xbe07bd80	-0.13255882
179	0x3d580f94	0.05274923
180	0xbd10976b	-0.035300653
181	0x3e0c6597	0.13710628
182	0x3e18c83e	0.14920136
183	0xbd40723c	-0.046983942
184	0x3daa05fb	0.08301922
185	0xbdc76779	-0.09736533
186	0x3d4da014	0.05020149
187	0x3d0791b2	0.03309793
188	0xbe13d4f2	-0.14436701
189	0xbdf584b6	-0.11988203
190	0xbe7e63a3	-0.24842696
191	0xbd6ccb92	-0.057811327
192	0x3e23fb4b	0.1601383
193	0xbe3a16c3	-0.18172745
194	0x3e0ab419	0.13545264
195	0xbceae3b7	-0.028673036
196	0xbe30b1d3	-0.17255335
197	0xbd5b984b	-0.053612035
198	0xbe2700ca	-0.16308895
199	0xbe2936ba	-0.16524783
200	0xbd9c4ee4	-0.07632235
201	0xbdb7b2e6	-0.08969669
202	0x3e0dfa2d	0.13864966
203	0xbe4f8d5b	-0.20268767
204	0x3d4ab024	0.049484387
205	0xbdd7c669	-0.105358906
206	0x3e24bcee	0.16087696
207	0xbe19ebd7	-0.15031372
208	0xbe0dad91	-0.13835742
209	0xbe4c8742	-0.19973472
210	0x3e42b84b	0.19015615
211	0xbcfb1267	-0.030648423
212	0x3e0a18f2	0.13486078
213	0xbd38a344	-0.045077577
214	0xbe04db85	-0.12974365
215	0xbe344416	-0.17604098
216	0x3e57f10c	0.21088046
217	0x3f0d51fc	0.55203223
218	0x3f01f52f	0.50764745
219	0x3e05aa3f	0.13053225
220	0x3e9a6b8f	0.30160186
221	0x3e8042c0	0.25050926
222	0x3f0d7c03	0.5526735
223	0x3e1634f6	0.1466864
224	0xbe890edb	-0.26769146
225	0x3e696cc6	0.227954
226	0x3e7ff0a8	0.24994147
227	0x3ea7daea	0.32784206
228	0x3eab90f7	0.33509037
229	0x3eb8726d	0.360248
230	0x3e70bea2	0.2351022
231	0x3ec734c6	0.3890745
232	0x3e023afc	0.12717813
233	0x3ee36bc4	0.44418156
234	0x3ec8c4b8	0.39212584
235	0x3eafbb38	0.34322524
236	0x3ee06d48	0.43833375
237	0x3e976a64	0.29573357
238	0x3ee81a62	0.45332628
239	0x3ea769c3	0.32697877
240	0xbd052213	-0.0325032
241	0x3e510144	0.20410639
242	0x3f178f1f	0.5920276
243	0x3e201c7c	0.15635866
244	0x3edfd129	0.43714264
245	0x3e712230	0.23548198
246	0x3e85f81d	0.26165858
247	0x3d5e6325	0.05429377
248	0xbe07324d	-0.13202782
249	0x3f1b1e22	0.60592854
250	0x3ee19a02	0.4406281
251	0x3e71e19d	0.23621221
252	0x3e77b996	0.24191889
253	0x3e7d4d05	0.24736412
254	0x3eda419a	0.42628175
255	0x3e8c5193	0.27405986

2.bias f4 [24]
0	0xbd84d726	-0.06486349
1	0x3de891b6	0.11355917
2	0x3ed07e1e	0.4072122
3	0x3e4e8090	0.2016623
4	0xbd0ac3ba	-0.033878066
5	0x3eefe4dd	0.46854296
6	0x3e920fe4	0.2852775
7	0x3c3a3d72	0.011367189
8	0xbd265c6f	-0.040615495
9	0x3ec2a48e	0.3801617
10	0x3ee610b9	0.44934633
11	0xbe84c5a0	-0.25932026
12	0x3eb21fd8	0.3478992
13	0xbe4a6b2d	-0.19767447
14	0xbc449fd6	-0.0120009985
15	0x3e981492	0.29703194
16	0x3ef34d85	0.4752008
17	0xbe350cd6	-0.17680678
18	0x3f122a0f	0.57095426
19	0x3f122f36	0.5710329
20	0x3e8396da	0.25701028
21	0xbc904485	-0.017610798
22	0x3f127fa8	0.5722604
23	0x3f052e3b	0.5202367

4.weight f4 [2, 24]
0	0xbe0651c9	-0.13117136
1	0xbddb701b	-0.10714742
2	0x3ef6c3d4	0.4819628
3	0x3f0dfd2c	0.55464435
4	0xbdf4222a	-0.11920579
5	0x3ecb2dea	0.39683467
6	0x3e8a55b2	0.27018505
7	0xbaa80934	-0.0012820126
8	0xbcea976f	-0.028636662
9	0x3e4b1de9	0.19835629
10	0x3e91a23e	0.28444093
11	0xbe4b5f87	-0.1986066
12	0x3ed017ce	0.40643162
13	0x3e361585	0.17781647
14	0xbd918892	-0.07106127
15	0x3eaaf47e	0.33389658
16	0x3effc3bb	0.49954018
17	0xbd1e7ff7	-0.038696256
18	0x3e981919	0.29706648
19	0x3ecf9e0a	0.40550262
20	0x3effcaf2	0.49959522
21	0x3da9cd41	0.08291102
22	0x3ea56c27	0.32309076
23	0x3e230f1d	0.15923734
24	0xbdaccb4c	-0.08437213
25	0xbdb177ed	-0.08665452
26	0x3e91618d	0.28394738
27	0x3ef5eeac	0.48033655
28	0xbca1e49e	-0.019762333
29	0x3eee6175	0.4655873
30	0x3ef32d6b	0.4749559
31	0xbe224d61	-0.1584983
32	0xbe14f954	-0.14548236
33	0x3f19e55c	0.601156
34	0x3f0807d6	0.53136957
35	0xbee0d8ab	-0.43915305
36	0x3f058d5d	0.5216883
37	0x3dddb0e0	0.10824752
38	0xbdcef833	-0.10105934
39	0x3f0cd537	0.5501284
40	0x3eeb7994	0.45991194
41	0x3e4a9838	0.1978463
42	0x3f18d17d	0.59694654
43	0x3e988f81	0.29796985
44	0x3e92592c	0.28583658
45	0xbd9473ab	-0.072486244
46	0x3ee878b4	0.4540459
47	0x3f129cac	0.5727031

4.bias f4 [2]
0	0x3e3dc2b8	0.1853131
1	0x3e8d19fe	0.27558893
