qlearning_agent_policy_20250526_120741.pth (torch, 6473 bytes, 6 tensors)

0.weight f4 [24, 4]
0	0x3ebefb3f	0.3730106
1	0xbf3b394c	-0.73134303
2	0xbfd264f0	-1.6437054
3	0xbf8a2597	-1.0792722
4	0xbf958c6e	-1.1683481
5	0x3e1424f0	0.14467216
6	0x403986c7	2.8988512
7	0x3f81b14a	1.0132229
8	0xbec3ffca	-0.3828109
9	0xbeb44226	-0.35206717
10	0xc00ca928	-2.1978245
11	0xbf8db8f9	-1.1072074
12	0xbe0d2213	-0.1378253
13	0x3c293b22	0.01032904
14	0x40108ddd	2.2586586
15	0x3fa801b2	1.3125517
16	0x3e3735ba	0.17891589
17	0xbe4aa166	-0.19788131
18	0x3e8ac8e5	0.27106395
19	0xbde94b9d	-0.11391375
20	0x3dcce5fd	0.10004804
21	0xbe8b6b76	-0.27230424
22	0xc01b6a2d	-2.4283555
23	0xbfcf7941	-1.6208879
24	0xbe44cea2	-0.19219449
25	0xbeabce77	-0.33555958
26	0xc02c5ca4	-2.6931543
27	0xbfa9ddf6	-1.3270862
28	0xbe7666e6	-0.2406269
29	0x3e453ef7	0.192623
30	0xbef2acd6	-0.47397488
31	0xbe5f9def	-0.2183759
32	0xbe6adc8a	-0.22935691
33	0x3ef693af	0.4815955
34	0xbdc2d70f	-0.095136754
35	0xbdba2cb3	-0.09090557
36	0x3fe82e0a	1.813905
37	0x3f44bb18	0.7684798
38	0xbe1360e8	-0.14392436
39	0x3eaf9e2e	0.3430037
40	0xbed51387	-0.4161646
41	0xbf0a11f2	-0.5393363
42	0xc038fb79	-2.8903487
43	0xbfb76290	-1.4326954
44	0xbf028331	-0.5098143
45	0x3f9561e9	1.1670505
46	0xbe3036a4	-0.17208344
47	0x3ed3af4d	0.4134468
48	0x3d48db4c	0.049037263
49	0xbf14f494	-0.58185697
50	0xbf909f93	-1.1298698
51	0xbe0eca51	-0.13944365
52	0xbf5d4c20	-0.8644428
53	0xbf8429da	-1.0325272
54	0xbf296386	-0.66167486
55	0xbc33b761	-0.010969014
56	0xbe9e6f77	-0.30944416
57	0x3f305f04	0.6889498
58	0x3d068fd3	0.032852005
59	0x3d42d86e	0.047569685
60	0xbd99149c	-0.07474634
61	0xbe2dc312	-0.16968945
62	0xbface065	-1.350598
63	0xbe6ba101	-0.23010637
64	0xbe65224e	-0.22376367
65	0x3e71ae3d	0.23601623
66	0xbf1eecf6	-0.62080324
67	0xbdc041fb	-0.09387585
68	0x3dd309e5	0.103046216
69	0xbf0d2ff5	-0.551513
70	0xbf83ea79	-1.030593
71	0xbf194df4	-0.5988457
72	0xbe1923c1	-0.14955045
73	0x3d17adc0	0.037030935
74	0xbeaac735	-0.33355108
75	0xbe23e34c	-0.16004676
76	0xbe07fccb	-0.13280027
77	0xbeb462f8	-0.35231757
78	0xbf856cd1	-1.0423833
79	0xbe0337b1	-0.12814213
80	0xbe3ae410	-0.18251061
81	0x3d078061	0.033081416
82	0xbedd1226	-0.4317791
83	0xbeb9f824	-0.3632213
84	0xbccb7aaa	-0.024838764
85	0xbcd01fce	-0.02540579
86	0xbf1b163b	-0.60580796
87	0xbe8632ae	-0.2621054
88	0xbe87b38d	-0.26504174
89	0xbe38903d	-0.18023773
90	0xbea80c2f	-0.32821795
91	0xbf0bfafb	-0.5467984
92	0xbe91b566	-0.2845871
93	0x3f2c1c09	0.6723028
94	0x3e99e7bc	0.30059612
95	0xbcbafc50	-0.02282539

0.bias f4 [24]
0	0xbedb3724	-0.42815506
1	0x3eab73ea	0.33486873
2	0x3f9636a9	1.1735431
3	0x3f5331be	0.82497776
4	0xbec7c199	-0.3901489
5	0xbe0ea947	-0.13931762
6	0x3f7e6122	0.9936696
7	0x3fc6754e	1.5504549
8	0x3f8cd45c	1.1002307
9	0x3ed55a75	0.41670576
10	0x3f0ce65c	0.55039
11	0x3eccbbcb	0.39987025
12	0x3fc65f7a	1.5497887
13	0x3ecf014f	0.40430686
14	0x3f868c96	1.0511653
15	0x3fa538ac	1.290792
16	0x3f93435b	1.150493
17	0x3fde3226	1.7359054
18	0x3f997a31	1.1990415
19	0x3fcbd474	1.592421
20	0x3fb7acd6	1.434962
21	0x3fbc8253	1.4727272
22	0x3fdefbfb	1.7420648
23	0x3f8516db	1.03976

2.weight f4 [24, 24]
0	0xbf9a4a30	-1.205389
1	0xbfe98983	-1.824509
2	0xbfa5fdcc	-1.2968078
3	0xbfcda7e4	-1.6066861
4	0xbe15b488	-0.14619648
5	0xbf9a47ed	-1.20532
6	0xbfc9b66a	-1.5758793
7	0x3f17118e	0.5901116
8	0x3f0bddd8	0.5463538
9	0x3f8c14e7	1.0943879
10	0xbf7c2fb8	-0.98510313
11	0xbf49e90b	-0.7887122
12	0x3f4e854a	0.8067213
13	0x3eb30d3d	0.34971038
14	0x3f389d21	0.7211476
15	0x3f2c99fa	0.6742245
16	0x3eb8bee0	0.36083126
17	0x3f29b890	0.66297245
18	0x3f58cb39	0.84685093
19	0x3f1a0e61	0.6017819
20	0x3eff0f08	0.49816155
21	0x3f3725a5	0.71541816
22	0x3f34e127	0.70656055
23	0x3f386836	0.72034013
24	0x3f98dc84	1.1942296
25	0xbfa225ea	-1.266782
26	0x3f8351fc	1.0259395
27	0x3ec5f5cb	0.38664088
28	0xbd4496e1	-0.04799545
29	0x3ff8a24b	1.9424528
30	0x3f6df189	0.9294668
31	0x3f26cbe4	0.6515486
32	0x3ead2de2	0.33824068
33	0xbf2fe8d5	-0.6871465
34	0x3fed5779	1.854232
35	0xbdb6bc6e	-0.08922659
36	0x3e2c4e7f	0.16826819
37	0x3e6d4cc5	0.23173817
38	0xbfc3c90d	-1.5295731
39	0x3f342e0a	0.7038275
40	0xbea32087	-0.31860754
41	0x3fbc4123	1.4707378
42	0xbe96395a	-0.2934063
43	0x3efd5156	0.49476117
44	0x3f418d7c	0.75606513
45	0x3ed8bb50	0.42330408
46	0x3f8e97fd	1.1140133
47	0xbfc6b9c6	-1.5525444
48	0x3f2bed0c	0.6715858
49	0xbf62abae	-0.8854321
50	0xbfc0925b	-1.5044664
51	0xbdb3cda5	-0.08779458
52	0xbe0b5dbb	-0.13609974
53	0xbf5fc115	-0.87403995
54	0xc000ea1e	-2.0142894
55	0xbf28b9a9	-0.65908295
56	0xbedcb0d1	-0.4310365
57	0x3ef08246	0.4697439
58	0xbfa42925	-1.2825056
59	0xc02640c4	-2.597703
60	0x3fb394e9	1.4029819
61	0x3f1678bc	0.58777976
62	0x3f8a6d53	1.0814613
63	0x3f966e28	1.1752367
64	0x3f5826bc	0.84434104
65	0xbdbc4846	-0.091934726
66	0x3f573caf	0.8407697
67	0x3faca080	1.3486481
68	0xbec616d0	-0.3868928
69	0x3ede9e90	0.4348035
70	0x3d3db295	0.046312887
71	0x3f835f20	1.0263405
72	0xbe3b0779	-0.1826457
73	0xbcda4dcc	-0.026648425
74	0xbd2f6d3d	-0.042828787
75	0x3b6e8d43	0.0036400117
76	0xbd76c9c3	-0.06025101
77	0xbd1243df	-0.03570926
78	0xbdc1babe	-0.09459446
79	0xbd050988	-0.032479793
80	0xbe2441ef	-0.16040777
81	0x3d1f918c	0.038957164
82	0xbd82a44c	-0.063789934
83	0x3c1e21b9	0.009651595
84	0x3dd4cbcd	0.103904344
85	0xbe2c30fd	-0.16815563
86	0xbb703a0a	-0.0036655688
87	0x3c1384ef	0.009003862
88	0xbe226485	-0.15858658
89	0x3b5b50c2	0.0033464883
90	0x3dfcda70	0.12346351
91	0xbe083b13	-0.13303785
92	0xbdc7bc2e	-0.09752689
93	0xbcda8209	-0.026673334
94	0x3d12307c	0.03569077
95	0xbdf0f7d8	-0.117660224
96	0xbf5e8eea	-0.8693682
97	0xc00c7e5c	-2.1952124
98	0xbf9a379b	-1.204822
99	0xbfe447b2	-1.783438
100	0x3dea0170	0.114260554
101	0xbf3e9795	-0.74450046
102	0xbf834e67	-1.0258301
103	0x3e18730b	0.14887635
104	0xbea9506d	-0.33069173
105	0x3d92a8f4	0.071611315
106	0xbf0eccb0	-0.5578108
107	0xbf7c828c	-0.986367
108	0x3ec64945	0.38727775
109	0x3eda9304	0.4269029
110	0xbe0d2b6f	-0.137861
111	0x3ef2c1c6	0.47413462
112	0x3eae7dc3	0.34080324
113	0x3e2695be	0.1626806
114	0x3d8aacf3	0.06771269
115	0x3e98878c	0.29790914
116	0x3e399625	0.18123682
117	0x3eebb1f0	0.46034193
118	0xbc86ed2a	-0.01647051
119	0xbe2dd532	-0.16975859
120	0xbf83d01f	-1.0297889
121	0xc0019be3	-2.0251396
122	0xbfbd4bf5	-1.4788805
123	0xbfd315fc	-1.6491084
124	0xbe161018	-0.14654577
125	0xbf8f19c0	-1.1179733
126	0xbfd1d9e6	-1.6394622
127	0x3f56971b	0.8382432
128	0x3f3936f7	0.72349495
129	0x3f801568	1.0006533
130	0xbf6c4f92	-0.92308915
131	0xbf6ae66f	-0.91757864
132	0x3f12442a	0.5713526
133	0x3f1c862b	0.61142224
134	0x3edd6e1a	0.43248063
135	0x3f76bad0	0.96378803
136	0x3f1ef6d8	0.62095404
137	0x3f3fa809	0.74865776
138	0x3f069363	0.52568644
139	0x3f4a5cea	0.79048026
140	0x3f3694f4	0.71321034
141	0x3f5e81c2	0.86916745
142	0x3f586584	0.845299
143	0x3ef074b7	0.46964046
144	0xbfb5f5bb	-1.4215616
145	0xc00078e8	-2.0073795
146	0xbfcd0eab	-1.6020101
147	0xbfce7137	-1.61283
148	0x3d126137	0.035737243
149	0xbf9c11ac	-1.2192893
150	0xbfcc8256	-1.5977275
151	0x3f348318	0.70512533
152	0x3f2ad9a6	0.66738355
153	0x3f4e340e	0.8054818
154	0xbf9e62ac	-1.2373862
155	0xbf770586	-0.96492803
156	0x3f0aee6e	0.54270065
157	0x3f177b34	0.5917237
158	0x3efbf503	0.49210367
159	0x3f59e86d	0.8512028
160	0x3f157010	0.5837412
161	0x3f4747be	0.77843845
162	0x3f142a89	0.57877403
163	0x3f339337	0.7014651
164	0x3f198ef2	0.5998374
165	0x3f620a20	0.882967
166	0x3f4e260f	0.8052682
167	0x3f2ed9f7	0.6830134
168	0x3f8b08a2	1.086201
169	0xbf2dc6b4	-0.6788132
170	0x3f8a6e7c	1.0814967
171	0x3e92b1b1	0.28651193
172	0x3d819533	0.063272856
173	0x3fc61496	1.5475032
174	0x3f75e1be	0.9604758
175	0x3dbcfec8	0.09228283
176	0xbdca4e35	-0.09878198
177	0xbfc58cf5	-1.5433642
178	0x3faf6252	1.370188
179	0xbf332c3a	-0.6998936
180	0x3f24a5aa	0.64315283
181	0x3eddbb95	0.43307176
182	0xbee441d8	-0.44581485
183	0x3f2aabe3	0.6666853
184	0x3ddff128	0.10934669
185	0x3f3e52db	0.7434518
186	0x3e3009c8	0.17191231
187	0x3ee52a24	0.44758713
188	0x3d82205e	0.0635383
189	0x3e1a3251	0.15058257
190	0x3f514b60	0.8175564
191	0xbf04132f	-0.5159177
192	0xbf8fddef	-1.1239604
193	0xbfbe3cf5	-1.4862353
194	0xbf90ccbf	-1.1312484
195	0xbfa1a74b	-1.2629179
196	0x3da582c5	0.08081583
197	0xbf3b9062	-0.73267186
198	0xbf9d34e1	-1.2281762
199	0x3f671e8f	0.90281004
200	0x3f3169c6	0.6930202
201	0x3faa6abd	1.3313824
202	0xbf8296f2	-1.0202315
203	0xbf4ab74f	-0.79185957
204	0x3f39d659	0.72592694
205	0x3ea5062e	0.32231277
206	0x3f31054e	0.6914872
207	0x3f589d37	0.8461489
208	0x3f3a6860	0.72815514
209	0x3f8c2a8e	1.0950487
210	0x3f275c14	0.65374875
211	0x3f1b1650	0.6058092
212	0x3f6cb07c	0.92456794
213	0x3f81f5af	1.0153102
214	0x3f434f55	0.76292926
215	0x3f264ed6	0.64964044
216	0xbfb3d9ff	-1.4050902
217	0xbfe54148	-1.7910547
218	0xbfc8dad5	-1.5691782
219	0xbfb6bc92	-1.4276297
220	0x3e19648f	0.14979766
221	0xbfb64023	-1.4238323
222	0xbfb8775b	-1.4411424
223	0x3f4a2a8d	0.7897118
224	0x3f0529bc	0.52016807
225	0x3f8f5384	1.1197362
226	0xbfadc505	-1.357575
227	0xbf56ac35	-0.8385652
228	0x3f46fda2	0.7773076
229	0x3ebd93ea	0.37026912
230	0x3eedcf69	0.46447304
231	0x3f4ca07f	0.799324
232	0x3ed4a774	0.41534007
233	0x3f3aa672	0.72910225
234	0x3f2a52b1	0.6653243
235	0x3f1c4fbe	0.61059177
236	0x3f3da11b	0.7407395
237	0x3f6cc249	0.92483956
238	0x3f1f690c	0.62269664
239	0x3f3cb7d9	0.7371803
240	0xbaa95ec9	-0.0012921925
241	0xbe576271	-0.21033646
242	0xbe189344	-0.14899927
243	0xbe1f7dfb	-0.15575401
244	0xbd79056e	-0.060796194
245	0x3d0b5d95	0.034024794
246	0xbc5b14f0	-0.013371691
247	0xbd43d11e	-0.04780685
248	0x3d469d8d	0.048490096
249	0x3db27850	0.08714354
250	0xbd411a6e	-0.047144346
251	0xbc929a6c	-0.0178959
252	0xbd6741e1	-0.05645931
253	0xbda598b6	-0.08085768
254	0xbe1bc426	-0.15211543
255	0xbd898a4d	-0.06715832

2.bias f4 [24]
0	0x3f5a98b5	0.8538926
1	0x3ef5d16d	0.48011342
2	0x3f91010c	1.1328444
3	0xbd806929	-0.06270058
4	0x3e724455	0.23658879
5	0x3f3b1c6a	0.7309023
6	0x3f2c5ae8	0.6732621
7	0x3ef780de	0.48340505
8	0x3f49b361	0.78789335
9	0x3f472aae	0.777995
10	0xbe28685b	-0.16446058
11	0xbdcc7fbc	-0.09985301
12	0x3e988883	0.2979165
13	0xbe45b5da	-0.19307652
14	0x3f34a6d6	0.7056707
15	0xbdcf6600	-0.10126877
16	0x3f3c97f4	0.7366936
17	0xbe8fb340	-0.28066444
18	0x3f29d320	0.66337776
19	0x3f686358	0.90776587
20	0x3f4d2be1	0.8014508
21	0x3d8f3658	0.06992787
22	0x3d9e00e6	0.07715015
23	0x3f4675e6	0.7752365

4.weight f4 [2, 24]
0	0x3fa11e9a	1.2587464
1	0xbf842c82	-1.0326083
2	0xbfd0815a	-1.6289475
3	0xbb048272	-0.0020219353
4	0x3f574492	0.84089005
5	0x3fca2008	1.5791025
6	0x3fc47563	1.5348324
7	0xbfd7e4b1	-1.6866666
8	0x3fcab9a8	1.5837908
9	0x3fa9b5ad	1.3258568
10	0xbdecefb7	-0.115691595
11	0x3caf7bc5	0.021421323
12	0xc01ed59c	-2.4817877
13	0x3da95768	0.082686245
14	0x3faf9da0	1.3719978
15	0x3d4a1c63	0.049343478
16	0x3faa8f53	1.3324989
17	0x3c878355	0.016542116
18	0x3fdafc76	1.7108295
19	0x3fc78ba9	1.5589496
20	0x3fe7b3a9	1.8101703
21	0xbfcd7ed9	-1.6054336
22	0x3c92d0d9	0.017921852
23	0x3fc54a1a	1.5413239
24	0x3f96bd54	1.1776528
25	0xbfbff32e	-1.4996088
26	0x3ef61d86	0.480694
27	0x3e067f85	0.13134582
28	0x3f9bc6f4	1.2170091
29	0x3fa430fb	1.2827448
30	0x3fb67f3d	1.425758
31	0xbf823a42	-1.0174029
32	0x3fa16d91	1.2611562
33	0x3fb34919	1.4006683
34	0x3da6a7e9	0.08137495
35	0xbda91602	-0.08256151
36	0xbea1860d	-0.31547585
37	0xbdb9f206	-0.090793654
38	0x3f9d70b2	1.2300017
39	0x3e328f17	0.17437397
40	0x3f9bd437	1.2174138
41	0xbcb92b8a	-0.022603769
42	0x3f88730f	1.0660113
43	0x3f8b5760	1.088604
44	0x3f96fd06	1.1795967
45	0xbfbdcb38	-1.4827642
46	0xbd713a64	-0.058893576
47	0x3fa6b595	1.3024164

4.bias f4 [2]
0	0x3eca2dbf	0.39488026
1	0x3f9292ea	1.1451085
