qlearning_agent_policy_20250528_195531.pth (torch, 6473 bytes, 6 tensors)

0.weight f4 [24, 4]
0	0xbeb1ceb1	-0.34728006
1	0x3f23f235	0.64041454
2	0x3f5ba9f4	0.858062
3	0xbdb19705	-0.08671383
4	0xbfa0ea07	-1.257142
5	0x3e85bf75	0.26122633
6	0x3f7a47c3	0.9776575
7	0x3eac2b7c	0.33626926
8	0xbf37f2b3	-0.71854705
9	0xbe581c9e	-0.21104667
10	0x3f158022	0.5839864
11	0x3f28a8ab	0.65882367
12	0xbf7a4ade	-0.9777049
13	0x3d8d26d1	0.06892169
14	0x3f9576d4	1.1676888
15	0x3ddf1c8f	0.10894119
16	0xbfb54380	-1.4161224
17	0xbdd10be5	-0.10207347
18	0x3f198ae1	0.5997754
19	0xbe8989c5	-0.26862922
20	0xbf8671b2	-1.0503447
21	0x3ef7d992	0.4840818
22	0x3fa7ac74	1.3099504
23	0x3ecaf4cf	0.396399
24	0xbfa98e87	-1.3246621
25	0x3f184dc2	0.5949365
26	0x3f883e26	1.0643966
27	0x3e7df661	0.24801017
28	0xbf08abc1	-0.53387076
29	0x3f104e26	0.56369245
30	0x3f69be67	0.91306156
31	0x3f01f2d2	0.5076114
32	0xbf10d019	-0.5656753
33	0x3e911fb0	0.28344488
34	0x3f29989d	0.66248494
35	0xbe8034eb	-0.25040373
36	0xbf58db35	-0.84709483
37	0x3f042442	0.51617825
38	0x3f7c83b1	0.98638445
39	0xbded2864	-0.115799695
40	0xbef55fcc	-0.4792465
41	0xbdae5719	-0.08512706
42	0x3ed55685	0.41667572
43	0xbe9f5721	-0.31121162
44	0xbfa5c8aa	-1.2951863
45	0x3e73b5ce	0.23799822
46	0x3f1524f5	0.58259517
47	0xbeb8a64b	-0.3606437
48	0xbece1a0f	-0.40254256
49	0x3eacc0b7	0.3374078
50	0x3e826097	0.25464317
51	0xbf0640bc	-0.52442527
52	0xbf3193d3	-0.69366187
53	0x3f18e935	0.59730846
54	0x3f9916f6	1.1960132
55	0x3ef641d0	0.48097086
56	0xbf5d5c8a	-0.8646933
57	0x3d98dfe9	0.074645825
58	0x3f88266a	1.0636723
59	0x3e83c13f	0.25733373
60	0x3de1c5ae	0.110240325
61	0xbec2d0db	-0.3804997
62	0x3b4d96f5	0.0031370495
63	0xbe7940b1	-0.24341084
64	0xbeda6dd9	-0.42661932
65	0xbed3305f	-0.41247842
66	0x3eda7e5d	0.42674533
67	0x3eb2ca2c	0.3491987
68	0xbf81d2ac	-1.0142417
69	0xbe60ec64	-0.21965176
70	0x3fa658bd	1.2995831
71	0xbec5ccc9	-0.386328
72	0xbf8ff2ea	-1.1246006
73	0xbe69cb6a	-0.22831503
74	0x3fb70dcc	1.4301085
75	0xbeeb89fc	-0.4600371
76	0xbea5fde6	-0.32420272
77	0xbe5c2c3f	-0.21501254
78	0x3e5690fd	0.20953746
79	0xbf047d70	-0.517539
80	0xbfb66716	-1.4250209
81	0x3eb59e92	0.35472542
82	0x3f43ac48	0.76434755
83	0x3e99308d	0.29919854
84	0x3df76cee	0.120813236
85	0x3ec67722	0.38762766
86	0xbdc20c94	-0.09475055
87	0x3e8b5bdb	0.27218518
88	0xbee1f22b	-0.44130072
89	0x3efcb410	0.49356127
90	0x3f96d1a5	1.1782728
91	0x3e4b5e45	0.1986018
92	0xbf99f6b1	-1.2028409
93	0x3f05eb28	0.52311945
94	0x3fb1eaf0	1.3899822
95	0xbc917f49	-0.01776089

0.bias f4 [24]
0	0x3f831c59	1.0243026
1	0x3f8796ff	1.0592955
2	0x3f7f1d1b	0.99653786
3	0x3f3d11db	0.7385537
4	0x3f4599a3	0.77187556
5	0x3f3a57d9	0.72790295
6	0x3f856b15	1.0423304
7	0x3f7110c3	0.941662
8	0x3f60dd80	0.8783798
9	0x3f396066	0.7241272
10	0x3eecb37a	0.4623068
11	0x3f808f71	1.0043775
12	0x3f0bb21b	0.5456864
13	0x3f16ed12	0.5895549
14	0x3f8800f3	1.062529
15	0xbee9eb17	-0.45687172
16	0x3f97cac9	1.185876
17	0x3f3a7454	0.7283375
18	0x3f8295e6	1.0201995
19	0x3f527da2	0.8222295
20	0x3f7ba3b4	0.98296666
21	0xbe8ba883	-0.27277002
22	0x3f8d832b	1.1055654
23	0x3f630b8d	0.886895

2.weight f4 [24, 24]
0	0x3ee735b1	0.4515815
1	0x3f0239de	0.5086955
2	0x3ebfe946	0.3748266
3	0x3f51174d	0.8167618
4	0x3f22a97c	0.6353986
5	0x3f514c72	0.8175727
6	0x3f29f09a	0.66382754
7	0x3f296b53	0.6617939
8	0x3e92fef6	0.28710145
9	0x3ddac7c9	0.10682637
10	0x3d488b77	0.04896113
11	0x3eec6c8d	0.46176568
12	0xbe48b7f8	-0.19601429
13	0x3f30f8e9	0.69129807
14	0x3f71ea2a	0.9449793
15	0xbdedf8a5	-0.11619691
16	0x3ee702b1	0.4511924
17	0x3f181640	0.5940895
18	0x3f00fc1d	0.50384694
19	0x3eee793d	0.46576872
20	0x3f35fd80	0.71089935
21	0xbe104ef5	-0.1409262
22	0x3f2076ce	0.6268128
23	0x3f068242	0.5254251
24	0xbe07a649	-0.13247027
25	0xbe2277de	-0.15866038
26	0xbd9b3e26	-0.07580213
27	0x3d06a63e	0.032873385
28	0x3d435942	0.047692545
29	0xbe3d7753	-0.1850255
30	0xbe33f3b3	-0.17573433
31	0x3c937b28	0.018003061
32	0x3cc27379	0.023736702
33	0xbe10f586	-0.1415616
34	0xbdcef70e	-0.10105716
35	0x3e122836	0.14273152
36	0xbcef6a2a	-0.029225428
37	0x3e1f5a7f	0.15561865
38	0x3df9dcec	0.12200341
39	0xbb924d74	-0.0044647995
40	0xbe2960cd	-0.16540833
41	0x3e25ed27	0.16203748
42	0x3e453204	0.1925736
43	0x3d225991	0.0396362
44	0xbe4d949d	-0.20076223
45	0xbda872b7	-0.08225005
46	0x3e3c556b	0.1839196
47	0xbe3a5f6c	-0.18200463
48	0x3eb2a1e0	0.34889126
49	0x3f41167f	0.7542495
50	0x3f0bcbb3	0.54607695
51	0x3f3d7bde	0.7401713
52	0x3f0de472	0.55426705
53	0x3f50ee69	0.81613785
54	0x3f323705	0.69615203
55	0x3f4df661	0.8045407
56	0x3f133ad4	0.5751164
57	0x3e487fe9	0.19580044
58	0x3d71445f	0.058903094
59	0x3ee609b3	0.44929275
60	0xbe5097c7	-0.20370398
61	0x3f4a8535	0.7910951
62	0x3f48bce2	0.7841321
63	0xbe0fd43b	-0.14045803
64	0x3f27fa80	0.6561661
65	0x3f389924	0.72108674
66	0x3f29f534	0.66389775
67	0x3e4ce3df	0.20008801
68	0x3f20a9f9	0.6275936
69	0x3c8747ad	0.01651367
70	0x3f38f261	0.7224484
71	0x3f12dd5e	0.5736903
72	0xbd3e7a46	-0.046503328
73	0xbe0443ca	-0.12916484
74	0xbdf51e0e	-0.11968623
75	0xbe054e1e	-0.1301808
76	0xbdeee513	-0.11664786
77	0xbdea5d04	-0.114435226
78	0xbe2a71b2	-0.16644934
79	0xbdec7543	-0.115458034
80	0xbdfc7711	-0.123273976
81	0xbe21ea0f	-0.15811943
82	0x3dc968f8	0.09834474
83	0xbdb632a7	-0.0889638
84	0xbda88101	-0.082277305
85	0xbe3d3939	-0.1847886
86	0xbdb3bacc	-0.08775863
87	0xbe445457	-0.19172798
88	0xbd81253c	-0.0630593
89	0xbc8664c0	-0.016405463
90	0xbd921dc3	-0.07134583
91	0x3dd67dde	0.10473226
92	0xbe31839d	-0.17335363
93	0x3e0abf0b	0.1354944
94	0x3dc2fd01	0.09520913
95	0x3e3e0762	0.18557504
96	0x3dd44a8b	0.103657804
97	0x3f10a004	0.56494164
98	0x3ef6b7e8	0.48187184
99	0x3ec7c3c6	0.3901655
100	0x3ec8bc6b	0.39206252
101	0x3f725515	0.94661075
102	0x3f16737e	0.5876998
103	0x3eee5938	0.46552444
104	0x3ec09124	0.37610734
105	0xbe66929c	-0.22516865
106	0x3dae3719	0.08506603
107	0x3d48a1e3	0.048982512
108	0xbf013cc4	-0.50483346
109	0x3f0b8826	0.5450462
110	0x3f09d735	0.53844005
111	0x3e02347e	0.12715337
112	0x3e9d6ea4	0.30748475
113	0x3ecb179c	0.3966645
114	0x3ee432b7	0.44569942
115	0xbdc55e5b	-0.096371375
116	0x3f23f096	0.6403898
117	0x3d661b9b	0.05617867
118	0x3e9c8a6e	0.30574363
119	0x3f036374	0.5132363
120	0x3e933494	0.2875105
121	0x3f6478ae	0.8924664
122	0x3f0a28e1	0.53968626
123	0x3f32c621	0.6983357
124	0x3efa8357	0.4892833
125	0x3f896ff4	1.073729
126	0x3eefc6a6	0.46831244
127	0x3f278b60	0.65447044
128	0x3eb8d765	0.36101833
129	0x3e967200	0.2938385
130	0x3edb3dcf	0.42820594
131	0x3e82e42e	0.25564712
132	0x3c967354	0.01836554
133	0x3f7e6db3	0.9938614
134	0x3f45b6e2	0.7723218
135	0xbdc39abd	-0.09550998
136	0x3efc1446	0.49234217
137	0x3f0da413	0.5532848
138	0x3f2f0d9d	0.6838015
139	0x3eb93387	0.36172125
140	0x3f57abe6	0.8424667
141	0x3e301508	0.17195523
142	0x3f110478	0.56647444
143	0x3f3a6bb8	0.72820616
144	0x3efbc0f0	0.49170637
145	0x3f0ec706	0.55772436
146	0x3ec66334	0.3874756
147	0x3f0e5564	0.55599046
148	0x3efccb76	0.49373978
149	0x3f69ec88	0.91376543
150	0x3f1cb200	0.61209106
151	0x3f083d63	0.5321867
152	0x3ed54b4a	0.41659003
153	0x3e9931d3	0.29920825
154	0x3e823f17	0.2543876
155	0x3e87df3a	0.26537496
156	0xbcb47eca	-0.022033114
157	0x3f84ae1b	1.0365633
158	0x3f1cfea1	0.6132603
159	0x3e1a3321	0.15058567
160	0x3e92fb9f	0.28707597
161	0x3eefb584	0.46818173
162	0x3f16853b	0.58797044
163	0x3ebe350e	0.37149853
164	0x3f1b3f88	0.60643816
165	0xbded8b0b	-0.11598786
166	0x3f2a5b65	0.66545707
167	0x3eaf7aa3	0.34273252
168	0x3eea8a8c	0.45808828
169	0x3f5e3a95	0.8680814
170	0x3ebaea24	0.3650676
171	0x3f406e48	0.75168276
172	0x3f3b046a	0.7305361
173	0x3f6dee11	0.92941386
174	0x3ee9b9f9	0.45649698
175	0x3f4f84cf	0.81062025
176	0x3eb5b33c	0.35488307
177	0x3eaac8e0	0.3335638
178	0x3e9b5af3	0.30342826
179	0x3ebde59f	0.3708925
180	0x3d365f8f	0.044524726
181	0x3f66de2a	0.90182745
182	0x3f68a753	0.90880316
183	0x3d80bd63	0.06286123
184	0x3ea097a6	0.313657
185	0x3ed23d7f	0.41062543
186	0x3ef48b1c	0.47762382
187	0x3ec94167	0.3930771
188	0x3f17dad3	0.59318274
189	0xbc089a4a	-0.008337567
190	0x3f0aade6	0.541716
191	0x3f30164a	0.6878401
192	0x3ed3a3c5	0.41335884
193	0x3f44073d	0.76573545
194	0x3f0f95c6	0.5608791
195	0x3f63c1b3	0.88967437
196	0x3ed74352	0.4204355
197	0x3f5bb6fb	0.8582608
198	0x3eff980f	0.499207
199	0x3f2643d3	0.6494724
200	0x3e8bd6b0	0.2731223
201	0x3e037905	0.12839134
202	0x3e66d376	0.22541603
203	0x3efbe140	0.4919529
204	0x3d7dea3e	0.06199097
205	0x3f234205	0.6377261
206	0x3f533f0e	0.8251809
207	0x3c33b821	0.010969193
208	0x3f2374db	0.6385018
209	0x3f36fc10	0.71478367
210	0x3ecfac44	0.40561116
211	0x3e0eacb9	0.13933076
212	0x3f2eb240	0.6824074
213	0x3e159f9b	0.14611666
214	0x3f1f0101	0.62110907
215	0x3f17db2d	0.5931881
216	0x3efbee0d	0.49205056
217	0x3f12a4f5	0.57282954
218	0x3e81186a	0.2521394
219	0x3f2556cc	0.64585567
220	0x3f139b90	0.57659245
221	0x3f3bc319	0.7334457
222	0x3ed72381	0.42019275
223	0x3f2d5118	0.67701864
224	0x3e2359c7	0.15952216
225	0x3e6d9447	0.23201095
226	0x3e76c451	0.24098326
227	0x3ea9e7bb	0.3318461
228	0xbd3425aa	-0.04398123
229	0x3f37c056	0.71777856
230	0x3f2cebbc	0.675472
231	0x3e455290	0.19269776
232	0x3efa352d	0.48868695
233	0x3e6a9717	0.22909199
234	0x3f06512a	0.52467597
235	0x3d86bc85	0.06578926
236	0x3f436d12	0.76338303
237	0xbe2e306d	-0.1701066
238	0x3f05cf97	0.5226988
239	0x3f0271c4	0.5095484
240	0x3e8bcf4a	0.27306587
241	0x3f3e98af	0.74451727
242	0x3e53e1ce	0.20691606
243	0x3f28b05c	0.65894103
244	0x3ecf3362	0.4046889
245	0x3f20574d	0.6263321
246	0x3f21b991	0.63173777
247	0x3f4b113c	0.7932317
248	0x3ebcbea5	0.368642
249	0xbd82b06c	-0.06381306
250	0x3e9910b0	0.29895544
251	0x3e971eff	0.29515836
252	0xbeb0d9d6	-0.34541196
253	0x3f382a6f	0.7193975
254	0x3f5026cd	0.81309205
255	0xbe078d39	-0.13237466

2.bias f4 [24]
0	0x3f046fcc	0.5173309
1	0xbbf3a95e	-0.0074359616
2	0x3f298e82	0.66233075
3	0xbdc55f20	-0.09637284
4	0x3ede6bb0	0.43441534
5	0x3f161160	0.5862026
6	0x3ec673cb	0.38760218
7	0x3f25ba2c	0.647372
8	0x3ee68c8f	0.45029113
9	0x3ee1c309	0.44094113
10	0x3f04b187	0.51833385
11	0x3f103460	0.5632992
12	0x3f1ef2e9	0.620894
13	0x3ef26ecd	0.4735016
14	0x3ddf5cd3	0.10906377
15	0x3ebd41d5	0.36964288
16	0x3f2f39c4	0.6844752
17	0xbdc273a4	-0.09494713
18	0x3f31860e	0.69345176
19	0x3ea72868	0.32648015
20	0x3d9c8466	0.076424405
21	0xbe1c305a	-0.1525282
22	0x3ef330d9	0.47498205
23	0x3f277ece	0.65427864

4.weight f4 [2, 24]
0	0x3f11bd5b	0.5692956
1	0xbbc00c72	-0.0058608586
2	0x3f302409	0.68804985
3	0x3e087472	0.1332567
4	0x3f2e2e2c	0.680392
5	0x3f1a5cd8	0.6029792
6	0x3f12f75f	0.5740871
7	0x3ed86dcc	0.42271268
8	0x3f162fcb	0.58666676
9	0x3eddc73a	0.4331606
10	0x3f47532d	0.7786129
11	0x3f16809c	0.5878999
12	0x3f383736	0.71959245
13	0x3f258df8	0.6466975
14	0x3daebbf0	0.0853194
15	0x3f309e5a	0.68991625
16	0x3f0118ec	0.5042865
17	0xbe125595	-0.1429046
18	0xbf8c78dc	-1.0974383
19	0x3f279a2a	0.6546961
20	0xbdfde090	-0.123963475
21	0x3d9ae411	0.075630315
22	0x3ec9c8ef	0.39411113
23	0x3ecadc6c	0.39621294
24	0x3f2e477b	0.6807782
25	0xbdd3296f	-0.10310637
26	0x3edf85a5	0.4365665
27	0xbcb063b9	-0.021531926
28	0x3f047259	0.5173698
29	0x3f08a9c9	0.5338407
30	0x3f3dcb3e	0.7413825
31	0x3f247777	0.6424479
32	0x3f2f103e	0.6838416
33	0x3f0bbd84	0.5458605
34	0x3ec4a69e	0.3840837
35	0x3f0b6d26	0.5446342
36	0x3ecf74aa	0.40518695
37	0x3f210925	0.6290458
38	0xbdc28ab4	-0.09499112
39	0x3f0b72df	0.54472154
40	0x3f348897	0.7052092
41	0x3c61f609	0.0137915695
42	0xbf9be536	-1.2179325
43	0x3f103274	0.56326985
44	0x3cca7b59	0.02471702
45	0x3e4c8024	0.19970757
46	0x3f3e9a6e	0.7445439
47	0x3f16b89e	0.58875453

4.bias f4 [2]
0	0x3e5175b9	0.20455064
1	0x3e5f4abe	0.21805856
