qlearning_agent_policy_20250528_194901.pth (torch, 6473 bytes, 6 tensors)

0.weight f4 [24, 4]
0	0xbefa4904	-0.48883832
1	0x3e03d320	0.12873507
2	0xbe1b33a0	-0.15156412
3	0x3e87a0f3	0.26489982
4	0x3f18fa5f	0.59757036
5	0x3fef35f0	1.8688335
6	0x4051a7e1	3.2758715
7	0x3fa36563	1.2765316
8	0xbfdac041	-1.7089921
9	0xbf2b3a8c	-0.6688621
10	0x3fb1a817	1.3879422
11	0x3ea9d42c	0.33169687
12	0x3dbbca87	0.091694884
13	0xbecd10d4	-0.400519
14	0xbf34a588	-0.7056508
15	0x3f0c6eaf	0.5485639
16	0xbeae68dc	-0.34064376
17	0x3e101f64	0.14074475
18	0xbe22c6b6	-0.15896115
19	0x3d98ab2b	0.07454523
20	0x3b4f53da	0.0031635673
21	0xbe231831	-0.15927197
22	0xbc4fccef	-0.012683137
23	0xbeafc88e	-0.343327
24	0x3fcef115	1.6167322
25	0x3f03c2d4	0.5146916
26	0xbf8214dc	-1.0162616
27	0xbf28582e	-0.6575955
28	0xbfbe4038	-1.4863348
29	0xbfa6601b	-1.2998079
30	0xbef1e2bd	-0.472433
31	0xbf489e29	-0.78366333
32	0x3efe8294	0.49708998
33	0x3d0a6138	0.03378412
34	0xbee180cd	-0.4404358
35	0xbe1f30f2	-0.15546015
36	0xbf7908a4	-0.9727881
37	0xbfef2c9d	-1.868549
38	0xc06100c1	-3.515671
39	0xbfb4be3f	-1.4120559
40	0x40137a72	2.3043485
41	0x400e6aee	2.2252765
42	0x3ff85334	1.9400392
43	0x3fba29e4	1.4544034
44	0xbd089728	-0.03334728
45	0x3ebaf6c8	0.36516404
46	0x3d975ec4	0.07391122
47	0x3c414d7b	0.011798258
48	0x3e8232e4	0.2542945
49	0xbe231217	-0.1592487
50	0x3d122941	0.035683874
51	0x3d5636be	0.0522983
52	0xbf08aa28	-0.5338464
53	0x3e069cb5	0.13145716
54	0xbe47da46	-0.19516858
55	0xbe8b4fb5	-0.2720925
56	0xbe83c197	-0.25733635
57	0xbe158c1d	-0.1460423
58	0x3edced1e	0.43149656
59	0xbe6f0995	-0.23343499
60	0xbdb64f00	-0.08901787
61	0xbfe673c6	-1.8004081
62	0xc0330de6	-2.7977233
63	0xbfa4ceb9	-1.2875587
64	0xbe5f6173	-0.21814518
65	0xbed39514	-0.41324675
66	0xbf0eeb79	-0.5582805
67	0x3ec00f88	0.3751185
68	0xbd57433f	-0.052554365
69	0x3ecf6c8d	0.40512505
70	0x3f079afd	0.5297087
71	0x3ec2a2fb	0.3801497
72	0x3eb6bd95	0.35691515
73	0xbefa1df3	-0.48850974
74	0xbf385414	-0.72003293
75	0x3edd623f	0.43239018
76	0xbea9980b	-0.33123812
77	0x3e1c8b64	0.15287548
78	0x3ea350be	0.3189754
79	0x3d42a4af	0.047520336
80	0xbf32ba08	-0.6981511
81	0x3df2385d	0.11827157
82	0x3ee33905	0.4437944
83	0xbe8f20b4	-0.27954638
84	0xbeb1bbd2	-0.34713608
85	0x3f174205	0.5908511
86	0x3edc83ee	0.43069404
87	0xbd0caf9b	-0.034347158
88	0xbe56a3a1	-0.20960857
89	0x3f020d4b	0.50801533
90	0x3eb220d1	0.34790662
91	0x3e830cbb	0.2559565
92	0x3e6c6f43	0.23089318
93	0x3e83ab5d	0.25716677
94	0x3e5f8409	0.21827711
95	0xbe7fc8ba	-0.24978915

0.bias f4 [24]
0	0x3f83786a	1.0271122
1	0x3e00e372	0.12586764
2	0xbeec25ef	-0.4612269
3	0x3e93da3d	0.2887744
4	0x3f2bdd1d	0.6713427
5	0x3ef51f68	0.47875524
6	0xbf2bd813	-0.6712658
7	0xbda65f49	-0.08123643
8	0x3f01b68e	0.5066918
9	0xbdd62526	-0.10456304
10	0x3e0f7405	0.14009102
11	0x3f182977	0.5943827
12	0xbee08d0d	-0.43857613
13	0x3f37bbf6	0.7177118
14	0x3f527e72	0.8222419
15	0xbd9b8bcf	-0.07595026
16	0x3f294f00	0.6613617
17	0x3f51405d	0.81738836
18	0x3ecb36be	0.39690202
19	0x3f20af53	0.62767524
20	0x3f0684c5	0.5254634
21	0x3f469c7a	0.77582514
22	0x3f1ef788	0.6209645
23	0x3f63d9ff	0.8900451

2.weight f4 [24, 24]
0	0x3ebeb40b	0.37246737
1	0xbff4da7b	-1.9129175
2	0xbf6c0751	-0.92198664
3	0x3ea787c0	0.32720757
4	0x3ed686f7	0.41899845
5	0x3d13bdb8	0.0360696
6	0xbeaae5cc	-0.33378446
7	0xbfbef1f6	-1.4917591
8	0xbe75db19	-0.2400936
9	0xbffe883c	-1.9885325
10	0xbfc9bd87	-1.5760964
11	0x3ef3ce95	0.47618547
12	0x3dd34c5c	0.10317299
13	0x3db51e6e	0.088436946
14	0x3e9c298c	0.30500448
15	0xbf856fbe	-1.0424726
16	0x3e7989b7	0.2436894
17	0x3e849a8b	0.25899157
18	0x3cd91b28	0.026502207
19	0x3ef2f87d	0.47455207
20	0x3dae8293	0.08520999
21	0x3e6ee757	0.23330437
22	0x3ea9d516	0.33170384
23	0x3e4e795d	0.20163484
24	0xbda8d613	-0.082439564
25	0xbdeb54ea	-0.114908054
26	0x3e10cdf3	0.14141063
27	0xbd6d4784	-0.05792953
28	0xbcc0ebde	-0.02354997
29	0x3db446dd	0.088025786
30	0xbc0216f9	-0.007940047
31	0xbde4a22f	-0.111637466
32	0xbd93e84e	-0.07222043
33	0xbd91dbcb	-0.07122
34	0xbe29bca9	-0.16575874
35	0x3debb7f5	0.115096964
36	0xbdce5757	-0.100752525
37	0xbe16dfb0	-0.14733768
38	0xbde3324d	-0.110935785
39	0xbe45f865	-0.19333036
40	0x3cc878d3	0.024471676
41	0xbdf8de49	-0.121517725
42	0x3db7448b	0.089486204
43	0xbc6bda7a	-0.014395351
44	0x3deeab68	0.11653787
45	0x3df9ad7b	0.12191292
46	0xbe443b86	-0.19163331
47	0x3de98315	0.11401955
48	0x3e200012	0.15625027
49	0xbc2629f8	-0.010141842
50	0x3d15d1c0	0.036576986
51	0xbe297096	-0.16546854
52	0xbd92e09b	-0.07171746
53	0xbe375f4d	-0.17907448
54	0x3e2e0e95	0.1699775
55	0x3e184898	0.14871442
56	0x3cd7e6b6	0.026355129
57	0xbe31cc3c	-0.17363065
58	0xbddf2d57	-0.1089732
59	0x3e220b58	0.1582464
60	0xbe274138	-0.16333473
61	0xbdf6b87a	-0.12046905
62	0xbdfebbba	-0.1243815
63	0x3d0e15b6	0.034688674
64	0xbd211a22	-0.039331563
65	0xbd25b08d	-0.040451575
66	0xb9a80458	-0.00032046693
67	0xbdd50151	-0.10400642
68	0x3dd4186f	0.10356223
69	0xbe1f2d77	-0.15544687
70	0x3b4608cf	0.0030217653
71	0xbd5ff05a	-0.054672576
72	0x3efce6c2	0.49394804
73	0xbff1ebee	-1.8900125
74	0xbf53d008	-0.82739305
75	0x3d125bef	0.035732206
76	0x3ef23f77	0.47314045
77	0xbe64cd12	-0.22343853
78	0xbf16cb3d	-0.58903867
79	0xbf8fb3cb	-1.1226743
80	0x3d04f0fa	0.032456376
81	0xc0082409	-2.1271994
82	0xbfc859da	-1.565242
83	0x3eec041e	0.4609689
84	0x3e1e6a81	0.15470316
85	0x3e752d9c	0.2394318
86	0x3d9328af	0.07185494
87	0xbf9a8fbc	-1.2075114
88	0x3e06d714	0.13167983
89	0x3f0c51d5	0.54812366
90	0x3dd4cf4a	0.103911
91	0x3f00a2ca	0.50248396
92	0xbdba02ea	-0.09082587
93	0x3eea432e	0.4575438
94	0x3f09984d	0.5374802
95	0xbd0abf47	-0.033873823
96	0x3f3e8fbf	0.7443809
97	0xc0020072	-2.0312772
98	0xbf659856	-0.8968557
99	0x3ee3e7aa	0.44512683
100	0x3f638444	0.88873696
101	0x3e91199f	0.2833986
102	0xbf1664b6	-0.5874742
103	0xbec200c6	-0.37891215
104	0x3ebb8806	0.36627215
105	0xbfa375a9	-1.2770282
106	0xc001b993	-2.0269516
107	0x3f1f471d	0.62217885
108	0xbe0063b5	-0.12538035
109	0x3efb3077	0.49060413
110	0x3f30394a	0.68837416
111	0xbefbe57f	-0.4919853
112	0x3f196cfe	0.59931934
113	0x3f29b1d4	0.6628697
114	0x3e95fc0a	0.29293853
115	0x3f22b9a9	0.63564545
116	0x3ef10226	0.47071952
117	0x3ed83ccb	0.4223388
118	0x3f0caa7c	0.5494764
119	0x3ee445e7	0.4458458
120	0x3cd47a56	0.02593724
121	0xbe2cd886	-0.16879472
122	0xbd98966c	-0.07450566
123	0x3c8c4f1a	0.017127562
124	0x3d807638	0.062725484
125	0xbe02f31f	-0.12788056
126	0x3e43d625	0.19124658
127	0x3e082e2d	0.13298865
128	0xbe322474	-0.17396718
129	0xbdeb3e2c	-0.11486468
130	0xbe353b59	-0.1769842
131	0x3cd42442	0.025896195
132	0x3e17345a	0.14766064
133	0x3e029c1a	0.1275486
134	0x3e10c41f	0.14137314
135	0xbb523bec	-0.0032079173
136	0xbe3a933e	-0.18220231
137	0x3e0b6551	0.13612868
138	0x3d8e312b	0.06942972
139	0x3d8830df	0.066499464
140	0xbe2230d5	-0.1583894
141	0xbe536610	-0.20644403
142	0xbe4ae11e	-0.19812438
143	0x3d87448c	0.06604871
144	0xbe223f92	-0.15844563
145	0xbe431e04	-0.19054419
146	0xbe27f453	-0.16401796
147	0xbe7305a1	-0.23732616
148	0x3deeae40	0.11654329
149	0x3d5edf1d	0.054411996
150	0xbe4642a6	-0.19361362
151	0x3e0ff244	0.14057261
152	0x3c83c9d2	0.016087446
153	0xbd19567c	-0.037435994
154	0xbcaf42b1	-0.021394106
155	0xbcc3f25b	-0.023919275
156	0xbe07d080	-0.1326313
157	0xbe1ead8d	-0.15495892
158	0xbd94c2a5	-0.07263688
159	0xbe31a9a6	-0.17349872
160	0x3d38a077	0.045074906
161	0x3dc09b09	0.094045706
162	0xbda7c0e0	-0.08191085
163	0xbe4fada7	-0.20281087
164	0xbd584066	-0.05279579
165	0xbbf36672	-0.007427984
166	0xbe04e019	-0.12976111
167	0x3c7fdfae	0.015617294
168	0xbe23b759	-0.1598791
169	0xbf426e24	-0.7594931
170	0xbf7a63c3	-0.97808474
171	0xbef47b44	-0.47750294
172	0xbd8bce93	-0.0682651
173	0x3ed57d3f	0.41697118
174	0xbf0bc56a	-0.54598105
175	0x3e22385b	0.1584181
176	0x3f0b9027	0.54516834
177	0x3f4516ad	0.76987725
178	0xbfba4e83	-1.455521
179	0xbd2de914	-0.04245861
180	0xbd701f8d	-0.05862384
181	0x3e975de3	0.29563817
182	0x3d56709e	0.052353494
183	0x3f4e1ac8	0.80509615
184	0xbe92ec3f	-0.28695866
185	0xbeaaa928	-0.3333218
186	0xbee35ef0	-0.4440837
187	0xbdcbd608	-0.099529326
188	0x3cd6c379	0.026216256
189	0xbd815abd	-0.06316135
190	0xbe818519	-0.25296858
191	0x3e3cf5d3	0.1845315
192	0x3ed72e81	0.42027667
193	0xc00070ea	-2.0068917
194	0xbf5b2503	-0.8560335
195	0xbd566b5b	-0.052348476
196	0x3ed6daad	0.4196371
197	0x3d1eb38d	0.03874545
198	0xbf16eea3	-0.5895788
199	0xbfb8854b	-1.4415678
200	0x3ddd126f	0.107945316
201	0xc00aa08b	-2.1660488
202	0xbfeeaffa	-1.8647454
203	0x3e9c711e	0.30555052
204	0x3e11f553	0.1425374
205	0x3eafc3f2	0.34329182
206	0x3e588d2b	0.21147601
207	0xbf98051a	-1.1876557
208	0xbcc2ea0d	-0.023793245
209	0x3e8f447a	0.2798193
210	0x3ea7a45f	0.32742593
211	0x3f09f4ce	0.5388917
212	0x3cd6e51b	0.026232293
213	0x3e9255a5	0.28580967
214	0x3edae827	0.42755243
215	0x3ea1799b	0.3153809
216	0x3d7d52fa	0.06184671
217	0xbfa65c82	-1.2996981
218	0xbf330396	-0.69927347
219	0xbe2c7693	-0.16842107
220	0x3de10ff6	0.109893724
221	0x3f469acc	0.7757995
222	0x3e875b79	0.26436976
223	0xbf95706b	-1.1674932
224	0x3f6afa97	0.9178862
225	0xbe46df5d	-0.19421144
226	0xbe902216	-0.28151006
227	0x3f16bf3a	0.5888554
228	0x3d883cbf	0.066522114
229	0x3eed60eb	0.46363005
230	0x3ee51755	0.44744363
231	0x3fa6ddb7	1.3036412
232	0xbe412f24	-0.18865639
233	0x3e4237d7	0.18966614
234	0x3e105bf9	0.14097585
235	0x3e7c41cb	0.24634473
236	0x3dfb1c83	0.122612976
237	0x3f252b44	0.64519143
238	0x3e990b6e	0.29891533
239	0x3f238a7c	0.63883185
240	0x3f0aa85a	0.54163134
241	0xc000cb72	-2.0124173
242	0xbf1e2400	-0.6177368
243	0x3ea60b5a	0.32430536
244	0x3eb3e83f	0.35138127
245	0x3dffa47a	0.12482543
246	0xbed4afff	-0.41540524
247	0xbfb33899	-1.4001647
248	0xbd9fa6f3	-0.07795515
249	0xbff9a48a	-1.9503338
250	0xbfdb3c81	-1.7127839
251	0x3e93c453	0.2886072
252	0x3e02055f	0.12697361
253	0x3d3cba81	0.0460763
254	0x3ec29e8b	0.38011584
255	0xbfb83c76	-1.4393451

2.bias f4 [24]
0	0x3eabcb19	0.3355339
1	0xbcad7efe	-0.021178719
2	0xbd95ba02	-0.07310869
3	0x3e86328f	0.26210448
4	0x3edd9a54	0.43281806
5	0xbe37dd78	-0.17955577
6	0x3df3c63d	0.11903045
7	0x3c00bf76	0.007858148
8	0x3ee3b6bc	0.44475353
9	0x3eecf98b	0.46284136
10	0x3ea96cf2	0.3309093
11	0x3ea8c32c	0.32961404
12	0x3f3f2de2	0.74679387
13	0x3f3a77e2	0.72839177
14	0x3f3de898	0.74183035
15	0x3e68df4b	0.2274143
16	0x3e9326e9	0.28740624
17	0x3e72bf6c	0.23705834
18	0x3f401b32	0.75041497
19	0x3ee348b5	0.4439141
20	0x3ea3bffd	0.31982413
21	0xbc7959d9	-0.015219175
22	0x3ee00ebf	0.4376125
23	0xbd88ce0d	-0.06679926

4.weight f4 [2, 24]
0	0x3f89c386	1.0762794
1	0xbd79f641	-0.06102586
2	0xbd5fbce4	-0.0546235
3	0x3f87a102	1.0596011
4	0x3f6d9212	0.9280101
5	0xbdc95dba	-0.0983233
6	0x3d5df64b	0.05418996
7	0xbf76bfe4	-0.9638655
8	0x3f986c5f	1.1908072
9	0x3f3870ca	0.720471
10	0x3f4f0e2a	0.8088099
11	0x3f9c5bd9	1.221553
12	0x3f2f276f	0.68419546
13	0x3f241b07	0.6410374
14	0x3f7db67a	0.9910656
15	0x3f8fa771	1.1222974
16	0x3fa437fc	1.2829585
17	0x3f8120dc	1.0088153
18	0x3f66e65a	0.9019524
19	0x3f91c29e	1.1387517
20	0x3f9dd96a	1.2331975
21	0xbd25fd5a	-0.040524818
22	0x3f820ac6	1.0159538
23	0x3c6b4102	0.014358761
24	0x3f8cea11	1.1008931
25	0x3ccb88d0	0.02484551
26	0x3c21247d	0.00983536
27	0x3f9bcd0a	1.2171948
28	0x3f7e8487	0.9942097
29	0xbe2e50d9	-0.17023028
30	0xbd9c7c39	-0.07640881
31	0xbe3b343d	-0.18281646
32	0x3f8946bb	1.072471
33	0xbf025744	-0.50914407
34	0x3f80bba7	1.0057267
35	0x3f965a26	1.1746261
36	0x3f7a19d8	0.97695684
37	0x3f77608e	0.96631706
38	0x3f6a7800	0.91589355
39	0x3f91ecd5	1.14004
40	0x3fa2ad97	1.2709225
41	0x3f838697	1.0275449
42	0x3f76c8c5	0.964001
43	0x3f845f65	1.0341612
44	0x3f922e12	1.142031
45	0x3ce803c7	0.028322114
46	0x3f8605fb	1.0470575
47	0xbd801b17	-0.06255167

4.bias f4 [2]
0	0x3f035199	0.51296383
1	0x3f074193	0.52834433
