qlearning_agent_policy_20250526_165142.pth (torch, 6473 bytes, 6 tensors)

0.weight f4 [24, 4]
000000 73 c3 27 3e c0 55 01 bf 98 42 22 3e 8d 57 b2 bc
       0.16383152 -0.5052147 0.15845716 -0.021770263
000010 a2 0d db be 7b 89 86 bc 74 2f 2f be 98 e3 4d 3e
       -0.4278384 -0.016422978 -0.17107946 0.20106351
000020 e0 78 48 bf 0b 71 1d bf ae 71 c2 3e f2 1e 90 be
       -0.7830944 -0.61500615 0.37977356 -0.2814861
000030 6d ca 00 bf 72 d1 b9 bc 8a 8c 9d be 0a ac e7 3e
       -0.5030888 -0.02268288 -0.30771285 0.45248443
000040 17 18 cf 3e cf bd e6 bd 3c 52 aa 3e e5 80 a5 bd
       0.40448067 -0.11266672 0.33265865 -0.08081225
000050 ec 00 6e bf 59 0c 35 3e 51 16 5a 3f c4 92 af be
       -0.92970157 0.17680492 0.851903 -0.3429166
000060 af f8 50 bf e0 17 0b bf ff 0a 64 3e 41 39 7f be
       -0.8162946 -0.54333305 0.2226982 -0.24924184
000070 43 0c 3b bf d7 b5 8a 3d 5e 24 61 be e4 0e 06 3c
       -0.73065585 0.067729644 -0.21986529 0.008182261
000080 71 76 05 be ba 5b 1e 3e b0 2a d5 3e 62 b9 3c bd
       -0.13033463 0.15464678 0.4163413 -0.046075232
000090 cc 31 d3 bf 97 03 33 be d0 5d 01 40 8c b5 b0 3f
       -1.6499572 -0.17481838 2.0213509 1.3805404
0000a0 1e 13 28 be 84 24 28 3e 97 91 ec 3e f4 21 77 3d
       -0.16413543 0.1642018 0.46204826 0.060335115
0000b0 7c 95 15 bf 79 31 9b be 2d aa eb 3e 62 de 2a bd
       -0.5843122 -0.30311182 0.4602827 -0.041715987
0000c0 d7 9f 27 bf 83 47 72 3f fe 9c 80 3f dd 46 57 bd
       -0.6547827 0.9464037 1.004791 -0.052557815
0000d0 6f bb b6 be 96 6b d0 3e 9b 61 62 3f 79 f5 28 be
       -0.35689875 0.40707082 0.88430184 -0.1649989
0000e0 68 b0 10 bf d0 b5 1a bf dd 74 20 3f 67 1f 2b 3f
       -0.56519175 -0.60433674 0.6267832 0.6684479
0000f0 ab 8a d3 be 5a cf 42 3e a8 50 b6 3e 8a b4 69 be
       -0.41316733 0.19024411 0.3560841 -0.22822776
000100 d1 79 31 bf a7 fb ef be 90 01 83 bc 4d 0a 97 3a
       -0.693265 -0.46871683 -0.015991956 0.0011523456
000110 35 08 9c be bb b2 c2 be 23 4a be bd 1f 6e c6 3d
       -0.3047501 -0.38026986 -0.09291484 0.09688973
000120 ec 82 bb be 39 7a 3d 3f d9 83 3f 3f 47 c9 d2 be
       -0.36623323 0.7401462 0.7481056 -0.41169187
000130 f2 81 50 bf e3 4b 34 bf 6f 8b 8b 3e 43 08 8a be
       -0.8144828 -0.70428294 0.27254817 -0.26959428
000140 87 cc bb be fa 41 a3 be c4 10 6e be 54 e5 40 3e
       -0.3667948 -0.31886274 -0.23248583 0.18837482
000150 48 25 09 bf c6 25 b6 3d 74 75 6a 3d e6 22 b8 3c
       -0.5357251 0.088939235 0.05724092 0.022477578
000160 b8 15 cf 3e 96 19 c3 be 8c a6 61 3e 6e d8 1c be
       0.40446258 -0.38105458 0.22036189 -0.15316936
000170 bb 2e b0 be c6 96 28 bf 38 de f8 3e 25 6b 8d be
       -0.34410653 -0.6585506 0.4860704 -0.27620807

0.bias f4 [24]
000000 3b f7 4c 3f 8e 9c 1d 3f d7 4a 25 3f a4 b7 e4 3e
       0.80064744 0.6156701 0.6456732 0.44671357
000010 d5 eb c6 bd 5d 83 79 3f 26 bf 50 3f 0c 83 46 3f
       -0.0971295 0.9746607 0.8154167 0.7754371
000020 e0 85 66 3f 94 58 b7 3d f2 9e 93 be 73 40 29 3f
       0.9004803 0.08952442 -0.28832203 0.66113967
000030 7c f9 b5 3e de a8 56 3f 27 71 f5 3e 5c 54 56 3f
       0.35541904 0.8385142 0.4793789 0.8372247
000040 20 25 58 3f 95 66 59 3f a6 79 34 3f 0d ac 60 3f
       0.8443165 0.8492215 0.7049812 0.8776253
000050 50 53 81 3f 40 5e 4b 3f 71 67 b6 be b6 f0 2a 3f
       1.010355 0.7944069 -0.35625795 0.66773546

2.weight f4 [24, 24]
000000 b6 2d 2d 3f 22 f9 27 3f ad fc b1 3e 39 ac 22 3e
       0.67647874 0.6561452 0.3476309 0.1588601
000010 6c 91 c6 3d d3 5d 4f 3e 46 01 17 3f 3b cf b1 3e
       0.09695706 0.20250635 0.5898632 0.34728417
000020 69 1b dd 3e 0a 41 a6 bf 20 de 06 3e e9 5d bc 3e
       0.43184975 -1.2988598 0.13170671 0.36790398
000030 54 54 ac be 99 31 a7 3e 5e 7f 79 bd 51 2a 8f 3d
       -0.33658087 0.32655028 -0.060912482 0.06990493
000040 e0 e5 c7 3e 9a 95 28 3f 76 a8 f0 3c 3a 63 de 3e
       0.39042568 0.65853274 0.029377203 0.4343508
000050 4c 97 25 3f 09 f2 5a 3e 6b a0 40 3c 64 34 de 3e
       0.64683986 0.21381392 0.011756997 0.43399346
000060 4c 1d 33 be 0f eb ea bd 26 23 ca bc ee e2 35 be
       -0.17491645 -0.11470615 -0.024674963 -0.17762348
000070 57 3d df bc d1 3d 1c 3e 0d 17 30 bd f6 f6 00 be
       -0.027250929 0.15257956 -0.042990733 -0.12594208
000080 70 2b 2d 3e 0f d8 1d 3e 9b a5 1c be eb 5c ba bd
       0.16911101 0.15414451 -0.15297548 -0.09099754
000090 8d 54 64 bd 80 ce 91 bd 62 d3 3a be 7b 86 ac bd
       -0.055744696 -0.07119465 -0.18244699 -0.084240876
0000a0 17 23 f2 bc 69 e6 4b be a2 7b 24 be 65 14 44 3e
       -0.029557748 -0.19912113 -0.16062787 0.19148405
0000b0 4a 94 20 3e ad 28 04 3e 2e a7 19 3e bc 4f 98 bd
       0.15681568 0.12906142 0.1500518 -0.07437083
0000c0 56 e0 4a 3f 54 5f ea 3e ea 93 2d 3f 0b 52 95 3d
       0.7924856 0.45775855 0.67803824 0.07291039
0000d0 aa 09 1f 3e 96 b7 05 bd c9 41 26 3f a8 29 c1 3e
       0.1553103 -0.032645784 0.6494413 0.37727094
0000e0 5e f2 b3 3e 73 cb 99 bf 81 97 f9 bd ce 9e a7 3e
       0.3514585 -1.2015213 -0.121871 0.32738346
0000f0 c6 41 ce be 21 c6 14 3e c0 5b 74 3e 40 b9 55 3e
       -0.40284556 0.14528705 0.23863125 0.20871449
000100 34 09 16 3f 1c 3c 3b 3f 71 77 c0 ba 3f bf 21 3f
       0.5860779 0.73138595 -0.0014684034 0.63182443
000110 66 d2 f5 3e 39 ca 83 3e 5b fa 5e 3d d1 0c b0 3e
       0.48012084 0.2574022 0.054437976 0.34384778
000120 43 1a 4c 3f fc b1 f2 3e 5b 7a 30 3f 37 97 ad 3e
       0.7972757 0.47401416 0.689367 0.3390443
000130 80 5a 7d 3d 60 b2 4f 3c dd cf 1b 3f 37 b6 e3 3e
       0.061853886 0.012676805 0.6086405 0.44474956
000140 14 9c cd 3e 2e e6 9d bf 4c 54 14 be 7b 03 17 3f
       0.4015814 -1.233587 -0.14485282 0.58989686
000150 0f 9f 9d be 40 0f 8a 3d ce c2 ee 3c b4 d5 35 3d
       -0.30785415 0.0674119 0.029145624 0.044393256
000160 ae 80 18 3f ee 38 2f 3f 24 6e bb bc f1 3c 04 3f
       0.5957135 0.6844624 -0.022879668 0.5165549
000170 85 f2 f4 3e 01 b0 c9 3e d8 cb aa bd 7e 86 25 3f
       0.47841278 0.39392093 -0.08339661 0.64658344
000180 91 9a b4 3c ab 05 e9 3d 4a 76 2b 3e 17 94 7b bd
       0.02204636 0.11378034 0.16744342 -0.061420526
000190 3c 74 1c be 63 e8 21 bd fc f0 f6 bd b6 24 97 bd
       -0.15278715 -0.039528262 -0.12057683 -0.07380049
0001a0 a2 0a 1b be bd 7c 5c 3c ff bc 8d bd aa 87 28 be
       -0.15140775 0.013457474 -0.06920814 -0.16458002
0001b0 9b 76 2c be 28 b6 7a bc 80 61 5a bd df 46 49 be
       -0.1684212 -0.0153022185 -0.05331564 -0.19655941
0001c0 73 98 20 3e fb ee 84 bd 8e 30 24 be 79 4f cb bd
       0.15683155 -0.064908944 -0.16034147 -0.099272676
0001d0 cb 08 bf 3d 0c 53 d7 bd 1f 05 16 be 93 28 5a be
       0.09327849 -0.10513887 -0.14650391 -0.2130454
0001e0 c2 c3 4f 3d 05 8b ab 3d f3 42 5d be bd 06 41 3f
       0.0507238 0.08376125 -0.2160757 0.75400907
0001f0 08 22 01 be 13 92 62 3d 7e ed 85 bc 66 d2 4d be
       -0.12610638 0.05531509 -0.016348597 -0.20099792
000200 ee 5a 4f be d4 13 c2 3f e8 d7 dc bd 02 64 22 3e
       -0.2024953 1.5162301 -0.10783368 0.15858462
000210 32 60 5b 3f 08 8e d5 bd e5 ed 84 3f d1 22 6b be
       0.8569366 -0.10427481 1.03851 -0.229625
000220 84 76 7c 3d b6 dc e9 3c 3b 08 28 3e 9c c0 f4 bd
       0.061636463 0.028547626 0.1640939 -0.119508
000230 02 17 f2 bc b6 cc e5 bd e9 be 16 3b 3d fd 85 3d
       -0.029551987 -0.11220686 0.0023001975 0.06542442
000240 a3 a4 db be 90 3a 33 be 0e dd a7 be 48 a5 fa 3e
       -0.42899045 -0.17502809 -0.3278584 0.48954225
000250 4a 9f 45 3d 40 19 09 3f 84 24 28 3c 72 99 53 3e
       0.048247613 0.53554153 0.010262612 0.20664003
000260 54 a3 9e 3e 75 d7 bb 3f 29 85 46 bb c1 52 03 be
       0.30983984 1.4675127 -0.0030291772 -0.12824537
000270 7d 01 bd 3f 64 c0 5c 3f 64 fe 22 3f 9c a8 0e 3f
       1.4766079 0.86231065 0.6366942 0.5572603
000280 34 7c dd be d8 be bc bd 2d 51 96 3f 40 8f 9a be
       -0.43258822 -0.09216088 1.1743523 -0.30187416
000290 50 5f ff bd 46 41 61 3e 95 3e 25 3c e7 ee 7a bd
       -0.12469351 0.21997556 0.0100857215 -0.06126299
0002a0 56 83 26 3f 33 5b 99 3e 21 31 e7 3e 90 3b 69 bc
       0.6504415 0.29952392 0.4515467 -0.014235392
0002b0 9a d7 de 3d b7 b8 bf 3e d2 10 0f 3f 70 16 bc 3e
       0.108809665 0.37445614 0.5588504 0.36735868
0002c0 97 5c f1 3e da 74 97 bf a7 aa 5a 3d a0 95 b2 3e
       0.47140953 -1.1832535 0.053385403 0.3487978
0002d0 13 2d b1 be 1b d4 dc 3e de 95 58 be 4d 4c 87 3e
       -0.346047 0.43130574 -0.2115092 0.264254
0002e0 56 17 dc 3e a9 8c 06 3f f1 63 85 3e 28 e6 bf 3e
       0.42986554 0.5255838 0.26052812 0.37480283
0002f0 37 9c c2 3e 30 d2 bf 3e 18 3a ff 3d af c8 f9 3e
       0.38009807 0.37465048 0.124622524 0.48785922
000300 5d 36 3c 3f 1b 56 58 3f 5e 8f 1f 3f 25 38 b2 3e
       0.7352045 0.84506387 0.62328136 0.3480846
000310 df 71 2d be 01 e9 4c 3e fc 5b 0c 3f 0b 8f c9 3e
       -0.1693797 0.20010759 0.54827857 0.39366946
000320 d4 e3 b1 3e 5b 00 8b bf 58 f8 ff 3d 4f f6 16 3f
       0.34744132 -1.0859483 0.1249854 0.5896959
000330 5d a1 97 be 7f fb 6a bd 53 60 a9 3e 96 20 ad 3d
       -0.29615298 -0.05736875 0.33081302 0.08453481
000340 af b2 0a 3f cf b7 60 3f 03 ba 80 be cd b8 39 3f
       0.541789 0.8778047 -0.25141916 0.7254761
000350 28 7c 33 3f 94 f1 e3 3d b6 9e 30 3e 05 58 c0 3e
       0.7011132 0.11130062 0.17248043 0.37567154
000360 90 da 41 3f 91 fa 22 3f d4 12 1e 3f 1e 39 88 3e
       0.75724125 0.63663584 0.6174748 0.26606077
000370 c2 c2 1a 3e 9e 11 a7 3e 71 17 1b 3f 94 bc 00 3f
       0.15113357 0.32630628 0.60582644 0.5028775
000380 21 b8 15 3e 18 a2 5a bf 47 42 48 be 93 66 14 3f
       0.14621021 -0.85403585 -0.19556533 0.57969016
000390 b7 95 39 be b2 d3 69 3d 7e a4 8d 3e af 04 86 3e
       -0.18123518 0.057086654 0.2766456 0.26175448
0003a0 d5 5e f4 3e 8a d8 46 3f 33 40 11 be 0e 09 dc 3e
       0.477286 0.7767416 -0.14184646 0.42975658
0003b0 10 0e 03 3f 58 70 b7 3e 2a 63 28 be 57 d9 34 3f
       0.5119333 0.358279 -0.16444078 0.70644134
0003c0 99 2d e1 3e 3a 75 dc 3e 14 b7 0d 3f e6 f6 3d 3e
       0.439801 0.43058187 0.5535748 0.18551216
0003d0 40 32 95 3d a0 a3 a3 3e 03 1a c5 3e 10 3a 2d 3e
       0.07284975 0.31960773 0.38496408 0.1691668
0003e0 37 7c b0 3e 20 c2 7d bf 0f db 13 be 0f a7 09 3f
       0.34469768 -0.99124336 -0.14439033 0.53770536
0003f0 ea 43 9a bd 37 68 4e 3e b4 df 5b 3e 7c 69 79 3e
       -0.07532485 0.20156942 0.21472055 0.24356645

2.bias f4 [24]
000000 02 32 bc 3e 6e f0 29 be 88 03 bf 3e 42 7f 7a 3e
       0.36756903 -0.16595623 0.37307382 0.24462608
000010 76 36 0f be c0 87 ac bd 82 ce 4f 3d 99 ee ff 3e
       -0.13985619 -0.0842433 0.05073405 0.49986723
000020 d6 ff d9 3e 9e 60 9c 3e d1 8f d4 3e 93 a6 c3 3d
       0.42578 0.30542463 0.41515973 0.09553256
000030 1c 06 ab 3e d7 e0 04 3f ec 7b 30 bd c1 3f 05 3e
       0.334031 0.5190558 -0.04308693 0.13012601
000040 08 47 e8 bd 30 af c5 3e 5f bc cc 3e ee f0 c5 3e
       -0.11341673 0.3861022 0.39987466 0.38660377
000050 80 91 48 be f1 67 40 be 37 e2 e4 3e 3f 47 d4 3e
       -0.19586754 -0.1878965 0.44703838 0.41460606

4.weight f4 [2, 24]
000000 d2 41 18 3f b0 9e c0 bd 5c df f2 3e d9 b6 02 3f
       0.59475434 -0.09405267 0.47436035 0.51060253
000010 23 d5 c8 bd 82 87 8f bf 5c 96 1e bf 34 9e 23 3f
       -0.098062776 -1.1213229 -0.6194818 0.63913274
000020 41 7d b1 3e 61 59 ae 3e ba f2 00 3f 9d 69 0d 3e
       0.34665874 0.34052566 0.5037037 0.1380982
000030 b7 bc cc 3e 39 5a fc 3e da fa fa bd 98 9f 69 bd
       0.39987728 0.49287584 -0.122548774 -0.057036966
000040 02 58 07 3c 29 66 2d 3f 06 98 dd 3e e1 97 bb 3e
       0.008260729 0.6773401 0.43280047 0.36639312
000050 35 9d 31 3e 4b e6 db bd 4b a3 b5 3e 52 f7 1d 3f
       0.17345126 -0.10737284 0.35476145 0.61705506
000060 28 8a fe 3e ee 35 a4 3c b6 7e 04 3f d5 c9 0a 3f
       0.4971478 0.020045247 0.51755846 0.5421422
000070 59 32 0e be 21 07 a7 be 58 62 8b bf c5 93 63 3e
       -0.13886394 -0.32622626 -1.0889387 0.22224338
000080 e9 6b 18 3f e1 64 eb 3e 41 21 a7 3e 38 57 ee bd
       0.5953966 0.45975402 0.32642558 -0.116377294
000090 61 72 1e 3f bd 99 bb 3e 94 d6 3d 3e 97 c1 d4 bd
       0.6189328 0.3664073 0.18538886 -0.10388487
0000a0 d8 ff 29 bc de a7 96 3e 27 3d 10 3f 65 4d 22 3f
       -0.010375939 0.29424948 0.5634331 0.63399345
0000b0 3e e6 c7 bd 64 db 4b 3e 76 32 23 3f 8f aa d1 3e
       -0.09760712 0.1990791 0.6374887 0.40950438

4.bias f4 [2]
000000 c7 f0 82 3e 0a e9 7c 3e
       0.25574324 0.24698272
