reinforce_agent_policy_20250526_134411.pth (torch, 3539 bytes, 4 tensors)

0.weight f4 [24, 4]
000000 e9 0b 70 bd fe 9d 6b be b7 8c a3 be 25 03 f1 3e
       -0.05860511 -0.23009488 -0.31943294 0.47072712
000010 d7 26 35 3e 47 77 7b 3e 04 8c 7b be b6 44 34 3e
       0.17690597 0.2455722 -0.2456513 0.17604336
000020 0b 49 e9 bc 17 47 71 3e 13 b6 76 bd 8d 27 cb 3e
       -0.028477212 0.23562275 -0.060232233 0.39678612
000030 66 1d 43 be f3 ea 71 be 4e 02 ce bd e4 93 76 be
       -0.19054183 -0.23624782 -0.10059033 -0.24079853
000040 5b e5 2a 3e 84 f8 b5 bc 3d 07 40 be 58 2d 28 3d
       0.16689055 -0.022213228 -0.18752761 0.04105887
000050 38 d7 72 3e a3 63 66 3e e1 02 db 3e eb 5a e1 bd
       0.23714912 0.22498946 0.42775634 -0.11003669
000060 aa ff 75 be 09 d6 73 3d c2 94 d3 3d 70 21 d7 be
       -0.2402331 0.05953029 0.10331108 -0.42017698
000070 65 71 6e bd c3 b4 ad 3d c0 ec c8 be e2 b2 d1 bd
       -0.05821361 0.08481743 -0.39243126 -0.10239197
000080 5f ce b3 3e 29 a1 be 3e 38 e5 af be 78 c5 67 be
       0.35118386 0.3723233 -0.34354568 -0.22633922
000090 02 be e3 3e ea 7f a5 3e be 1e 87 3e 17 fc 03 bf
       0.44480902 0.32324153 0.26390642 -0.51556534
0000a0 e4 e0 85 be d9 9c 25 3e 67 20 6d bd 1b 4a 0b 3e
       -0.2614814 0.16173114 -0.05789223 0.13602488
0000b0 98 52 5b bd f9 f7 a2 3d e5 7a 48 3e 50 b6 a2 be
       -0.053545564 0.07957453 0.1957813 -0.31779718
0000c0 9f 8f c6 be 7a b7 d3 be 5f 5e 5b bd c4 63 b9 ba
       -0.3878145 -0.4135092 -0.053556796 -0.0014144112
0000d0 ce 7a c0 3e 42 9f a7 be 4c c2 8c be 7f 14 70 3e
       0.37593693 -0.32738692 -0.27491987 0.23445319
0000e0 bc c6 ae 3e 61 45 db be 7f ae 45 3e 8a 3c 6b 3d
       0.34135997 -0.4282637 0.19304846 0.05743078
0000f0 aa 0a 12 bd ab db 04 3f 6a 5c 9e 3e 51 a5 95 3e
       -0.0356547 0.51897687 0.3092988 0.2922769
000100 1d 63 ac 3e 1a 85 18 bd 2d d7 bb 3e b3 85 9e 3e
       0.33669367 -0.03723631 0.36687604 0.3096138
000110 b0 9b 0e be 78 36 c6 3d e0 84 80 3c 10 4f 14 3d
       -0.13926578 0.09678358 0.01568836 0.036208212
000120 ea 18 c7 3e 0b 0a 2b be 2a 49 d9 bd f8 05 01 3f
       0.38886195 -0.1670305 -0.10609658 0.5039973
000130 ed 07 80 3e 1b b4 a8 be 4e 86 ac 3e 24 80 cc 3d
       0.25006047 -0.3294991 0.33696216 0.099853784
000140 57 e5 af bb e6 38 9e 3e ef 23 f9 be 5b df b0 3e
       -0.0053679156 0.30902785 -0.48660228 0.34545407
000150 b0 eb 1e 3e f4 a6 03 3e 14 d2 ba be c0 98 e3 3e
       0.15519595 0.12856656 -0.36488402 0.44452477
000160 22 30 d2 3e 0c cc 5d 3e 0b ba e6 be 8a 41 fc 3e
       0.41052347 0.21659869 -0.45063815 0.49268752
000170 7c 10 87 be 94 9d 0f 3d 44 94 bf 3e eb 8e 67 3e
       -0.26379764 0.035062388 0.37417805 0.22613113

0.bias f4 [24]
000000 87 9e 17 be 1a 86 ee 3e e5 92 fe be ee 41 80 be
       -0.14806567 0.46586686 -0.49721447 -0.250503
000010 c2 ef e4 3d 95 92 5d be ba bf 07 3d 96 5b f1 3e
       0.11178543 -0.21637948 0.03314183 0.47140187
000020 7e 6d 36 3e 29 39 ef 3b db 98 50 be 52 be 93 be
       0.17815205 0.007300515 -0.2037081 -0.2885614
000030 20 70 3b 3e 51 df b1 be 0b 35 36 3e 63 4e 55 3e
       0.18304491 -0.3474069 0.17793672 0.20830683
000040 b9 a7 f9 be 4c f1 a1 be 67 08 33 3e 71 bf 35 bd
       -0.48760775 -0.31629407 0.17483674 -0.044372026
000050 21 50 45 bb 2d bc 8a 3e f0 e1 b5 be fe 98 f0 be
       -0.0030107575 0.27096692 -0.3552394 -0.46991724

2.weight f4 [2, 24]
000000 3a 50 0b 3e fc 12 40 bd 89 27 8c bc 3e df 5d bd
       0.13604823 -0.046893105 -0.017108696 -0.05416798
000010 7e 32 a5 b9 46 02 8f 3d a6 00 67 3e 65 71 39 3e
       -0.00031508872 0.069828555 0.22558841 0.18109663
000020 6a f8 0f bd 47 06 65 3e ee 27 1f 3e ca 74 b5 3d
       -0.035149015 0.22365676 0.15542576 0.08860166
000030 13 77 c3 bd 57 69 5d be 08 03 6a bd 2f 14 7c 3d
       -0.09544196 -0.21622215 -0.057131797 0.061542686
000040 e2 9b 83 3c e2 9b 0b be 69 ae e7 bd db cc 13 bd
       0.016065542 -0.13633683 -0.11312563 -0.036084037
000050 a1 fd 10 3e 66 9d 7f 3b 75 62 5f bd f1 95 1f 3d
       0.14159252 0.003900373 -0.054537255 0.038961355
000060 c9 d1 5a 3d 4b 95 44 bc 4f d6 41 3e f2 9c ed bd
       0.053422723 -0.011998485 0.18929408 -0.116022006
000070 5a 58 2c 3d a2 2d 1c 3e 65 39 63 be 1a 9e bb 3b
       0.042076446 0.15251783 -0.22189863 0.0057256343
000080 20 ac df bd 88 62 e3 3d 60 c9 93 bd 89 a9 e2 3d
       -0.10921502 0.11102778 -0.072161436 0.110674925
000090 bc e6 ec 3d 6c 09 ef bd 15 e9 1c 3d bd b7 50 bd
       0.115674466 -0.11671719 0.03830822 -0.050956476
0000a0 91 be 1a 3e 5f d3 92 3d 47 fc b2 bc 82 e0 98 bd
       0.15111758 0.07169222 -0.02184881 -0.074646965
0000b0 23 98 58 3d d2 36 ad bc 2b 6c 0d 3e e6 23 8a bd
       0.052879464 -0.021144304 0.13810794 -0.06745128

2.bias f4 [2]
000000 e0 41 9b bc d5 fd 38 bd
       -0.01895231 -0.045163948
