reinforce_agent_policy_20250528_141109.pth (torch, 3539 bytes, 4 tensors)

0.weight f4 [24, 4]
0	0xbf03ae95	-0.51438266
1	0xbd679b12	-0.05654437
2	0xbda05a18	-0.07829684
3	0x3d11fdf9	0.035642598
4	0xbd9351aa	-0.071933106
5	0xbe4a52a4	-0.19758087
6	0x3eb6a021	0.35669044
7	0x3d7ca91c	0.061684713
8	0x3e94d248	0.29066682
9	0x3ea43e6d	0.32078877
10	0xbe86e37b	-0.2634543
11	0x3eec9509	0.46207455
12	0xbea2e9e7	-0.31819078
13	0x3ebf6207	0.37379476
14	0x3e723e8a	0.2365667
15	0x3ea6db25	0.3258907
16	0x3c7e03a2	0.015503796
17	0x3ee6a34d	0.45046464
18	0xbf0b1f67	-0.5434479
19	0xbe8055c1	-0.25065425
20	0x3e82deb7	0.25560543
21	0xbe865e18	-0.26243663
22	0x3dd5688d	0.10420332
23	0x3e10bef4	0.14135343
24	0xbe8ad161	-0.27112868
25	0x3e82d172	0.2555042
26	0xbeca816a	-0.3955186
27	0xbe8570da	-0.2606266
28	0x3e804226	0.25050467
29	0x3e5b81ff	0.21436308
30	0x3f06f889	0.52722985
31	0x3e85d8c8	0.26141953
32	0xbe928d64	-0.28623497
33	0x3e6e511c	0.23273128
34	0x3e2dd718	0.16976583
35	0xbee739ad	-0.4516119
36	0x3f0d5803	0.5521242
37	0x3e4d88ad	0.20071669
38	0xbe3cf843	-0.1845408
39	0xbec24c9f	-0.37949082
40	0x3e0dc79a	0.13845673
41	0x3ed5d0e4	0.41760933
42	0xbd31d69e	-0.043417566
43	0xbee5680d	-0.44805947
44	0x3eb4909d	0.3526658
45	0xbdda01b7	-0.10644858
46	0x3ce4ca70	0.027928561
47	0xbd6abacb	-0.057307046
48	0xbef7aa94	-0.48372328
49	0x3eb659df	0.3561544
50	0x3eb1f6d1	0.34758618
51	0x3f24f905	0.64442474
52	0x3e257734	0.16158754
53	0xbe43ce4e	-0.19121668
54	0x3f0fefda	0.5622536
55	0x3e216671	0.15761735
56	0xbea1e6ba	-0.31621343
57	0xbeb2b0a8	-0.34900403
58	0x3f085efa	0.5326992
59	0x3eaadbeb	0.3337091
60	0xbe34c9dd	-0.1765513
61	0x3ba4818b	0.0050203255
62	0x3e4620a6	0.19348392
63	0x3f1fd5b0	0.62435436
64	0x3e20b24a	0.15693012
65	0x3ebcf461	0.36905196
66	0xbb4987dc	-0.0030751145
67	0xbea11ffb	-0.31469712
68	0x3d2aa77f	0.041663643
69	0x3e2f6754	0.1712926
70	0xbdc6fbbc	-0.09715983
71	0x3e9caba4	0.305997
72	0xbdf31e0c	-0.11870965
73	0x3e35ce85	0.17754562
74	0xbeab0e43	-0.33409318
75	0x3ed81b38	0.42208266
76	0x3ef6c74a	0.4819892
77	0x3e8285d4	0.25492728
78	0x3e6d595a	0.23178616
79	0x3e79943c	0.24372953
80	0xbe0d75e5	-0.13814504
81	0x3e4f648e	0.20253202
82	0x3dd8557b	0.10563179
83	0xbba424bb	-0.0050092614
84	0x3f0219e3	0.5082075
85	0x3edcaaa4	0.43098938
86	0xbeee07a7	-0.46490213
87	0x3eb66455	0.35623422
88	0x3eb2600e	0.3483891
89	0xbe12c4a3	-0.14332823
90	0xbd077925	-0.033074517
91	0xbdd11574	-0.1020917
92	0xbd8f35b3	-0.06992664
93	0x3dd82b46	0.10555129
94	0xbea7cd61	-0.3277388
95	0xbeea74a5	-0.45792118

0.bias f4 [24]
0	0xbe8415cf	-0.2579789
1	0xbeae22fa	-0.3401106
2	0x3d6d9694	0.05800493
3	0xbec45a19	-0.3834999
4	0x3e921376	0.28530473
5	0xbeb7ac40	-0.35873604
6	0xbf07944a	-0.52960646
7	0xbdc15d81	-0.094416626
8	0x3ce23e73	0.027617669
9	0x3d585734	0.05281754
10	0x3ddfc767	0.10926705
11	0xbe9d534b	-0.3072761
12	0x3e8113c1	0.25210384
13	0x3e0c85a4	0.13722855
14	0x3e05ea62	0.13077691
15	0x3ed7faff	0.42183682
16	0x3d31a6af	0.043371852
17	0xbeadcaf8	-0.33943915
18	0xbe3f43df	-0.18678235
19	0xbe810cd5	-0.25205103
20	0x3efa0892	0.48834664
21	0xbdabc8dd	-0.08387921
22	0xbe520b16	-0.20512041
23	0x3e70bbc5	0.23509128

2.weight f4 [2, 24]
0	0xbe63120c	-0.22174853
1	0x3e445b2c	0.19175404
2	0xbe22b84a	-0.15890613
3	0x3e0c3d90	0.13695359
4	0x3dfe77e7	0.12425213
5	0xbe3df8db	-0.18551962
6	0xbd9b8629	-0.075939484
7	0xbafee021	-0.0019445458
8	0x3e8e77b7	0.2782571
9	0x3e62bba7	0.22141896
10	0x3d7c5073	0.06160016
11	0x3e14565d	0.1448607
12	0xbe31eec3	-0.17376237
13	0xbeb3f913	-0.35150966
14	0xbe1cd561	-0.15315773
15	0xbe53c392	-0.20680073
16	0x3e36b7ae	0.17843506
17	0xbda293e4	-0.07938364
18	0xb9b3e873	-0.0003431473
19	0x3dc7dacf	0.09758531
20	0xbe3e3d61	-0.18578102
21	0x3d838ca6	0.06423311
22	0x3b699b06	0.003564538
23	0x3c857002	0.016288761
24	0x3dad7d3e	0.08471154
25	0xbe14b3a4	-0.14521652
26	0x3e9461d9	0.28980902
27	0xbcf1089f	-0.029423056
28	0xbe90f44b	-0.2831138
29	0xbe29030f	-0.16505073
30	0x3e0c11f7	0.13678728
31	0x3e37875a	0.17922726
32	0xbe267d05	-0.16258629
33	0xbe63a1cd	-0.22229691
34	0xbea886c4	-0.32915318
35	0xbcf18931	-0.029484363
36	0x3ecc90d6	0.3995425
37	0x3ea9d23f	0.33168218
38	0x3e69ff76	0.22851357
39	0x3dc03024	0.09384182
40	0x3d852307	0.065008216
41	0x3e336201	0.17517854
42	0x3c0f196b	0.008734087
43	0xbb9df56b	-0.004820516
44	0xbe11c559	-0.14235438
45	0xbc7a60d7	-0.0152818775
46	0xbe01e826	-0.12686214
47	0xbe84ef5c	-0.25963867

2.bias f4 [2]
0	0xbdbfc980	-0.09364605
1	0xbdf20f8a	-0.1181937
