reinforce_agent_policy_20250526_151951.pth (torch, 3539 bytes, 4 tensors)

0.weight f4 [24, 4]
-0.4581662 0.40504193 0.23206845 -0.37131462 -0.0048694634 0.44093493 -0.16405079 0.25264627
0.17926845 -0.14341867 0.10536912 0.37204865 0.11826087 -0.30411148 -0.06736499 -0.39149415
-0.47783738 0.0056234 -0.19831967 0.082134426 0.45988667 0.13121122 -0.40226263 0.5007449
0.025534207 -0.3446419 -0.4005156 -0.1383689 -0.14989439 0.31516278 -0.18529141 -0.47020605
-0.23912136 0.059333716 0.107255325 0.30645046 -0.24526095 -0.24005869 0.45417905 -0.49353257
-0.07235247 -0.05953961 -0.08852658 0.50071275 0.13186133 -0.49775344 -0.303152 0.5204113
-0.4746667 0.17717387 0.3926987 0.11192275 0.009338056 -0.27181116 -0.11785645 0.03650462
0.24947515 0.08095117 -0.09924819 0.2731725 0.0008301909 -0.0034664925 -0.045204196 0.43876868
-0.45633253 0.19178814 -0.2540984 -0.44237512 -0.072772 -0.095568664 -0.39627925 0.20891884
0.11401447 0.20461433 0.15860443 -0.07058203 0.12154551 0.27488637 -0.118827686 -0.059064567
0.3956935 0.28092596 -0.17426714 -0.117571205 -0.37063166 -0.13757624 -0.21820208 -0.4684764
-0.37561944 0.3666767 -0.32060528 -0.20430541 -0.13319671 0.29300618 -0.42001596 -0.42791188
00000000: c394 eabe a861 cf3e 5aa3 6d3e f31c bebe
00000010: 0590 9fbb 39c2 e13e eefc 27be da5a 813e
00000020: 2692 373e 58dc 12be c4cb d73d 297d be3e
00000030: c132 f23d 80b4 9bbe a8f6 89bd ec71 c8be
00000040: 1aa7 f4be 8044 b83b 5014 4bbe 1836 a83d
00000050: 4476 eb3e 3c5c 063e 5ef5 cdbe d130 003f
00000060: 1d2d d13c e774 b0be 6110 cdbe 94b0 0dbe
00000070: ea7d 19be 045d a13e 08bd 3dbe d9be f0be
00000080: 3bdc 74be e907 733d aea8 db3d 13e7 9c3e
00000090: b025 7bbe f2d1 75be 288a e83e 4db0 fcbe
000000a0: 882d 94bd cedf 73bd 6c4d b5bd b62e 003f
000000b0: a806 073e 8ad9 febe bd36 9bbe ad39 053f
000000c0: 8407 f3be 116d 353e ce0f c93e c137 e53d
000000d0: a5fe 183c d52a 8bbe b95e f1bd de85 153d
000000e0: 6a76 7f3e bac9 a53d a342 cbbd 44dd 8b3e
000000f0: 2ba1 593a 182e 63bb 0928 39bd 4aa6 e03e
00000100: 6ba4 e9be 1c64 443e 2f19 82be fe7e e2be
00000110: 7d09 95bd 81b9 c3bd 1de5 cabe d2ee 553e
00000120: 6b80 e93d 6b86 513e 3369 223e 508d 90bd
00000130: daec f83d e8bd 8c3e ee5b f3bd b0ed 71bd
00000140: 5798 ca3e 87d5 8f3e 1673 32be 2cc9 f0bd
00000150: 6fc3 bdbe c9e0 0cbe 5e70 5fbe 24dc efbe
00000160: 3151 c0be 0cbd bb3e 6026 a4be 7035 51be
00000170: b864 08be e804 963e 550c d7be 4417 dbbe

0.bias f4 [24]
0.20945945 -0.345177 -0.16406423 0.15755688 -0.4967689 -0.10269601 -0.29864463 0.19512594
-0.32821563 0.19596855 0.13049398 0.13961618 -0.19424626 -0.33887455 -0.3243822 0.24209765
-0.023573954 0.28370434 0.056924753 -0.21221226 -0.4906775 -0.36186168 -0.04233513 -0.5118119
00000000: 8a7c 563e 0abb b0be 7400 28be 9756 213e
00000010: 7e58 febe 4952 d2bd f3e7 98be 18cf 473e
00000020: e10b a8be fbab 483e 37a0 053e 8bf7 0e3e
00000030: 7ee8 46be f780 adbe 6c15 a6be 72e8 773e
00000040: 2a1e c1bc b241 913e ee29 693d 2c4e 59be
00000050: 153a fbbe ef45 b9be 9a67 2dbd 1b06 03bf

2.weight f4 [2, 24]
0.13043831 0.04744857 0.023622299 -0.07715486 -0.11095207 0.010250365 -0.13375452 -0.10374814
0.12663549 -0.18269265 -0.051696427 -0.12459259 0.11927508 -0.19458598 0.005342029 0.0073696095
0.0300263 0.074270286 0.094664946 -0.05089412 -0.11282642 0.23099409 -0.1380647 0.19766222
-0.12265908 0.03827823 -0.017850341 -0.18486015 0.12015746 0.21279615 -0.06591286 0.09803201
-0.15848066 -0.18555605 0.03361247 0.027682403 -0.020923272 0.1474482 -0.155385 -0.10155178
0.0845059 -0.13253897 -0.18700038 0.13860488 -0.08310062 0.15267673 -0.11936921 -0.19353487
00000000: 9f91 053e 6f59 423d 8d83 c13c 5e03 9ebd
00000010: d73a e3bd 26f1 273c f2f6 08be e879 d4bd
00000020: bcac 013e c813 3bbe a2bf 53bd 662a ffbd
00000030: 7e46 f43d 8c41 47be 300c af3b c47c f13b
00000040: b7f9 f53c 051b 983d b2df c13d 5a76 50bd
00000050: 8a11 e7bd b789 6c3e d560 0dbe f767 4a3e
00000060: af34 fbbd a2c9 1c3d e13a 92bc fb4b 3dbe
00000070: 1d15 f63d 3ce7 593e 52fd 86bd 02c5 c83d
00000080: c148 22be 6802 3ebe 3bad 093d 35c6 e23c
00000090: 4867 abbc a9fc 163e 3f1d 1fbe 61fa cfbd
000000a0: 6e11 ad3d 4cb8 07be 077d 3fbe 70ee 0d3e
000000b0: a830 aabd 4a57 1c3e d877 f4bd 012e 46be

2.bias f4 [2]
-0.05547363 0.026023291
00000000: 5138 63bd cc2e d53c
