reinforce_agent_policy_20250526_161037.pth (torch, 3539 bytes, 4 tensors)

0.weight f4 [24, 4]
0	0xbe831266	-0.25599974
1	0x3d4e3a7a	0.050348736
2	0xbe1f7c83	-0.15574841
3	0x3ed11681	0.40837482
4	0x3d63506e	0.055496626
5	0x3e065303	0.13117604
6	0x3da414fc	0.08011815
7	0x3efd626c	0.49489152
8	0x3d8aeb6e	0.06783186
9	0xbdb9b9ad	-0.09068618
10	0x3e021bec	0.12705964
11	0x3e8b379b	0.2719086
12	0xbd092e9e	-0.033491723
13	0xbe463891	-0.19357516
14	0x3e1b8b78	0.15189922
15	0xbd04e6e4	-0.032446757
16	0x3e8751c3	0.26429567
17	0x3e25b8b5	0.16183741
18	0x3e1d7f3f	0.15380572
19	0x3e1672a0	0.14692163
20	0xbeb1665d	-0.3464841
21	0x3e590adb	0.21195547
22	0xbf02f764	-0.5115874
23	0x3ea2b25e	0.31776708
24	0xbe119acc	-0.14219207
25	0xbe185a9c	-0.14878315
26	0xbeab7d30	-0.33493948
27	0x3d7cc4a0	0.061710954
28	0x3e26fd33	0.16307525
29	0xbee0b398	-0.4388702
30	0xbeb92ad8	-0.361655
31	0x3e87b68c	0.2650646
32	0xbdb99f7d	-0.09063623
33	0xbda03237	-0.07822078
34	0x3e2a878e	0.16653273
35	0x3ec47fa2	0.38378626
36	0xbea1cd2c	-0.31601846
37	0x3e2f415c	0.17114776
38	0x3eb0fc98	0.34567714
39	0xbe94cd87	-0.29063055
40	0xbe9a40ac	-0.30127466
41	0xbd895173	-0.06704988
42	0xbeb72a62	-0.35774523
43	0xbe7bda7f	-0.24595068
44	0xbd898170	-0.06714141
45	0xbe46b3df	-0.19404553
46	0xbee62230	-0.44947958
47	0xbe89a613	-0.26884517
48	0x3ed5b38a	0.4173854
49	0xbe96dcf6	-0.29465455
50	0x3d37741b	0.04478846
51	0x3e499f32	0.19689634
52	0xbe1c5568	-0.15266955
53	0xbd9e1467	-0.07718735
54	0x3f05f211	0.5232249
55	0x3e4d9452	0.20076111
56	0xbd660435	-0.056156356
57	0xbd9c81af	-0.07641923
58	0xbdd9cdda	-0.10634966
59	0x3e9540ed	0.29151097
60	0xbe77e242	-0.24207404
61	0x3d1e0b5c	0.038585052
62	0xbe442a16	-0.1915668
63	0xbf09c61b	-0.5381791
64	0xbe04cfe6	-0.12969932
65	0xbe8b1579	-0.2716482
66	0xbe9b135a	-0.30288202
67	0xbe963473	-0.2933689
68	0xbebf01a1	-0.3730593
69	0x3e3f7534	0.18697053
70	0x3e9d24c7	0.3069212
71	0xbe847352	-0.25869232
72	0xbe64e2ec	-0.22352189
73	0x3e2733fc	0.16328424
74	0xbdf7fca8	-0.12108737
75	0x3d8b99b8	0.06816429
76	0xbed5cf25	-0.417596
77	0xbeed1715	-0.46306673
78	0x3e9ae8c0	0.302557
79	0xbe098b7a	-0.13432112
80	0xbd887d26	-0.06664495
81	0xbe89f09b	-0.2694138
82	0x3e969f04	0.29418194
83	0x3eabf33f	0.3358402
84	0xbed65d83	-0.4186822
85	0x3e8beb3f	0.27327916
86	0x3e2cbe35	0.16869433
87	0xbec89248	-0.39174104
88	0x3eb2c37a	0.34914762
89	0xbde78c60	-0.11306071
90	0xbe3c93cc	-0.18415755
91	0x3d4b3760	0.049613357
92	0xbef09f35	-0.46996465
93	0xbeb8033b	-0.35939965
94	0xbe0a902c	-0.1353156
95	0x3e9448f6	0.28961915

0.bias f4 [24]
0	0x3db4a7fe	0.088211045
1	0x3e7a4b0e	0.24442694
2	0x3eaa2837	0.33233806
3	0x3e3b768e	0.18306944
4	0xbefcd7ca	-0.49383384
5	0xbe4fa7b7	-0.20278822
6	0xbeee7e4c	-0.46580732
7	0xbeec0ef0	-0.46105146
8	0xbec84d7c	-0.39121616
9	0xbdc10317	-0.094244175
10	0xbeec964f	-0.46208426
11	0x3ee5d375	0.4488789
12	0xbee67b87	-0.4501612
13	0x3ea0d40a	0.31411773
14	0xbe8827b1	-0.26592782
15	0x3eacba23	0.3373576
16	0x3d8ef546	0.06980376
17	0xbec1d4f5	-0.37857786
18	0xbea5ea92	-0.32405525
19	0xbefb6c04	-0.49105847
20	0xbecb5a68	-0.39717412
21	0x3e5bf33d	0.21479507
22	0xbee30c0e	-0.44345134
23	0x3e97df25	0.29662433

2.weight f4 [2, 24]
0	0xbe2ccbe1	-0.16874649
1	0xbda1d146	-0.07901244
2	0x3b6b28e5	0.003588253
3	0x3de6905c	0.11258003
4	0x3d52984e	0.05141478
5	0xbd53172a	-0.051535763
6	0x3c4ef7ff	0.012632369
7	0xbd9ab7fd	-0.07554624
8	0xbdac5654	-0.08414903
9	0xbc902a44	-0.017598279
10	0x3e1552a2	0.14582303
11	0x3e052cf4	0.1300543
12	0x3e0e5a98	0.13901746
13	0xbe5736fd	-0.2101707
14	0x3e0805c0	0.13283443
15	0x3dc9283a	0.09822126
16	0x3e2d8a71	0.16947342
17	0x3e3f60ba	0.18689242
18	0xbe0bb1de	-0.1364207
19	0x3da12a88	0.0786944
20	0xbe26e9c0	-0.16300106
21	0x3df418ca	0.11918791
22	0xbcf6f5cb	-0.0301465
23	0xbe10bfa4	-0.14135605
24	0x3df86f0c	0.121305555
25	0x3ccba9b4	0.024861194
26	0x3e4182e1	0.18897583
27	0x3e1f81d6	0.15576872
28	0x3da73509	0.081644125
29	0xbdb3b3fb	-0.08774563
30	0xbd893a3a	-0.06700559
31	0x3e23d511	0.15999247
32	0x3e3116e7	0.17293893
33	0xbe05be25	-0.13060816
34	0xbdecf70f	-0.1157056
35	0xbe333cd6	-0.17503676
36	0x3e092234	0.13391954
37	0x3dda5c8a	0.10662182
38	0x3d82f3db	0.06394168
39	0xbdddd8fd	-0.10832403
40	0xbe1f216b	-0.15540092
41	0x3e0b7a05	0.13620766
42	0x3e0ce0d7	0.13757645
43	0x3e40dbe6	0.18833885
44	0x3e2786ad	0.16359968
45	0x3a74ccea	0.0009338396
46	0x3dbe9412	0.09305586
47	0x3dde715a	0.10861464

2.bias f4 [2]
0	0x3dc485ab	0.09595808
1	0x3e0f5602	0.13997653
