reinforce_agent_policy_20250526_163808.pth (torch, 3539 bytes, 4 tensors)

0.weight f4 [24, 4]
000000 4d 18 3b be a0 88 a5 be de 2e 2d be b1 ab 17 bf
       -0.18270989 -0.323308 -0.1691241 -0.59246355
000010 7c 6a 9a 3e 2a 40 a8 be 5e 3b e9 3e ce ea b5 be
       0.30159366 -0.32861453 0.45553106 -0.35530704
000020 fb 36 af be 6f c4 df 3e c2 4e e8 3d a2 66 05 bf
       -0.34221634 0.43704554 0.11343147 -0.5210973
000030 8e fa 8f 3c 80 7b dd 3e 37 8b 1b 3e ad fd a0 3e
       0.017575528 0.43258286 0.15189825 0.3144354
000040 dc 30 34 be d4 6b 6b 3e 88 e8 ac be b2 98 8a 3e
       -0.17596763 0.22990352 -0.33771157 0.27069622
000050 12 ee d2 be e0 b1 e4 3e e8 e3 aa bd 6c 5a 67 3e
       -0.41197258 0.44666958 -0.08344251 0.22593087
000060 01 62 9b 3e b8 37 4b 3a 34 1a 91 be ee 88 05 3e
       0.3034821 0.0007752138 -0.28340304 0.13040516
000070 b2 c2 cf be 4c 07 cb be d9 46 79 be b7 4d 77 be
       -0.40578228 -0.39654005 -0.24343432 -0.2415074
000080 a4 7e f6 be 6f af 22 be 94 df 5c 3f ee 66 d4 3e
       -0.48143494 -0.15887235 0.86278653 0.4148478
000090 59 26 7e 3e 52 e8 c5 bd e8 38 94 3e 38 7d 56 be
       0.24819316 -0.09663452 0.28949666 -0.20946205
0000a0 04 fc dd 3d 2e f4 35 be c9 28 a9 3e dc f8 3e be
       0.10839084 -0.17768928 0.3303893 -0.1864962
0000b0 4e 66 8b be 0d 4e 82 3e 91 7e f8 be 68 c2 bd be
       -0.2722649 0.25450173 -0.48534063 -0.37062383
0000c0 ef a3 83 be 0d 27 e3 be 99 13 c9 be 58 59 94 be
       -0.2571101 -0.4436573 -0.39272764 -0.28974414
0000d0 bb a7 a4 3d f2 01 b4 3e a9 53 6e 3d 1d 70 6e bd
       0.080398045 0.35157734 0.058185253 -0.05821239
0000e0 51 b2 9d be 79 8c a4 be ef 82 30 3d 8b af b0 3e
       -0.30800107 -0.32138422 0.043093618 0.3450893
0000f0 a6 52 c6 3d c2 ab 61 3e 6e f8 79 bd 25 19 74 be
       0.09683733 0.22038177 -0.061027937 -0.23837717
000100 d3 9d 05 3e 22 27 e4 be 75 eb 38 3f f8 52 a3 be
       0.13048486 -0.44561106 0.7223428 -0.31899238
000110 8d bd af be ea a8 8f 3e bc e9 9b ba 61 ac 49 be
       -0.34324303 0.2805856 -0.001189522 -0.19694664
000120 86 17 fa 3c 15 ed 97 3e 8f c9 45 3f e4 67 4e 3e
       0.030528795 0.29673067 0.7726068 0.20156819
000130 18 18 01 3f 98 d0 5f 3e 33 3a da be 0b b3 cf be
       0.5042739 0.21856916 -0.42622527 -0.40566286
000140 95 4c ef be 4a a0 41 3e 34 41 2b be b9 fc 94 bc
       -0.46738115 0.18908802 -0.16724092 -0.018186914
000150 fa 91 f5 3d 69 25 9e 3d 0b 0a 56 3e ae 7e 27 3f
       0.119907334 0.07721979 0.20902269 0.6542767
000160 a6 11 6a bd 63 47 b6 3e b7 7f 69 be fc 00 f6 bd
       -0.057145737 0.3560134 -0.22802626 -0.120119065
000170 9f 59 0b 3e a6 25 00 3e 08 a3 35 3f 6b a8 35 3f
       0.13608406 0.12514362 0.7095189 0.7096011

0.bias f4 [24]
000000 40 01 96 3e 58 ae d1 be bf 89 27 be 13 76 7d bd
       0.2929783 -0.40953326 -0.1636114 -0.061880182
000010 0e 7e a4 be e0 01 ff be c2 df c5 be 34 c8 22 be
       -0.32127422 -0.49806118 -0.38647276 -0.15896684
000020 17 45 e7 3e e7 44 52 3e fa 52 3d be 73 f8 ce 3e
       0.451699 0.20534097 -0.18488684 0.40423927
000030 b6 17 ef be ed 44 02 bf a3 45 19 3d 00 d3 1c 3e
       -0.46697778 -0.5088642 0.037419926 0.15314865
000040 2a a9 9a 3e db b5 fa be e8 d4 3b 3e 17 08 b2 3e
       0.30207187 -0.4896687 0.18342936 0.34771797
000050 75 e2 ce be 73 83 c7 bd 6b 7c aa 3d 86 fd b1 3e
       -0.40407148 -0.09741869 0.08324512 0.34763736

2.weight f4 [2, 24]
000000 36 81 b9 3e af 9f c1 bd 04 95 12 3d 1f c7 05 be
       0.36231393 -0.09454285 0.035786644 -0.1306424
000010 14 0e f0 3c 81 98 ea 3d b1 a5 5f 3c ce 70 50 3e
       0.029303588 0.11454869 0.013650344 0.20355532
000020 88 21 bb be 4f af fb bc 66 4d 20 3e 70 59 eb 3d
       -0.3654902 -0.030723242 0.15654525 0.11491668
000030 17 d2 af 3d c7 45 25 bd 34 5a d7 bc e1 e0 8c 3e
       0.08584993 -0.040349748 -0.02628813 0.2751532
000040 3c 6f 05 bd 82 33 7d bd 88 e0 d9 bd e1 cd 8e 3e
       -0.032576784 -0.0618167 -0.10638529 0.27891448
000050 14 f8 1a 3e d6 7e 51 be c6 50 84 3e f4 08 c3 be
       0.15133697 -0.2045854 0.25842875 -0.38092768
000060 44 1a c0 be 12 b4 6a 3d fe 4f 1b be 9f 3d bc 3d
       -0.3752004 0.057300635 -0.15167233 0.09191441
000070 c1 9f 12 be 56 d7 b7 bd 22 43 38 be fd 6e b8 bd
       -0.14318754 -0.08976619 -0.17994359 -0.09005544
000080 c4 6d 9e 3e b5 7d 9c 3d bb 84 db bd ae 7b 39 bd
       0.3094312 0.07641164 -0.10718676 -0.045283966
000090 7c af 41 be fc 2f bf bd 29 0f 72 3e b2 7e a1 3d
       -0.18914598 -0.09335324 0.23638596 0.07885493
0000a0 17 47 90 3c d4 7d a8 3d de 74 4e 3e f4 c0 77 3c
       0.017612023 0.08227125 0.20161769 0.015121687
0000b0 5e da d2 3c 1a 1f 52 3e 70 25 20 bd 57 9a 88 3d
       0.025738891 0.20519677 -0.039098203 0.06670063

2.bias f4 [2]
000000 b1 23 09 3d 57 fe b5 bd
       0.033481304 -0.08886402
