reinforce_agent_policy_20250526_140022.pth (torch, 3539 bytes, 4 tensors)

0.weight f4 [24, 4]
000000 b3 5f 39 3e a0 d8 e8 3e 03 db a1 3e a4 d7 e8 3e
       0.18102913 0.45477772 0.31612405 0.4547702
000010 fd 44 8d be 00 ab ef 3e 10 71 b4 be 86 65 26 be
       -0.27591696 0.4681015 -0.3524251 -0.16249666
000020 f3 7e 24 be 67 67 f9 3e 51 8f 88 3e 3f 0a 73 be
       -0.16064052 0.48711702 0.26671842 -0.23734377
000030 12 48 9d be b7 7a 8c be eb 30 f7 be 39 5e d5 be
       -0.30719048 -0.27437374 -0.4827951 -0.4167345
000040 d8 84 ad 3d a6 db 13 bf 8d d7 6c be bb 66 da 3b
       0.084726036 -0.5775703 -0.23129101 0.0066650785
000050 f5 5a 3d be 2c 4c fe be 0a b5 29 3d 62 5d 2b 3c
       -0.18491729 -0.4966749 0.041432418 0.010459276
000060 1e eb d1 be 6b 47 77 3e c6 9f b7 3e 64 ef 9b be
       -0.40999693 0.24148338 0.35864085 -0.30456078
000070 b6 a6 95 be 99 db d4 be ea 70 fd 3e 0a f5 ec 3e
       -0.29228753 -0.4157379 0.4950021 0.462807
000080 f5 5f 2d 3e 5b 7a 87 3d 9c 39 83 be 67 53 c2 be
       0.16931136 0.06615134 -0.2562989 -0.37954256
000090 86 2d cd be 06 9c 23 bd cc 7f b0 3e d1 1c 76 3e
       -0.40073794 -0.039943717 0.344725 0.2403443
0000a0 20 27 e6 bd 22 66 b6 be ae 91 55 3e 83 db bf be
       -0.11237931 -0.35624796 0.20856354 -0.37472162
0000b0 40 62 a2 3e 0b ca c4 3d 12 50 2a be ef 8a cc bc
       0.31715584 0.09608849 -0.16632107 -0.024968592
0000c0 b4 15 3f bd a1 b8 e4 be 59 4a a2 3e 95 f8 b8 bd
       -0.046651557 -0.4467211 0.31697348 -0.09031788
0000d0 f4 e0 8c be cf 2c af 3e f0 fc cf 3d 74 e8 7e be
       -0.27515376 0.34213874 0.10155666 -0.24893361
0000e0 96 00 80 3e d2 61 5d 3e e4 26 c9 3e df 15 58 bd
       0.25000447 0.21619347 0.39287484 -0.052755233
0000f0 60 23 a5 3e 3a 5d 15 bf 65 f7 04 3f de 50 89 be
       0.3225355 -0.5834538 0.51939994 -0.2681951
000100 85 86 4d 3e 3f 3f ad 3d 47 52 b6 3e f2 cd a4 3c
       0.20070846 0.08459329 0.35609648 0.020117734
000110 a5 fc ed be e1 c4 a6 be 0b 52 eb bd 5a 20 a5 be
       -0.46481815 -0.32572082 -0.11490258 -0.32251245
000120 32 4f ea 3d d9 10 83 3d b2 e2 14 bc 9f 2f c9 be
       0.114408866 0.06399698 -0.0090872515 -0.39294145
000130 d1 e1 44 3e 33 51 e1 3e 26 8d 7c bd dd 9f 83 3e
       0.19226767 0.44007263 -0.061658047 0.25707904
000140 b0 a0 b9 3e d0 35 16 be 07 5d 91 be 07 64 35 be
       0.36255407 -0.14668965 -0.28391287 -0.17713939
000150 02 11 f7 3e c2 cb 58 be d9 86 d0 be 6f 97 20 bd
       0.48255163 -0.21171477 -0.4072788 -0.03920692
000160 87 50 04 3d 0d 07 c5 bd 2d 1d c5 3e 8a d2 27 be
       0.03230336 -0.096204855 0.38498822 -0.16388908
000170 f7 17 eb 3d d3 4e 2d be 1d 38 da be 72 e5 fc 3e
       0.1147918 -0.169246 -0.42620936 0.49393803

0.bias f4 [24]
000000 d4 d5 73 be 40 4a 8e 3e 51 67 f0 3e 33 0b b5 be
       -0.23812038 0.27791023 0.46953824 -0.35360107
000010 fe 1f cb 3e f2 7f f5 ba 23 cc b5 bd 37 5b e5 3d
       0.39672846 -0.0018730147 -0.088768266 0.111990385
000020 a7 87 e4 3e 21 13 e8 be fe 7a e6 3e f7 4a eb 3d
       0.44634745 -0.45327094 0.4501571 0.11488908
000030 de b0 a5 3d 16 23 d8 3d d6 9c cf 3e 00 f1 bf 3e
       0.08090375 0.10553567 0.40549344 0.37488556
000040 53 b4 1c bd df 0a dd be d9 57 1e be 2b b1 ac 3e
       -0.038257908 -0.43172356 -0.15463199 0.33728918
000050 26 06 d2 3d f2 e3 1e be 56 69 f1 bd af 3f 2d be
       0.10255079 -0.15516642 -0.11787669 -0.16918825

2.weight f4 [2, 24]
000000 ed 4d f2 bd 33 b0 81 3e a4 8e 39 bd 14 08 f8 bd
       -0.118312694 0.25329742 -0.04530205 -0.12110916
000010 fa bc 3e be c7 bb 54 be f8 6f 99 3e d1 4b d9 bd
       -0.18626776 -0.20774756 0.29968238 -0.10610164
000020 04 6e 55 3d 2d fe 3a bd f3 e2 28 3d 86 5b 1a bb
       0.052106872 -0.045652557 0.04123206 -0.0023553087
000030 10 3c 83 be 1f b1 67 bd 57 70 0c 3d f8 b7 17 be
       -0.25631762 -0.0565654 0.034286823 -0.14816272
000040 3a a8 45 be 5f 4a 42 3e 42 48 8d 3e 5f 4d 91 3d
       -0.19302455 0.18973683 0.2759419 0.070948355
000050 ca 46 98 bd 72 dc 92 3c e5 c5 ed 3d 1f f1 ea bd
       -0.07435377 0.017927382 0.11610011 -0.114717714
000060 50 a1 43 3d 8c a5 29 be 33 2e 22 be eb 2e 2f 3e
       0.04776126 -0.16567057 -0.15837936 0.17107742
000070 9f 72 c8 3d b8 55 27 bd 5a 86 8b be e5 b1 c6 3d
       0.09787487 -0.040853232 -0.2725094 0.097018994
000080 1b b3 0f bd 37 e6 2c 3d 5c d7 fc 3d dc da 09 be
       -0.035082918 0.042211737 0.12345764 -0.13462394
000090 d1 24 b0 bd d6 d7 44 bd 07 6d a8 bd 01 a8 25 3e
       -0.08600772 -0.0480574 -0.0822392 0.1617737
0000a0 31 db c7 3d 7d b1 44 be dd 19 65 3c d7 73 c0 3d
       0.09758604 -0.19208331 0.013983217 0.09397095
0000b0 fe f8 36 be dc 55 09 3a ba 76 06 3e 8b f9 f0 3b
       -0.1786842 0.00052389293 0.13131228 0.0073539666

2.bias f4 [2]
000000 75 6f b1 3d c7 f6 52 bd
       0.08663837 -0.051504876
