reinforce_agent_policy_20250528_131834.pth (torch, 3539 bytes, 4 tensors)

0.weight f4 [24, 4]
0.4334686 0.20294641 -0.26679105 -0.27754506 -0.18232502 0.0167663 0.4818546 -0.2785558
0.18541166 0.61381745 -0.18026474 -0.33820626 0.14148533 -0.44273293 0.36295015 0.21884362
-0.33593586 -0.35068333 0.47444218 -0.013474938 0.32328564 0.44977176 0.124222554 -0.12553099
0.522885 0.16654158 -0.38276473 -0.19867012 0.47252414 0.119219266 -0.24746948 0.0768921
-0.13900444 0.45032206 0.16896626 0.12911536 -0.0057256366 0.45360604 -0.13190675 -0.6596744
0.34658048 0.25621897 -0.15716831 -0.47748846 -0.20600314 0.022811234 -0.56743306 -0.3805832
-0.047305487 0.27656034 0.44309658 -0.16355322 0.3844229 -0.48674557 0.09703485 0.17052884
0.4750687 0.17567971 -0.4050626 -0.51813734 -0.46287572 -0.3048185 0.05825284 -0.20730042
0.20336388 -0.27685833 -0.57132983 -0.13566442 -0.06408597 0.5654406 -0.37499467 -0.22510755
0.38340664 -0.49011987 0.39257544 0.4035577 0.23990093 0.30424374 0.22038162 -0.3933681
-0.35113788 0.027276695 0.48311704 0.07973206 -0.044429198 0.35753083 -0.3369911 -0.15861131
-0.36755025 0.14305615 0.39980197 -0.0877046 0.32649347 -0.40873855 0.33639094 -0.44000942
00000000: 99ef dd3e 2fd1 4f3e d698 88be 631a 8ebe
00000010: 69b3 3abe 7b59 893c a5b5 f63e de9e 8ebe
00000020: 8edc 3d3e 2423 1d3f 5297 38be 5f29 adbe
00000030: 88e1 103e e4ad e2be 9ad4 b93e 8b18 603e
00000040: c9ff abbe c48c b3be 16ea f23e fdc5 5cbc
00000050: b285 a53e 7c48 e63e 6568 fe3d 328b 00be
00000060: cbdb 053f e089 2a3e bdf9 c3be 2e70 4bbe
00000070: afee f13e 3b29 f43d a468 7dbe 9b79 9d3d
00000080: 2e57 0ebe 9d90 e63e 7e05 2d3e d136 043e
00000090: 1f9e bbbb 0d3f e83e 9012 07be 6ce0 28bf
000000a0: ff72 b13e 222f 833e bbf0 20be 5e79 f4be
000000b0: 7df2 52be a0de ba3c 4b43 11bf cddb c2be
000000c0: 66c3 41bd 5199 8d3e 8edd e23e 7f7a 27be
000000d0: 14d3 c43e b736 f9be 35ba c63d 1d9f 2e3e
000000e0: 343c f33e 62e5 333e 5d64 cfbe a6a4 04bf
000000f0: 0cfe ecbe 2c11 9cbe 889a 6e3d 9046 54be
00000100: 9f3e 503e 60c0 8dbe ac42 12bf 9deb 0abe
00000110: 813f 83bd b7c0 103f 4dff bfbe 9882 66be
00000120: e04d c43e fef0 fabe a6ff c83e 1d9f ce3e
00000130: 97a8 753e d6c5 9b3e b8ab 613e 8b67 c9be
00000140: 58c8 b3be 6073 df3c 1e5b f73e 904a a33d
00000150: 64fb 35bd 480e b73e 198a acbe 016b 22be
00000160: 8c2f bcbe 507d 123e d8b2 cc3e 789e b3bd
00000170: 272a a73e 2e46 d1be 6f3b ac3e ea48 e1be

0.bias f4 [24]
0.101694815 -0.29771742 -0.2634394 -0.23059364 -0.38682866 0.11454282 0.35673013 -0.5101574
-0.42454672 -0.055858824 0.03268852 0.21282768 -0.47028267 0.5244502 -0.38084778 0.24381696
0.013051276 -0.29300642 0.25684416 -0.45085517 -0.45481926 -0.17757481 -0.43649018 -0.3451275
00000000: 5f45 d03d 6b6e 98be 87e1 86be bd20 6cbe
00000010: 680e c6be 6d95 ea3d 55a5 b63e ad99 02bf
00000020: 305e d9be 39cc 64bd 66e4 053d 80ef 593e
00000030: e4c8 f0be 5e42 063f 7bfe c2be 27ab 793e
00000040: 05d5 553c f004 96be 1481 833e 7dd6 e6be
00000050: 12de e8be 2cd6 35be a47b dfbe 8db4 b0be

2.weight f4 [2, 24]
0.264178 -0.10786078 0.23885468 -0.0018214806 -0.016842898 0.2042195 0.053509448 0.13327214
0.18278465 0.23075274 0.28310046 0.122437224 0.03783328 -0.059221376 -0.005196747 0.002458997
0.14078033 0.3364894 -0.25860238 0.073807456 0.060632646 0.2745409 -0.09656142 -0.045255825
-0.21100701 0.08494993 -0.150756 0.08529753 -0.006104307 -0.22640118 -0.17206602 0.13459937
0.18813491 -0.25230056 -0.34672078 -0.1569914 0.045579318 0.12414523 -0.15448332 0.11841591
0.04557024 -0.02767056 0.2149126 0.072104394 -0.14908405 0.06251423 -0.1894678 -0.11124296
00000000: 5742 873e 1de6 dcbd 5296 743e bfbe eeba
00000010: 1efa 89bc eb1e 513e b92c 5b3d 7e78 083e
00000020: e62b 3b3e 724a 6c3e 8bf2 903e 5ec0 fa3d
00000030: 12f7 1a3d 1d92 72bd 7949 aabb 2027 213b
00000040: b828 103e 5748 ac3e 8867 84be 5d28 973d
00000050: f059 783d a090 8c3e fec1 c5bd 2c5e 39bd
00000060: 3912 58be 3bfa ad3d c85f 1abe 79b0 ae3d
00000070: a306 c8bb b6d5 67be 1332 30be 6bd4 093e
00000080: 70a6 403e 8a2d 81be 6385 b1be 5bc2 20be
00000090: 61b1 3a3d db3f fe3d e030 1ebe 0a84 f23d
000000a0: dca7 3a3d 5fad e2bc 0c12 5c3e 78ab 933d
000000b0: 7da9 18be 7607 803d d903 42be 59d3 e3bd

2.bias f4 [2]
-0.23255712 0.00026376205
00000000: 7423 6ebe 8b49 8a39
