reinforce_agent_policy_20250528_135852.pth (torch, 3539 bytes, 4 tensors)

0.weight f4 [24, 4]
000000 19 44 d4 be ef fa e4 3e 3f c3 13 bf e6 d7 0a bf
       -0.41458204 0.44722697 -0.57719797 -0.54235685
000010 d5 db c5 3e 30 74 11 be 07 60 dd 3e 80 9b 2e 3f
       0.3864428 -0.14204478 0.43237326 0.68206024
000020 cd d2 00 3f b1 13 d5 3e 7e b1 53 bf 52 8c 22 be
       0.50321656 0.41616586 -0.82692707 -0.1587384
000030 27 a7 6e 3e 0f fa a2 bc 4e 29 a4 3e 77 b8 03 3f
       0.23305951 -0.019894628 0.32062763 0.51453346
000040 5d d8 b5 bb 06 63 d1 be ae 54 18 3e 41 ba f8 be
       -0.005549474 -0.4089586 0.14876053 -0.485796
000050 65 02 c0 3d 0f 97 27 3e 1b 92 ce bd e6 06 46 be
       0.09375457 0.16366218 -0.10086461 -0.19338569
000060 37 3c 33 3e 66 f4 35 bd 57 bb 12 3f de 0f 10 3f
       0.17503439 -0.04442253 0.5731711 0.5627421
000070 2c 23 53 be 4f 28 fc be 91 13 0a 3e 15 30 12 bf
       -0.20618886 -0.49249503 0.13484026 -0.5710462
000080 3a 47 7f be 74 62 64 be 53 cd 6c bd d3 45 0a bf
       -0.24929515 -0.22303182 -0.057813 -0.54012793
000090 40 5d d0 3e 7a a3 b6 be 5e ec 21 3f d9 68 ad 3e
       0.40696144 -0.35671598 0.6325129 0.33869055
0000a0 c3 0b 60 be c4 c4 d3 3e 68 11 18 3e c8 91 24 be
       -0.21879487 0.41361058 0.1485039 -0.16071236
0000b0 31 77 30 3e 20 5b a9 3d e0 84 47 3f 5f 5c a8 3e
       0.17232968 0.08269334 0.77937126 0.32882974
0000c0 9e 23 d3 3e 0e 06 2a be 6a 8a dc be 98 90 34 bf
       0.4123811 -0.16603872 -0.43074352 -0.7053313
0000d0 ff 2d 0c 3d 13 5a e1 bd b5 25 82 3d 7d d0 6a 3e
       0.034223553 -0.110035084 0.06354848 0.22931094
0000e0 4c 1f e6 be f5 61 e7 be 06 ba c5 bd 97 58 3e 3f
       -0.44945753 -0.45191923 -0.09654622 0.7435393
0000f0 e5 7c e4 be 8f 81 fd bc 8b cc 77 3e bc f4 b6 bd
       -0.44626537 -0.030945567 0.2419912 -0.08933398
000100 ae 56 f3 3e 23 df be 3e b5 1c 0d 3e 03 b9 0f bd
       0.4752707 0.37279615 0.13780482 -0.03508855
000110 df 05 3a 3d 24 53 8b 3e 5f df 68 be 0f 9b 05 3f
       0.045415755 0.2721187 -0.2274146 0.52189726
000120 05 4b 12 3f e3 24 07 3f b9 39 a9 be 5c 45 96 3e
       0.5714572 0.5279066 -0.3305185 0.29349792
000130 2c 8f 8e 3b 26 9a 60 bd 6d e3 0f bf 51 4c 22 bf
       0.0043505635 -0.054834507 -0.562064 -0.633977
000140 4f 9e 09 3f 98 fe 95 3d d0 fc ab bd 17 44 32 bf
       0.53757185 0.073239505 -0.083978295 -0.69635147
000150 b2 80 b8 be 36 72 dd 3e 81 3b 24 3f 52 15 cf bd
       -0.36035687 0.432512 0.64153296 -0.101114884
000160 be 0a b9 be 4e 07 a4 3e 41 bc 4f be 7e 88 28 3f
       -0.36141008 0.32036823 -0.20286657 0.6583327
000170 71 20 78 3e 1f b9 59 be ee 7e b6 be 4a 2f 7f be
       0.24231125 -0.21262024 -0.35643715 -0.24920383

0.bias f4 [24]
000000 2f 42 65 be 47 86 dd 3e b3 21 ae 3e 10 d9 bf 3e
       -0.22388528 0.43266508 0.34010085 0.37470293
000010 c0 54 99 3d fe 1c 4b 3d 89 7b ae 3e 5c 51 34 be
       0.07486868 0.049588196 0.34078625 -0.17609161
000020 4f c4 bb 3e 18 19 1d 3d 9c bb 0b 3e 2f ed 17 3e
       0.3667321 0.03835401 0.13645786 0.14836572
000030 12 aa 91 3e 8c 72 9b be 13 51 f5 3e 44 83 ed be
       0.28450066 -0.3036083 0.47913417 -0.4638921
000040 0a 47 fa be 10 18 d8 3d 1d f3 c5 3e 25 09 0d 3f
       -0.48882324 0.105514646 0.38662043 0.5509208
000050 29 42 1b bd 9a 6c b1 3d 07 86 54 3e 31 74 f3 3e
       -0.037904892 0.08663292 0.20754252 0.47549585

2.weight f4 [2, 24]
000000 7e e9 93 3e 05 ec 14 bd 79 4d 8b 3c 4f 6d fa bd
       0.28889078 -0.0363579 0.017004715 -0.1222788
000010 ef e7 0d 3c 84 81 cd 3b d0 63 77 be bc 45 78 3e
       0.008661254 0.006271543 -0.24159169 0.24245352
000020 fd a2 e1 3d a5 c1 89 be 28 97 41 3e 62 cd cf be
       0.11017416 -0.26905552 0.18905318 -0.40586382
000030 44 a2 7e 3e 48 df 86 3d df c8 8e bd 70 a6 4a bb
       0.24866587 0.06585556 -0.06971907 -0.0030921958
000040 a2 52 0f 3e b4 c9 0e be 8d ca ac 3d af 9c 86 3e
       0.13996366 -0.13944131 0.08437071 0.26291415
000050 ae 42 c8 3e ad 22 c3 bc 07 8d 9c be b3 fc 89 3e
       0.39113373 -0.023820246 -0.30576345 0.26950607
000060 de 1c 90 be ce cb 81 3e a8 60 7c be 20 79 77 3e
       -0.28147024 0.25350803 -0.24646246 0.241673
000070 4d 7d 36 be 38 36 22 be 17 90 a3 3e c6 07 e9 3c
       -0.17821236 -0.15840995 0.3194587 0.02844609
000080 dd 5a 85 bd 47 82 88 3e 6f 38 ea bc 0e 3b d4 3e
       -0.065114714 0.26661894 -0.028591363 0.41451305
000090 db 68 85 be a5 f8 9a 3c 72 7e b8 3d 27 79 7c 3d
       -0.2605656 0.018917391 0.090084925 0.061638977
0000a0 c8 3d 1a 3e 1e bb 29 3e 44 7b 29 3b aa 4f 43 bd
       0.1506263 0.16575286 0.0025860826 -0.047683395
0000b0 b3 0f d2 bc 85 93 63 3d 22 37 8f 3e 47 42 83 3d
       -0.025642252 0.055560607 0.2797175 0.06409126

2.bias f4 [2]
000000 f4 16 2f bd f1 74 dd bd
       -0.0427465 -0.108133204
