reinforce_agent_policy_20250526_151111.pth (torch, 3539 bytes, 4 tensors)

0.weight f4 [24, 4]
0	0x3ea26970	0.31721067
1	0x3e6fb51d	0.23408933
2	0x3e3f2095	0.18664773
3	0x3ec8bcd5	0.39206567
4	0x3eff618e	0.49879116
5	0xbf0f99b4	-0.5609391
6	0xbc178122	-0.009247096
7	0xbeade9ed	-0.33967534
8	0x3e52fc80	0.20604134
9	0x3e1987ca	0.14993206
10	0x3e22acbb	0.15886204
11	0x3e97b6ae	0.2963156
12	0x3e11c2f2	0.14234522
13	0x3edf8e68	0.43663335
14	0xbdd13e35	-0.10216943
15	0x3eed4c19	0.4634712
16	0xbe3d65fc	-0.18495935
17	0xbce01868	-0.027355388
18	0x3e25e71e	0.16201445
19	0x3da65de5	0.08123378
20	0x3ea9b69b	0.3314713
21	0x3e8cc433	0.27493438
22	0x3df258c6	0.118333384
23	0xbeb16d6e	-0.346538
24	0x3e9d5fd1	0.30737165
25	0xbd02a35d	-0.031894077
26	0xbefd651b	-0.494912
27	0xbef3542b	-0.47525153
28	0xbe76b908	-0.24094021
29	0xbea3a551	-0.31962064
30	0x3e9480f2	0.29004627
31	0x3d024757	0.031806316
32	0x3e2d777c	0.16940111
33	0xbdecc718	-0.115614116
34	0xbe10eaf4	-0.14152128
35	0xbca1a2e0	-0.019730985
36	0x3ed17eb1	0.4091697
37	0xbef05d99	-0.4694641
38	0xbe8d6647	-0.27617094
39	0x3ec76260	0.38942242
40	0x3e8b84b5	0.27249685
41	0x3df56951	0.11982978
42	0xbe9e1eef	-0.30882975
43	0xbe68e5a7	-0.22743855
44	0xbe5612f5	-0.20905669
45	0xbeb199e6	-0.34687728
46	0x3f086783	0.53282946
47	0x3f025d07	0.509232
48	0x3e27d703	0.16390614
49	0x3f0fff09	0.5624853
50	0x3ca3acd2	0.019979868
51	0xbe9fcbd7	-0.31210205
52	0xbdbe0408	-0.09278113
53	0x3d11bee0	0.035582423
54	0xbe06a418	-0.13148534
55	0x3e1b1a20	0.15146685
56	0x3e010177	0.12598215
57	0xbebade9b	-0.3649796
58	0x3e8466dc	0.25859725
59	0xbedb624f	-0.4284844
60	0xbe15251f	-0.14564942
61	0x3daac5d9	0.08338518
62	0xbe15300f	-0.14569114
63	0x3ed205d1	0.41020063
64	0xbc8f8d39	-0.017523395
65	0xbe3b5800	-0.18295288
66	0x3d4ec002	0.05047608
67	0x3e785b07	0.24253474
68	0x3ddba6be	0.10725163
69	0x3e7f97ef	0.24960302
70	0x3d66ed84	0.056378856
71	0xbe645bf5	-0.22300704
72	0xbea5e60e	-0.3240208
73	0x3ebb8c25	0.3663036
74	0xbeb95a0d	-0.36201516
75	0x3efa8f3c	0.48937404
76	0xbe4e3fec	-0.20141572
77	0xbf05da2a	-0.52286017
78	0x3f0d35e4	0.55160356
79	0x3d4eb171	0.05046219
80	0x3ec93120	0.39295292
81	0x3e19a78a	0.15005317
82	0x3b562577	0.003267614
83	0x3e7adfbc	0.2449941
84	0xbdfab966	-0.12242393
85	0xbe8ff659	-0.28117636
86	0x3e96c3f4	0.29446375
87	0xbebb9577	-0.3663747
88	0xbe73ab5a	-0.23795834
89	0x3ed5b2ce	0.4173798
90	0x3e8cdd9d	0.27512828
91	0xbd3f1e51	-0.04665977
92	0xbe8091a2	-0.2511111
93	0xbe9c0991	-0.3047605
94	0xbaf4dc5f	-0.0018681398
95	0x3debafc2	0.115081325

0.bias f4 [24]
0	0xbe50fed0	-0.20409703
1	0x3dee2ef5	0.1163005
2	0xbe1400b7	-0.14453398
3	0xbebae83a	-0.365053
4	0xbe8c3175	-0.27381483
5	0xbe6fba3b	-0.23410885
6	0xbcbb44fe	-0.022860046
7	0x3f11def9	0.56980854
8	0xbea2283c	-0.3167132
9	0xbcf9200d	-0.03041079
10	0x3e3a4254	0.18189365
11	0x3e060fb9	0.13091935
12	0x3eba93c9	0.36440876
13	0xbefe2fc4	-0.49645817
14	0xbedf8920	-0.43659306
15	0x3e3b9588	0.1831876
16	0xbe3fbf46	-0.18725309
17	0x3dcf17e1	0.101119764
18	0x3f117066	0.5681213
19	0x3e1cc50d	0.15309544
20	0x3e4d1a65	0.200296
21	0xbeb35ece	-0.35033268
22	0x3dec7639	0.11545987
23	0x3f17cfb8	0.5930133

2.weight f4 [2, 24]
0	0x3d4b0905	0.04956915
1	0xbda171cd	-0.07883034
2	0xbddc3a4c	-0.10753307
3	0x3dc59938	0.09648365
4	0x3d00b525	0.031422753
5	0x3e80b098	0.2513473
6	0x3e698bce	0.22807238
7	0xbdfcd3f5	-0.12345115
8	0x3c0c6e24	0.008571181
9	0xbe25da6d	-0.16196604
10	0xbdef4c45	-0.11684469
11	0xbe1bec3a	-0.15226832
12	0x3df9487d	0.12172029
13	0xbdb0cd20	-0.086328745
14	0xbe2a9f32	-0.1666229
15	0xbe2261a9	-0.15857567
16	0xbe68ad99	-0.22722472
17	0xbdc5cd82	-0.09658338
18	0xbdca8053	-0.09887757
19	0xbdd12348	-0.102118075
20	0xbda876d6	-0.08225791
21	0xbdbf697b	-0.09346291
22	0xbdb0e2aa	-0.08636983
23	0xbe9fc5d3	-0.31205615
24	0xbca1ae15	-0.01973633
25	0x3c2c817f	0.010528921
26	0xbe2bffaa	-0.16796747
27	0xbd3a0032	-0.045410343
28	0x3e0c73a0	0.13715982
29	0xbd932f75	-0.07186786
30	0xbdad11e9	-0.08450682
31	0x3e576ad3	0.21036844
32	0x3e3cbc28	0.18431151
33	0xbdd585db	-0.104259215
34	0x3db8992d	0.09013591
35	0x3e3fa2a3	0.18714385
36	0xbe10e680	-0.14150429
37	0x3be78f49	0.0070666415
38	0x3d9d46f9	0.076795526
39	0x3e96d59f	0.29459855
40	0xbd682555	-0.056676228
41	0xbdf789d2	-0.12086834
42	0x3e186c67	0.14885102
43	0x3e2196bb	0.15780155
44	0x3e9ab14b	0.3021339
45	0x3de315a5	0.11088113
46	0xbd9c6031	-0.076355346
47	0x3e1fa54e	0.15590402

2.bias f4 [2]
0	0xbe783f87	-0.24242984
1	0x3e5a52f4	0.21320707
