reinforce_agent_policy_20250528_132817.pth (torch, 3539 bytes, 4 tensors)

0.weight f4 [24, 4]
00000000: 0ab2 d43d 0bec bd3e 8e89 20bf eb10 34bf
00000010: 9407 cebe 331b 8cbe 3a74 883e a2a0 1b3f
00000020: f757 41be 3104 dd3e 4a2b 76be 5f2b a5be
00000030: 49eb c7bc 2740 c93d b8de d93c 1e63 2c3e
00000040: af66 b93e 6a3a c63e 3e99 bbbd 56b1 17be
00000050: fec7 d5bc 40d2 f73e 8ce2 eebd 8716 af3c
00000060: 5c01 803e 924d fb3e ee6a f0be 1513 d6be
00000070: fe07 893e 8ce1 83be 163b 99bd b176 9a3e
00000080: 8e32 f6be 4070 223c 4e51 94be a8d5 cb3d
00000090: d679 1b3e 4180 ddbd 7066 06bf 90cc c8bd
000000a0: c1a6 13be 1168 11be f892 adbe b2e0 1fbe
000000b0: b111 e6be 7d78 acbe 0609 94be 9b8d ee3d
000000c0: 41fd b93e dbf9 c63e 338f a4be ed61 7bbe
000000d0: 6090 cabe 4c18 a73e 29c8 02bf 5e30 d23e
000000e0: dad2 48be 2e22 04bd 51c4 153f e346 203f
000000f0: 3c13 babe 7804 bbbe 2396 18be 4bae 0e3f
00000100: 6c1c c53d 904c dcbe 8ecd 253f 7e85 813e
00000110: 5856 bc3d 476d fa3d 80c7 a13e 7f95 a13e
00000120: e47e 193e 17a9 0f3f c54a 15bf ef35 10bf
00000130: a49a 96be 26e4 0f3f af22 b93d 6260 afbe
00000140: 4312 b2be 3669 5abd 5964 023e d138 f93e
00000150: 99c6 3d3e 7d2d 003f 08f8 c7be b97d 22bf
00000160: 24e5 903e 7c66 1bbe e890 b93e 805e 373d
00000170: eb11 59be fc0a 91be 229a bd3e d9be dbbe
0.10385521 0.3709415 -0.6270989 -0.70338315 -0.40240157 -0.273645 0.26651174 0.6079198
-0.18881212 0.4316726 -0.24039951 -0.32259652 -0.024404185 0.09826689 0.026595458 0.16834685
0.36211154 0.3871644 -0.09160088 -0.14813742 -0.02609634 0.48402596 -0.11664304 0.021373047
0.25001037 0.4908262 -0.4695658 -0.41811433 0.2676391 -0.25758016 -0.07481973 0.3016868
-0.48085445 0.009914458 -0.2896828 0.09952861 0.15183195 -0.10815478 -0.5250006 -0.09804642
-0.1441908 -0.14199854 -0.3390119 -0.15613058 -0.44935372 -0.33685675 -0.28913134 0.11648103
0.3632603 0.388625 -0.32140502 -0.24549074 -0.39563274 0.32635725 -0.5108667 0.41052526
-0.19611683 -0.03225916 0.5850268 0.62608165 -0.363428 -0.36526847 -0.14901023 0.557347
0.09624562 -0.43027163 0.64766777 0.2529716 0.09196156 0.12227874 0.3159752 0.3155937
0.14989811 0.56117386 -0.58317214 -0.56332296 -0.29414856 0.562075 0.090398185 -0.34253222
-0.34779558 -0.053322993 0.12733592 0.4867616 0.1853279 0.5006941 -0.3905642 -0.6347309
0.2829982 -0.15175813 0.36243367 0.044767857 -0.21198241 -0.28328693 0.37031657 -0.42919043

0.bias f4 [24]
00000000: 4e9d 35be c7f8 833e 9e7f b9be 482e 60be
00000010: f5fb b8be c4a4 4b3e 539f e73e b86b ab3e
00000020: b606 e5be fd6d 823d 684b bb3e 9aeb c2be
00000030: e629 49bd 08d5 3cbe 69d7 d43e 59eb 2a3e
00000040: e7e8 b93d 4a17 2abe eaed bd3e 6266 e63e
00000050: 923f 98be 0642 55be 28bf f8be f6ed f3be
-0.17735788 0.2577574 -0.36230177 -0.21892655 -0.36129728 0.19887072 0.45238742 0.3348062
-0.44731683 0.06368635 0.36580968 -0.38070375 -0.049112223 -0.1844064 0.41570595 0.1669134
0.09077626 -0.16610447 0.37095577 0.44999987 -0.29736 -0.20825967 -0.4858334 -0.47642487

2.weight f4 [2, 24]
00000000: 4fe3 c13e da15 a2be 72de d93d 0f7a 46bd
00000010: 3b17 8f3a 2d72 993d 7bcd b43c df65 4dbe
00000020: a74e 0fbe e587 7d3e 52cf e73d d0df 0c3e
00000030: a2fa 913e 7982 c63d 1003 5dbe 2bc4 10be
00000040: 0941 8bbe 58af 8bbc a507 df3c a0d2 2d3e
00000050: b0a2 83bd e445 913e 8107 46be 1cb3 c0bd
00000060: 8106 85be bf0f 8f3e 1f4a 113d 6bd9 46be
00000070: 800e 853d 2c56 4bbe f650 9fbe 42fb 0dbe
00000080: 9967 cbbd b4ee 8abe 35ac b43d 4e61 c03d
00000090: 72e3 74bd ed43 16be 3c82 003e 19fe 563e
000000a0: 4a90 9b3e 89bc 0abd 3576 a7be d01c 95bd
000000b0: d180 913d 902e febd 497a 41be 51e1 ea3d
0.37868735 -0.31657296 0.10638131 -0.048456248 0.0010916957 0.074924804 0.022070637 -0.20058392
-0.13994847 0.24758871 0.1131884 0.13757253 0.2851153 0.096928544 -0.215832 -0.14137332
-0.27198055 -0.017051384 0.027225325 0.16974878 -0.064275146 0.28373635 -0.193388 -0.094091624
-0.25981525 0.279417 0.035471078 -0.19418876 0.06496906 -0.1985709 -0.31116456 -0.13865378
-0.09931869 -0.2713524 0.088219084 0.093935594 -0.05978722 -0.14674349 0.1254968 0.20995368
0.3038352 -0.033871207 -0.32707372 -0.07280886 0.07104648 -0.12411225 -0.18894304 0.11468757

2.bias f4 [2]
00000000: 05b6 fcbc 67d8 3e3c
-0.030848512 0.011648274
