reinforce_agent_policy_20250528_133713.pth (torch, 3539 bytes, 4 tensors)

0.weight f4 [24, 4]
000000 84 77 94 be fe 32 b9 3e b9 a8 00 bf 87 a5 3c bf
       -0.28997433 0.36171716 -0.5025745 -0.73690075
000010 ac 64 2d be a7 74 6f be 04 1d 39 bd f2 e1 a6 3e
       -0.16932935 -0.23384343 -0.045193687 0.32594258
000020 62 94 90 3e 04 fd 93 3e f5 19 1b bf 0b af 83 3d
       0.28238207 0.28903973 -0.6058648 0.06429871
000030 b6 71 02 bf de 5c 03 bf 79 40 f1 3e bf 68 85 3e
       -0.5095476 -0.5131358 0.471195 0.26056477
000040 5f 36 03 be ad ed 92 3d ab 98 14 3f 57 69 1b 3f
       -0.1281371 0.07174239 0.5804545 0.6070761
000050 b0 94 18 bd 24 fe 65 be 70 af 22 bd 00 c2 49 bb
       -0.037251174 -0.22460228 -0.03971809 -0.00307858
000060 43 84 57 3c e3 a2 d5 3e 50 ce 05 3f 03 d9 25 3e
       0.013154092 0.41725835 0.5226793 0.16196065
000070 3b 53 2b 3e 7e 19 5a be b8 b8 28 bd a2 53 93 3e
       0.16730969 -0.21298787 -0.041191787 0.28774744
000080 7d 42 24 3e c5 ee 83 3e 57 01 75 be 37 68 ad be
       0.16040988 0.25768104 -0.23926292 -0.33868572
000090 27 55 a5 3e 51 86 79 3e b9 63 a9 3e c3 44 85 be
       0.3229153 0.24367644 0.33083895 -0.26029024
0000a0 1e bd 6f 3e 8a 42 39 3e 61 1a c8 be 1e 61 6a be
       0.23411986 0.18091789 -0.39082626 -0.2288861
0000b0 7f 94 09 3e 2b 0d 0c bf 23 0e 56 3e ae a9 f4 3e
       0.13435553 -0.5470759 0.2090383 0.47785705
0000c0 26 95 df 3d 39 b3 b6 3d e1 66 26 be 0c 2e af bc
       0.1091712 0.08920903 -0.16250183 -0.021384262
0000d0 9c b5 2c 3e e0 57 00 bf ed c1 b6 3e d8 8d d4 be
       0.16866153 -0.50134087 0.3569483 -0.41514468
0000e0 f0 c3 f0 3e b9 53 3b bc bb bb 7e 3b 96 e3 76 3e
       0.47024488 -0.011433535 0.003886922 0.24110255
0000f0 be 94 1a 3c 66 e3 57 3d db 14 aa bd 25 35 a6 be
       0.009434877 0.0527071 -0.08304759 -0.3246242
000100 9b 69 bc 3e ef 91 05 3f 7b 4f f4 3c a1 5e f2 be
       0.3679932 0.521758 0.029823055 -0.4733782
000110 a6 d3 9b 3e fb 4a 1a 3d 6f be 81 3e e2 97 c7 be
       0.30434912 0.037669163 0.25340602 -0.38983065
000120 8e a6 14 be c8 89 85 3e f0 93 8d bd f2 2c 35 3f
       -0.1451666 0.2608168 -0.069129825 0.70771706
000130 bf 9c 04 3f 5d e9 0b be dc ab 4a 3e a7 c2 07 3f
       0.51801676 -0.1366324 0.19792122 0.5303139
000140 6a ca 3c be 50 f1 e3 be 36 56 e0 3e d7 73 8e 3e
       -0.1843659 -0.44520044 0.43815774 0.27822754
000150 fb 85 41 3d bb 42 a3 3e 91 1b b8 3e 07 fe 95 be
       0.047246914 0.3188685 0.35958531 -0.2929537
000160 ba 44 e2 3e 3c 3d ae 3e 2b 5d 23 be 2d 91 ad bd
       0.4419306 0.34031093 -0.1595351 -0.08474956
000170 d4 df 03 be a4 e0 0d bf 64 a6 b2 bd 44 9c 27 3f
       -0.12878352 -0.554209 -0.08723143 0.6547282

0.bias f4 [24]
000000 3f 06 dc 3e c3 5f 96 3e 64 cf 54 3c 9b aa 22 bd
       0.42973515 0.29369935 0.012988899 -0.039713483
000010 48 6b 88 3e 88 c2 e6 be 6e 0d d4 3e c2 ae 60 be
       0.2664435 -0.4507029 0.41416496 -0.21941665
000020 3a 51 bd 3e d4 31 eb be 8a 17 ba be 03 41 5a be
       0.36976033 -0.45936453 -0.36346084 -0.21313863
000030 3c 12 75 be 4b 20 ac be 8f 18 ea 3d 70 ac a0 3d
       -0.23932737 -0.33618388 0.114304654 0.0784539
000040 3b a5 74 be 7f da b0 bb e4 53 8a 3e 95 f7 7c bd
       -0.23891155 -0.0053971405 0.27017128 -0.06175955
000050 17 9f 46 3e 29 1f 88 bd 8b d1 f8 be 07 f0 89 3d
       0.19396625 -0.06646568 -0.4859737 0.06735235

2.weight f4 [2, 24]
000000 02 c4 88 3e 8a 25 a2 be 72 ff cb 3d e8 9b 99 bc
       0.26712042 -0.31669265 0.09960832 -0.0187511
000010 c9 5a 98 bd de f0 40 3d 4e f2 18 bd 90 a1 07 3d
       -0.07439191 0.04710471 -0.037340455 0.033113062
000020 6c 10 ff 3d 3c fc 3c bd 81 b7 28 bd 29 a0 54 be
       0.12454304 -0.046138987 -0.041190628 -0.20764221
000030 2f cd e8 bb 03 bf eb bd 85 3c d5 3c 07 a0 89 3e
       -0.007104538 -0.11511042 0.026029835 0.26879904
000040 72 59 0a 3e 7a c6 8e 3e f1 10 d9 be ee cd 2a be
       0.13510683 0.278858 -0.42395738 -0.16680118
000050 e5 b3 c6 be 92 0c 87 bd 5b ff 56 3d cd 23 35 be
       -0.38809124 -0.065941945 0.05248962 -0.17689438
000060 6b 09 50 be 0c d7 0d 3e 45 a0 ea bb 0c 43 cb 3e
       -0.20316093 0.13851565 -0.007160219 0.3969959
000070 3e cb 98 3e 2f 30 c0 3d e2 ca 7c 3d 0d 36 97 3e
       0.2984256 0.0938419 0.06171692 0.29533425
000080 8d 38 60 be a4 ac 8e 3d 7e 32 ad bd d0 81 7a 3e
       -0.21896572 0.06966522 -0.08456896 0.24463582
000090 1b 4e 26 be b9 6d 5d be e5 20 cc bc b7 86 94 be
       -0.16240732 -0.21623887 -0.02491803 -0.2900903
0000a0 7f 17 b3 be b2 b2 85 be b6 2c 60 3d a6 2c b3 3d
       -0.34978864 -0.26112896 0.05473014 0.087487504
0000b0 d6 a8 88 3d 1a ca f9 bb 7c d1 bb bd 3e df 11 3e
       0.06672828 -0.0076229693 -0.09170815 0.14245316

2.bias f4 [2]
000000 e3 b2 20 be a1 23 3c bd
       -0.1569324 -0.045932416
