reinforce_agent_policy_20250526_140828.pth (torch, 3539 bytes, 4 tensors)

0.weight f4 [24, 4]
00000000: 9bb4 eabd 0f9e be3e 0b7f e83d 9194 efbe
00000010: fa54 3b3e 81e6 4d3e c705 6c3e 79e7 d9be
00000020: 5931 9bbe c56d 923d 6380 9abe 790f eabb
00000030: e315 d83e b461 9f3e 2faf 4b3e 1f46 ff3d
00000040: ca09 353e 41b5 c03e 7c49 e1be e52f ef3e
00000050: 2563 b4be 55b6 763e f316 22be 5089 05bf
00000060: 14d6 81be 1e16 053e abeb b63d 39d6 0dbf
00000070: 026c db3e 7b04 853d eb41 4d3f 6f9d 0b3e
00000080: 7fa1 dc3e 44ec 06be ad00 d4be ccdf d5be
00000090: fb41 d8be b18f 13be c0ea a53d 6b34 6fbd
000000a0: 2c75 bbbe 79dd 183e 3a6c 413f b6fd f03e
000000b0: 7241 4c3d a435 143e ee57 6fbe 2d80 cfbe
000000c0: 7ada cfbe 2135 a63d 07b5 273d 3152 1bbe
000000d0: c47e b4be 3d9d d6be 8361 053e dec8 1b3f
000000e0: 7c71 d33e 39fe c5be 5b21 aa3e 3f1a abbe
000000f0: bcea f3be 8e5f d7be b2fb ad3e 0423 823c
00000100: 0340 7a3d 58d0 a03c a2c4 7bbe df0d 73be
00000110: 8b05 a33e 1438 803e 5eff c9be 6942 1ebf
00000120: 4aac 0fbe c0d5 663c e8f6 3a3e 5ac1 de3e
00000130: 9f79 033d 584c 923e f86d 8a3e 47d8 003f
00000140: 1a9e d13a b68a 17be a278 a13e d593 01be
00000150: a83d dabd 4862 f3be 2195 a53d 219a 0f3d
00000160: 32e1 a1be 5a5b 3e3e 4b17 e33d a01d d2bd
00000170: eacd acbe 28fe a3bd 1ec4 bf3e 303c 81bd
-0.11460229 0.37229964 0.113523565 -0.46793035 0.18294135 0.20107462 0.23049079 -0.42559412
-0.30311087 0.07149843 -0.30176076 -0.0071429578 0.42204198 0.3112923 0.19891046 0.124645464
0.17679515 0.37638286 -0.44001377 0.46716228 -0.3523189 0.24092992 -0.15829067 -0.5216265
-0.2535864 0.12996718 0.08931669 -0.55405 0.4285584 0.06494995 0.8017871 0.13634275
0.43091962 -0.13176066 -0.41406766 -0.41772306 -0.4223784 -0.14410283 0.08101416 -0.0583996
-0.36612833 0.14928235 0.75555766 0.47068566 0.0498671 0.14473587 -0.23373386 -0.40527478
-0.40596372 0.08115602 0.040944126 -0.15168072 -0.35252964 -0.41916838 0.13025479 0.60853374
0.4129752 -0.3867052 0.33228573 -0.33418462 -0.47640026 -0.4206509 0.3398109 0.015885837
0.061096203 0.019630596 -0.24586728 -0.2373576 0.31840166 0.25042784 -0.39452642 -0.61820084
-0.14030567 0.014089048 0.1825825 0.4350689 0.03209841 0.2857387 0.27037024 0.50330013
0.0015992553 -0.14799008 0.31537348 -0.1265405 -0.10656291 -0.4753592 0.08085085 0.0350591
-0.31617123 0.18589535 0.11088427 -0.10259557 -0.3375085 -0.08007461 0.37454313 -0.06310308

0.bias f4 [24]
00000000: 7d84 b6bc 9a5f 07bf fc69 75bd 5629 423d
00000010: ec1c 9bbe f4fd 0cbd 61b3 563e 5d7b 803e
00000020: a395 07bf 5c8b 90bd 3f27 0d3e 5745 423d
00000030: a872 fa3e e775 9c3e eba5 abbe 61b9 fe3e
00000040: b903 d53d 0191 973e e111 3d3e 9a88 573e
00000050: e864 0e3f c8e8 85be 9bf5 ddbe 7823 cabe
-0.022279972 -0.5288025 -0.059915528 0.047402702 -0.30295503 -0.034421876 0.20966865 0.2509412
-0.529627 -0.07057831 0.13784502 0.04742941 0.489156 0.30558702 -0.33525023 0.49750808
0.10401101 0.29602817 0.18463852 0.21048203 0.5562272 -0.2615416 -0.43351445 -0.39480186

2.weight f4 [2, 24]
00000000: 89b6 863e 78e3 21be ce99 c93c 6036 01bd
00000010: 60ae a8bd 8c4c 2a3d 3729 3b3d f54c 61be
00000020: f3c2 8abd b1f9 26be f734 aabe 4313 8e3e
00000030: e08c 3bbb ec53 eebd dc65 29bd e7f8 78be
00000040: abe2 f13d 322f e03d c2df c8be 287f 213c
00000050: 7e60 353d 570c fcbb aef9 823d e95e 42be
00000060: f6da e1bd 446d 053e 2f2f 113e 6575 0c3b
00000070: 8e65 20be c4e0 eebd 5754 89be 73b0 c73d
00000080: 1b66 02bd e767 a83d 0a51 543e 1123 29be
00000090: 7219 023a 1195 0c3e ae40 33bd 7e5a b9bd
000000a0: e237 aebd 8083 6abe a7aa 4d3e a5a7 863e
000000b0: 16ff 3d3e 5ebc c23d 0526 2a3d 7a3a f3bd
0.26311138 -0.15809429 0.024609473 -0.031545997 -0.082363844 0.041576907 0.045693602 -0.22002013
-0.06775465 -0.16306187 -0.33243534 0.2774907 -0.0028617904 -0.116371006 -0.041356906 -0.24313699
0.118108116 0.10946502 -0.39233214 0.009856977 0.044281475 -0.0076919007 0.06395279 -0.18981518
-0.110280916 0.13029963 0.14178155 0.0021432277 -0.1566374 -0.116639644 -0.2682216 0.09750452
-0.031835657 0.08222943 0.20734039 -0.16517283 0.0004962898 0.1372874 -0.043762855 -0.09050463
-0.085067526 -0.22901726 0.2008463 0.26299778 0.18554339 0.095085844 0.041540165 -0.11876388

2.bias f4 [2]
00000000: 8a7c e03d 189b cbbd
0.10961254 -0.09941691
