reinforce_agent_policy_20250526_160426.pth (torch, 3539 bytes, 4 tensors)

0.weight f4 [24, 4]
000000 20 3a 0e be ec be 29 be 6d 9b 79 3e 2f 2a 5c 3e
       -0.1388936 -0.16576737 0.24375696 0.21500467
000010 7f 77 40 3d d7 c1 33 3e 79 2a 76 3d 62 71 54 be
       0.04698896 0.17554413 0.0600991 -0.20746377
000020 7b 3c 2a be eb 93 bd be 24 67 ab be b2 a7 9a 3e
       -0.16624634 -0.37026915 -0.33477128 0.30206066
000030 d1 84 90 be 2d 12 4f bd ed 9b d9 3d 82 e1 04 3e
       -0.2822633 -0.050554443 0.106254436 0.1297665
000040 3c 23 b2 3e ec 84 21 be 9f f2 fc 3d 06 9c 17 3f
       0.34792507 -0.15773362 0.12350964 0.5922245
000050 d1 55 a6 bc fe 41 ee 3c 11 87 20 3f d2 fa 2e 3e
       -0.020304592 0.029084202 0.62706095 0.17087868
000060 99 ae 87 3e c3 16 23 3e bf 01 43 3f ea 54 ef 3e
       0.26500395 0.15926652 0.7617454 0.46744472
000070 9b 63 27 be f2 46 f4 3e 23 6c 87 3e 07 eb 00 3f
       -0.1634659 0.47710377 0.2644969 0.50358623
000080 f3 00 64 be 47 2e f0 be f8 94 2d 3f 84 e7 00 3f
       -0.22265987 -0.46910307 0.67805433 0.50353265
000090 66 ad 3c 3e 8f 2f e0 3e e0 9a 16 bf a5 05 bb be
       0.18425521 0.43786284 -0.5883007 -0.36527744
0000a0 96 b7 03 3f e9 47 13 be 38 31 17 bf 34 7a 27 bf
       0.51452005 -0.143829 -0.59059477 -0.6542084
0000b0 7b f9 9b be 58 0f 74 be 53 64 07 bf dd c6 4a be
       -0.30463776 -0.23833978 -0.5288746 -0.19802423
0000c0 63 d9 cd be 5d a1 d2 be b8 46 e9 3d eb 48 dd be
       -0.40204915 -0.41138735 0.11390442 -0.43219694
0000d0 d1 95 d2 3e 2e 18 97 bc 3c a5 b4 be eb b6 a4 be
       0.41129926 -0.018444147 -0.35282314 -0.32170805
0000e0 0c 84 72 3e bd f8 c2 be c9 1f 20 3f af c1 5a 3e
       0.23683184 -0.38080397 0.625485 0.21362947
0000f0 f2 a8 69 3e 37 eb 9f 3c 34 49 dd bd af 39 c0 be
       0.22818354 0.019521339 -0.10804978 -0.3754401
000100 a9 99 01 be 1f ef ad 3e ac 7a a1 be 5b 75 a3 be
       -0.12656273 0.33971497 -0.31538904 -0.31925473
000110 54 b0 f7 be 59 4f bd be 3a d4 36 bd 6e 2f 9d 3e
       -0.48376715 -0.369746 -0.04463599 0.30700248
000120 3b ca d6 3e 3a a4 9b be ae 28 97 3d 01 47 b0 3e
       0.41951165 -0.30398732 0.07380806 0.34429172
000130 13 10 09 3b 1e 9c a3 3e b8 83 1a bd 04 aa 6f be
       0.0020914122 0.31955045 -0.037723273 -0.234047
000140 9a 45 03 bf 8e ab 03 be bb d3 1a 3e ce 02 85 3e
       -0.5127808 -0.12858412 0.15119831 0.25978702
000150 7d 5e 97 3e f9 cd 4f 3e 46 b9 72 3e fd fd 96 3e
       0.29564276 0.20293416 0.23703489 0.29490653
000160 bb 40 33 3e 50 27 22 be 1b 72 cc be df f3 b9 be
       0.17505161 -0.15835309 -0.39930806 -0.3631887
000170 bc cc 3b 3e ac 2c 56 bd 9f 72 35 3f cc ba d2 3e
       0.18339819 -0.052288696 0.7087802 0.4115814

0.bias f4 [24]
000000 a8 2b e5 be e8 45 c0 be c8 9a d6 be 9f d5 c6 be
       -0.4475987 -0.37553334 -0.41914964 -0.38834855
000010 79 bf 97 3e 97 48 08 3e 2e 7f 35 3e 40 22 02 3e
       0.2963827 0.13308941 0.17724296 0.12708378
000020 9c a1 01 be cc 0f 24 3e 01 cc d2 3e 0c 4c 00 3f
       -0.12659305 0.16021651 0.41171268 0.5011604
000030 0e 48 9b be 61 92 95 3e ee 84 a3 3e b7 e6 f7 be
       -0.3032841 0.2921324 0.31937355 -0.4841821
000040 0f 5d dd 3e fa de 15 3e 37 7a 74 3e 00 f4 0b bf
       0.4323506 0.1463584 0.23874746 -0.5466919
000050 41 19 8a 3e a6 73 70 3e a6 1d a7 be 3f 79 35 3e
       0.26972392 0.23481616 -0.32639807 0.17722033

2.weight f4 [2, 24]
000000 2b e9 5e 3d 45 66 96 3c 1b 31 1d 3d 95 29 10 bd
       0.054421585 0.018359313 0.03837691 -0.035195906
000010 27 fb a5 be 94 3e c5 be fd 3e 5c be 9e b3 a1 be
       -0.32418177 -0.38524306 -0.21508403 -0.3158235
000020 09 a7 97 bd 1a 3e 17 3e 00 7f d7 3e c4 72 49 3e
       -0.07404906 0.14769784 0.4208908 0.19672686
000030 93 b7 2e 3e 29 90 c1 3d be 87 ce 3c ce 03 02 3d
       0.17062216 0.094513245 0.025211211 0.03174191
000040 fb 2c 23 3e 70 26 6f be 54 0f 03 3e 2f d0 8a bd
       0.15935127 -0.23354506 0.12798816 -0.06777989
000050 a6 22 ba 3d 19 a1 d8 3d 7e b0 71 3d e1 e5 d1 be
       0.0908864 0.10577602 0.059006207 -0.40995696
000060 8f bd d9 3d 3e 69 11 3e e8 7b dd bd f6 df 2a be
       0.106318586 0.14200303 -0.10814649 -0.16686997
000070 12 19 1c 3e a5 e5 d4 3e ea b1 35 3e 75 0d 89 3e
       0.15243939 0.41581455 0.1774365 0.2676808
000080 4c b2 04 3e 7c ed 73 be 8d f2 45 be d0 f1 04 be
       0.1295864 -0.23821062 -0.19330807 -0.12982869
000090 3a 6b e8 3d 88 5b 57 be 99 33 7c 3e 43 1a 29 3e
       0.11348577 -0.2103101 0.24629058 0.16513924
0000a0 9f e2 0c 3d 67 3d da 3d f7 fe 47 3e f1 ef ea 3d
       0.03439581 0.10656243 0.19530855 0.114715464
0000b0 42 01 62 3e 44 2c 57 3e 20 e7 b5 3d 0d 53 26 3e
       0.22070792 0.2101298 0.08881974 0.16242619

2.bias f4 [2]
000000 d0 76 19 3e d7 bf 9a 3d
       0.1498673 0.07556122
