reinforce_agent_policy_20250526_162635.pth (torch, 3539 bytes, 4 tensors)

0.weight f4 [24, 4]
000000 f7 4d f3 bc 9b 83 af be e9 d3 e0 bd 16 8a 29 3f
       -0.029700262 -0.34280095 -0.10977919 0.6622633
000010 e8 e6 8c 3e 6b 77 55 3e 93 9b 16 bf 77 61 46 be
       0.27519917 0.20846336 -0.5883114 -0.19373117
000020 5d e8 96 be 9d 04 19 3f a5 6b e7 bd 4c e4 14 be
       -0.29474154 0.59772664 -0.112998284 -0.14540213
000030 1d a7 1b 3f e6 8f f0 bd a9 38 24 bf a3 0d 35 be
       0.6080187 -0.117461964 -0.64148957 -0.17680983
000040 d1 9c 00 3f 21 ea b1 3e 6a 09 17 bf 83 d5 de 3c
       0.5023928 0.3474894 -0.5899874 0.02720142
000050 5e 97 97 be fa cb 54 3e e4 4f e5 be da 64 0b bf
       -0.29607671 0.20780936 -0.44787514 -0.5445076
000060 93 98 d4 be 17 6e 0d bf 3d 64 0d 3f 43 e2 a4 3e
       -0.41522655 -0.5524611 0.55231076 0.32203874
000070 0a 22 ae 3e 48 c1 1c bf 15 df ec 3e a5 e8 35 bd
       0.34010345 -0.61232424 0.46263948 -0.04441132
000080 d3 4e 9c 3e ba 64 6a 3b b7 8e 27 bf 99 2c 9c be
       0.30528888 0.0035765604 -0.6545214 -0.30502775
000090 bb 66 d8 be 22 ec dd 3e 28 c1 df 3d 2a 16 5c be
       -0.42265877 0.43344218 0.109255135 -0.2149283
0000a0 43 86 9f 3c 4b 16 e0 3e f8 b0 3f be 6e 76 03 bf
       0.0194732 0.43767008 -0.18719852 -0.51352584
0000b0 0d ba e1 be 8d bd 86 3d c0 41 d1 be 91 62 44 be
       -0.44087258 0.06579123 -0.40870476 -0.19178225
0000c0 0f 5a 1a 3d 56 b7 45 bd 97 bd bc 3e 66 bf b8 be
       0.037683543 -0.048270546 0.36863396 -0.36083525
0000d0 91 ac 35 3d ec c2 e6 3c a8 8e 10 be b2 ef d6 bd
       0.044354025 0.028169118 -0.14116919 -0.10494937
0000e0 18 0f 8f 3c ed e5 19 bf 79 e9 74 3e 49 e3 91 bd
       0.017463252 -0.60116464 0.23917188 -0.07123429
0000f0 4c df df bc f4 62 85 bd a9 a4 2f 3f f9 fe f0 3e
       -0.027328156 -0.065130144 0.68610626 0.4706953
000100 c0 05 ec 39 4e f8 bb 3e 0f 28 bc be 63 17 11 3e
       0.00045017712 0.3671288 -0.36749312 0.14169078
000110 03 92 7d bd a5 d7 89 3e 3c 8d 8a bb 2f 36 9e be
       -0.061906826 0.26922336 -0.004228262 -0.30900714
000120 00 27 11 bf 01 d8 04 bf 5c 56 ed 3e d3 18 1f 3e
       -0.56700134 -0.51892096 0.4635495 0.15536813
000130 a4 d2 83 3e 9d 61 c1 bd d9 a3 11 3e 39 8f b6 3e
       0.25746644 -0.094424464 0.14222659 0.35656145
000140 b5 1c 06 bf 10 55 9f 3e 20 9d 85 3d 90 11 08 3f
       -0.52387553 0.31119585 0.0652411 0.531518
000150 b5 bf 6a 3d b3 e1 14 3e 9d 7f 8b 3d c4 39 27 bf
       0.057311732 0.14539222 0.0681145 -0.6532252
000160 48 16 7a 3e f1 2a bf bc b5 22 57 3e c2 70 a7 3c
       0.24422562 -0.023335906 0.21009333 0.02043951
000170 2b 43 a7 3e 9a 29 4a be 83 93 4e be ee d5 1b 3f
       0.32668433 -0.19742432 -0.20173459 0.60873306

0.bias f4 [24]
000000 1a 4e 12 bd 6d e0 b2 3d 17 65 a9 3e b7 08 c0 bb
       -0.035719015 0.08734212 0.33084938 -0.005860414
000010 26 64 b4 3e 22 5f 89 bd ba 62 a8 3d df 55 64 3e
       0.35232657 -0.06707598 0.082219556 0.22298382
000020 4c ac 8d 3e a7 2e a1 3d 2e 87 07 bc 7d 18 33 3e
       0.27670515 0.07870226 -0.008271975 0.1748981
000030 2f 70 f4 be 95 0e af 3e 6c c3 08 3e a1 31 c1 3e
       -0.4774184 0.34190813 0.13355798 0.37733176
000040 d6 61 84 be 5d fd 8b be 58 8c c5 3e a0 3f 2e 3e
       -0.25855893 -0.27341738 0.38583636 0.17016459
000050 58 a3 f6 3e 46 80 c2 bd 49 0e ee 3e 5e 4b b7 3e
       0.48171496 -0.094971225 0.46495274 0.35799688

2.weight f4 [2, 24]
000000 63 e1 51 be 65 ae 15 3e ba db a1 3b c0 54 0c 3e
       -0.20496134 0.14617307 0.0049395235 0.13704205
000010 f8 e3 38 bd 5c 20 46 3e ab 4a 0f be c7 cc 25 bc
       -0.045139283 0.19348282 -0.13993327 -0.0101196235
000020 47 5d 57 3e a1 87 55 bd bf 1a ad 3e 2a e6 25 bd
       0.21031676 -0.0521313 0.33809468 -0.040502705
000030 c8 2a 4d bd ad 32 1c 3e 85 1a 50 be 78 da ae be
       -0.050089628 0.15253706 -0.20322616 -0.34151053
000040 d9 d7 61 be 74 44 c0 3d 08 5e 4e bd 6c 65 79 bd
       -0.22054996 0.093880564 -0.050382644 -0.06088774
000050 f0 84 6a be 51 b6 56 3e b4 79 26 be aa cf 84 be
       -0.22902274 0.20967986 -0.16257364 -0.25939685
000060 8b 14 5e 3d df ee 04 be a4 8c 19 be d5 3d 18 be
       0.05421881 -0.12981747 -0.14995056 -0.14867337
000070 b0 b5 35 be 8e 88 bd be 1a f8 53 3e 76 be dc 3d
       -0.1774509 -0.37018245 0.20700112 0.10778515
000080 f0 20 85 be 88 ed e1 bd a9 2c fb 3b 9d ab d4 bd
       -0.26001692 -0.110316336 0.007665236 -0.10384295
000090 f6 1a 31 3e 46 4c 0c 3e 11 18 00 3e e5 86 e3 3d
       0.17295441 0.13700971 0.1250918 0.111097135
0000a0 98 5a 20 be f0 89 25 be fe 06 25 3e 86 dc 97 3e
       -0.15659559 -0.161659 0.16115949 0.29660434
0000b0 61 ec 08 bd 2a 89 ba be 01 cd d0 3d c8 71 cf 3d
       -0.033428553 -0.36432773 0.101953514 0.10129124

2.bias f4 [2]
000000 84 1d 19 3e ed e7 0d 3d
       0.14952666 0.03464501
