reinforce_agent_policy_20250526_142944.pth (torch, 3539 bytes, 4 tensors)

0.weight f4 [24, 4]
00000000: 5b71 553e 15ec d4bd 881b c8be 86e8 f3be
00000010: b9b8 ccbe 8805 a63e c405 2bbe f975 063e
00000020: 5d6e 45bc 7216 fa3b 4aed babd 1878 a93e
00000030: 9945 83be e384 3fbe 6de0 953e 5e87 b53d
00000040: c958 b1bd 1242 4b3d d380 923c b77c 063f
00000050: e2e2 c7be 2bad cf3e 1fa5 013f bf68 d53e
00000060: b3e9 073e a334 c53e 2ff9 ad3e b3db 39bc
00000070: 57ed e53e a93f 643d f22a 74bd e5ea a03d
00000080: eec6 d3be aa90 8c3e 774b 213e 4ea4 9ebe
00000090: 5411 78be 0c2d afbe 5410 5ebe 48e7 71be
000000a0: f7b1 31bd 0fb7 d43e dbe7 d7be 926a 73be
000000b0: 85c7 9cbe 4aa6 1e3d 0b98 183e 7635 8bbe
000000c0: c5f7 113e aeb8 a33e 93b4 1fbe ad75 c0bd
000000d0: d523 aa3e 7b38 b9be 8dae 1c3d 2bca d73e
000000e0: 5693 963d 174c 173e 477f e8be 5e47 ccbe
000000f0: ecb0 f4be b5c3 c5be ff20 973e 3fa1 1c3e
00000100: 65bb 9e3d 6369 3ebe 8960 e5be d6f8 ebbe
00000110: 101f c3bd d564 8fbb 6f02 d13e 39f7 fc3d
00000120: 5756 ccbe 1641 eabe ef93 be3e 6c35 c2bd
00000130: 8f16 d2be 3389 c5bd e0ce fcbe a2a3 63bd
00000140: edc4 72be e096 473e 6440 09be e734 7bbe
00000150: fc8b bf3e 0fb3 e9be 742e 18be 1073 ab3d
00000160: 8d32 3c3e 10bb 57be 325a 49be a34c 9cbe
00000170: 62d5 65be af15 d83d 59bb afbc 7918 00be
0.20844023 -0.103965916 -0.39083505 -0.4763834 -0.39984682 0.32426095 -0.16701418 0.1313094
-0.012050238 0.00763207 -0.091272905 0.33099437 -0.25639036 -0.18703036 0.29272786 0.0886371
-0.086595125 0.049623556 0.017883694 0.5253405 -0.39040285 0.40561804 0.5064258 0.41681477
0.13272743 0.3851672 0.33979174 -0.011343884 0.44907638 0.055724774 -0.05961127 0.078573026
-0.4136271 0.2745412 0.15751444 -0.3098473 -0.2422536 -0.34214056 -0.21685916 -0.23623383
-0.04338261 0.41545913 -0.4216908 -0.23771122 -0.3062097 0.038732804 0.1490175 -0.27189225
0.14254673 0.31976837 -0.15596227 -0.09397445 0.33230463 -0.36175904 0.038252402 0.4214643
0.07352321 0.1477512 -0.45409605 -0.398982 -0.4779123 -0.38625875 0.29517362 0.15295886
0.077505864 -0.1859489 -0.44800213 -0.46088284 -0.09527409 -0.004376034 0.4082217 0.123518415
-0.39909622 -0.45752782 0.3722224 -0.09482846 -0.41032836 -0.09645309 -0.49376583 -0.055575974
-0.23707934 0.19491148 -0.1340347 -0.245319 0.37411487 -0.45644423 -0.1486147 0.08371556
0.18378659 -0.21067452 -0.19663313 -0.3052722 -0.2244468 0.10551011 -0.021451639 -0.12509336

0.bias f4 [24]
00000000: 899b b4be 7162 18bd 9df0 12be 20d1 6bbe
00000010: 0173 ec3e 818a d43e 9b1a a13d b4c8 853e
00000020: 9dd3 6f3e deaf d8be dfe5 c03e 46fc d9be
00000030: 5c11 26be 9b2d 2fbe 79f7 df3e 230e 80be
00000040: bf36 cabe 5024 d3be d901 b03e 6430 bf3e
00000050: b746 0b3d 3e63 bfbe 2985 a73e e8ab f63e
-0.35274914 -0.037203256 -0.14349599 -0.23028994 0.4618149 0.4151192 0.07866403 0.26129687
0.23420568 -0.42321676 0.37675378 -0.42575282 -0.1621756 -0.17107241 0.43743494 -0.25010785
-0.39494893 -0.41238642 0.3437641 0.37341607 0.034002986 -0.37380403 0.3271878 0.4817803

2.weight f4 [2, 24]
00000000: c261 653c 120d 90bb fde4 babd b39f eb3d
00000010: 56a8 80be edcf 55be d8f2 24bc cebc 08be
00000020: 86be 7ebd 9b4f 6ebc cf9c 18be 6e0f cb3b
00000030: 9335 20be 19ba 073e f265 183e 82f7 25bd
00000040: de48 e23c 20c3 fdbc 1f43 3ebe 59d8 233e
00000050: cfde 7cbc 235d 01be 68bc 733c e233 bdbd
00000060: e278 b4bc 9b57 113e 1aa9 60bd ae33 643d
00000070: 9e41 81bd df5c 22be 9500 a7bd 636c 1cbe
00000080: 8fe2 733d e4eb eebd cef2 123e 960f 5cbc
00000090: bacf cebc 919e 433d 3b59 19be 9b5c f2bd
000000a0: de64 06be b7d8 58bd fef1 86bd 8665 493d
000000b0: 2c73 133c a1fd 503e 4e54 23bd 04b4 903c
0.014000358 -0.0043960894 -0.09125707 0.115050696 -0.2512843 -0.20880099 -0.010067664 -0.13353273
-0.062193416 -0.014545347 -0.14903568 0.0061969077 -0.15645437 0.13254584 0.14882639 -0.040519245
0.027622636 -0.030976832 -0.18580292 0.16000499 -0.015433981 -0.12633185 0.0148764625 -0.092384115
-0.022030298 0.14193575 -0.054848768 0.055713348 -0.063113436 -0.1585574 -0.08154408 -0.15275721
0.059542235 -0.11666086 0.14350435 -0.01343145 -0.025245536 0.047758643 -0.14975445 -0.11834069
-0.13124415 -0.05294105 -0.06589125 0.049169086 0.008999627 0.20409252 -0.03987532 0.017663963

2.bias f4 [2]
00000000: b68d f4bd ff11 32be
-0.11941092 -0.17389677
