reinforce_agent_policy_20250528_134749.pth (torch, 3539 bytes, 4 tensors)

0.weight f4 [24, 4]
00000000: 648d d53c 2bb5 85be a559 efbe e0f1 bc3c
00000010: 6767 b5be 332c 9abe 4ad8 42be d16d d23e
00000020: cd18 193e ff40 45bd 1913 cebc 5cc2 103f
00000030: d02e e9be afd5 c7be aabb 2dbd fdee 3fbe
00000040: 27ae 803e 5006 a7bd a060 d83d 8974 f43e
00000050: ee9c eb3e 0af7 e1be 8e8d 2dbe 1695 273e
00000060: 02ee 4abe dadc c6be 2c9a 16bf a341 afbe
00000070: 5e15 e53e 8c08 54be 8b2e 1cbf 55ff c6be
00000080: 0dd6 0c3f 84fa c6bd 2ab3 2abf b730 c3be
00000090: 24d7 e4be 37cc d4be 1459 343f 2c6b 863d
000000a0: 41f7 efbe 274d 86be d33c a7be 0e97 1a3e
000000b0: b872 17be c9ed fdbe f5d8 7bbe ab68 04bf
000000c0: 1ce0 c3be dc2d 8f3e 92a8 00bf af2d d8be
000000d0: c34b 993e f6ce c43d eaee 13bf 6ed9 0fbf
000000e0: 6d45 7d3e 0ea3 ffbe d7ef 223f b0f3 323f
000000f0: fda0 cc3e 4784 173e e6d7 e3be 4dc2 14bf
00000100: 3b46 83be 2889 c9be 7214 4f3f e5d8 d0bd
00000110: 0b3f f93d 85fe 50be df41 56be 19a5 f1be
00000120: 09f2 41be 8f7b 37bd 2ad2 f7b9 2546 be3e
00000130: 3a9d c73d e9d9 df3d 2574 e7be 7a72 eabe
00000140: a0fd 77be 22db 823e 68b2 98be c8d3 3d3e
00000150: 2302 14bd 20f9 473d 334e fdbd ca73 bdbe
00000160: f467 ffbc f8d0 073e 24c8 c5be 8015 a0be
00000170: f7ed a5bd 524e f9be c32a 513e a8bf 2abe
0.026068397 -0.26114783 -0.4674808 0.023064554 -0.35430452 -0.30111846 -0.1902782 0.41099408
0.14950867 -0.04815769 -0.02515559 0.5654657 -0.45543528 -0.39030215 -0.0424153 -0.1874351
0.25132868 -0.08155501 0.10565305 0.4774516 0.46018165 -0.44133788 -0.1694853 0.16365466
-0.19817355 -0.3884037 -0.58829 -0.34229764 0.44742864 -0.20706385 -0.6100852 -0.38866678
0.55014116 -0.09715751 -0.6667963 -0.38123104 -0.4469539 -0.41562054 0.7044842 0.0656341
-0.46868327 -0.26230738 -0.32663593 0.15096685 -0.14789855 -0.49595478 -0.24594481 -0.5172221
-0.3825692 0.27964675 -0.5025722 -0.42222354 0.29940614 0.09609787 -0.5778643 -0.56191146
0.24733515 -0.49929088 0.63647217 0.6990309 0.39966574 0.14796554 -0.44500655 -0.5810898
-0.2563952 -0.39362454 0.8089057 -0.10197619 0.121702276 -0.20409591 -0.20923565 -0.47196272
-0.18939985 -0.04479557 -0.00047268096 0.3716289 0.097467855 0.10930235 -0.452058 -0.45790464
-0.24217844 0.2555781 -0.29823613 0.1853782 -0.03613485 0.04882157 -0.12368431 -0.37002403
-0.031177498 0.13263309 -0.38629258 -0.31266403 -0.08102029 -0.48692566 0.20426469 -0.16674674

0.bias f4 [24]
00000000: 2b87 f6be 262d 02bf 1881 1a3d 59ad 72be
00000010: 2c0f 903e 4a91 e4be 33fe cd3e f714 1bbe
00000020: ac49 183e 39c6 e63e 1b75 b2be 463d 0ebe
00000030: 839e 613e ec9c d8bd a1de 953e 7592 72be
00000040: 732b 183e aef6 6c3e a7a1 e03d b0a6 2d3e
00000050: 146d e7be fc0e 5c3e 1ff0 503e f995 fc3e
-0.4815 -0.5085014 0.03772077 -0.2369894 0.28136575 -0.44642097 0.40233 -0.15144716
0.14871854 0.45073107 -0.3485497 -0.13890561 0.22033124 -0.105768055 0.29271415 -0.23688681
0.14860325 0.23140976 0.10968333 0.16958117 -0.45200408 0.21490091 0.20404099 0.4933317

2.weight f4 [2, 24]
00000000: db30 27be f680 08bc 438b 6abe 2a73 773e
00000010: b7c7 b1be 05fc c63d ea6d 5abd 6202 f63d
00000020: a2dc 7d3e c76f 7abe 4b37 e33d bde6 5c3b
00000030: cd54 b53d 6a77 813e 1ffc 20be cbbc be3e
00000040: 473b 46bd ad84 793e 25ef b5be 78ec 553e
00000050: 9bc4 2fbe 3ec1 a0bc 38b5 723e 82af 2cbd
00000060: ccd0 dabd 580d 8fbd 67e8 d23e 6896 03be
00000070: 69a9 de3d c0cc 50bd 8156 32be 5a31 3cbe
00000080: 0938 b0be 6114 4e3d af17 0ebd 1f5f d7bd
00000090: c4de 7ebe 0e0a 3bbe c9ac 353e d76b 38bc
000000a0: 9259 d03d d85a 91be 8bd4 483e cc4f c63c
000000b0: d011 6cbb b56f 00be c95c 5b3d 4448 1b3c
-0.1632723 -0.008331528 -0.22904687 0.24165025 -0.34722683 0.09716038 -0.05332748 0.12012173
0.24791196 -0.24456702 0.11094531 0.0033706867 0.08854065 0.25286418 -0.15721177 0.37253413
-0.048396375 0.24367018 -0.35534015 0.20890987 -0.17164843 -0.019623395 0.23701942 -0.042159565
-0.10684356 -0.06984967 0.41192934 -0.12850344 0.10872156 -0.050976515 -0.17415811 -0.18378201
-0.3441775 0.050312404 -0.034690555 -0.1051619 -0.24889666 -0.18265554 0.17741694 -0.01125618
0.10173334 -0.2838962 0.19612329 0.024207972 -0.003602136 -0.12542613 0.053555284 0.009477679

2.bias f4 [2]
00000000: 0615 bb3a 7c17 cc3a
0.0014273233 0.0015570964
