reinforce_agent_policy_20250526_155309.pth (torch, 3539 bytes, 4 tensors)

0.weight f4 [24, 4]
-0.10666419 -0.32934952 0.120081045 -0.15856183 0.28301734 -0.44335037 -0.32573518 -0.2542106
0.06686512 -0.3327002 -0.2433234 -0.39601666 -0.39801618 0.22964758 0.52875334 0.388633
-0.42999056 0.48637077 0.18739657 0.5873217 -0.3842428 0.12981243 0.5802816 0.49504033
0.3035553 -0.4598516 0.27769324 -0.34879234 -0.5188162 0.31261078 0.08184322 -0.20693415
0.3241912 0.29853374 -0.41535264 -0.6478333 0.51691324 0.6019483 0.25725672 0.4075446
-0.2305291 -0.2826841 -0.13568765 -0.6529711 -0.04013177 -0.07734522 0.75393206 0.33096963
0.15167594 -0.11544467 -0.23841709 -0.39127344 0.54721695 -0.06771215 -0.6138224 -0.56193346
-0.2239494 0.06774637 0.47556978 0.092987746 -0.25454834 -0.11551861 -0.050063092 0.054524142
-0.3890469 0.27852425 -0.31824753 -0.14020309 0.084335156 -0.30937457 0.32681626 0.27893576
-0.3698612 -0.42215997 -0.093615174 0.59441036 0.054966416 -0.56558263 -0.036518443 0.04671289
0.4189617 -0.19467759 0.3087346 0.272283 0.08082125 0.24896906 0.3115825 0.40763482
0.09268783 0.01027078 -0.3809366 0.19468218 -0.08711274 0.49015713 0.28846112 -0.17076322
00000000: c172 dabd 80a0 a8be 0ded f53d 085e 22be
00000010: a6e7 903e d2fe e2be c3c6 a6be e427 82be
00000020: 94f0 883d ae57 aabe c529 79be b2c2 cabe
00000030: c7c8 cbbe bc28 6b3e 615c 073f e8fa c63e
00000040: b927 dcbe 9705 f93e e3e4 3f3e b75a 163f
00000050: 79bb c4be 8ded 043e 568d 143f ed75 fd3e
00000060: 9a6b 9b3e ab71 ebbe cf2d 8e3e e994 b2be
00000070: 23d1 04bf 850e a03e 6b9d a73d 8ce6 53be
00000080: 64fc a53e 6ad9 983e 1aa9 d4be 67d8 25bf
00000090: 6d54 043f 4919 1a3f 27b7 833e b0a9 d03e
000000a0: d20f 6cbe f8bb 90be b4f1 0abe 1d29 27bf
000000b0: 3661 24bd 2c67 9ebd b101 413f da74 a93e
000000c0: f050 1b3e 416e ecbd 9c23 74be fe54 c8be
000000d0: 6916 0c3f abac 8abd 7723 1dbf dfda 0fbf
000000e0: fe52 65be 9cbe 8a3d e27d f33e 5c70 be3d
000000f0: 2954 82be 0595 ecbd f50e 4dbd b554 5f3d
00000100: 2831 c7be bb9a 8e3e 57f1 a2be 6691 0fbe
00000110: e9b7 ac3d 5866 9ebe 7654 a73e abd0 8e3e
00000120: 725e bdbe 5a25 d8be 50b9 bfbd 472b 183f
00000130: 7724 613d 06ca 10bf 5d94 15bd 0456 3f3d
00000140: 2682 d63e 9059 47be 7612 9e3e ad68 8b3e
00000150: 9d85 a53d bff1 7e3e be87 9f3e 83b5 d03e
00000160: 1ed3 bd3d c646 283c 1f0a c3be c45a 473e
00000170: 2a68 b2bd e0f5 fa3e 2db1 933e 8edc 2ebe

0.bias f4 [24]
-0.38548243 -0.3090219 0.18423468 0.3578469 0.2684754 0.5191673 -0.10529981 -0.35225853
0.01351287 -0.36813518 0.30399433 0.2652606 -0.45808372 0.3657277 0.25271192 0.43745115
0.4177765 0.02141413 0.22171839 -0.31101882 -0.25209543 0.26181194 -0.2540372 0.07532489
00000000: f45d c5be 1e38 9ebe 04a8 3c3e b537 b73e
00000010: 9c75 893e 26e8 043f 6da7 d7bd 3b5b b4be
00000020: 1665 5d3c 377c bcbe 25a5 9b3e 3dd0 873e
00000030: f389 eabe a940 bb3e 7563 813e 99f9 df3e
00000040: cde6 d53e b06c af3c 250a 633e dc3d 9fbe
00000050: a712 81be 370c 863e 2a11 82be f043 9a3d

2.weight f4 [2, 24]
0.1688015 0.096979365 0.45889425 -0.19120164 -0.35024098 -0.09289353 -0.023829 -0.16419871
0.12537971 -0.019182341 0.36908072 -0.23147191 0.024130173 0.23455451 -0.26867017 -0.19444393
0.14486733 -0.22374155 -0.11256082 0.18125744 0.041011512 -0.0127237355 -0.056922574 0.01889147
-0.04539034 -0.22904052 -0.44762534 -0.030838786 0.095299244 0.3364216 -0.11615032 0.08880636
-0.11130615 0.12494267 -0.34797573 0.24280158 0.14597929 -0.3449265 -0.077876695 0.15244256
-0.09073001 -0.08466646 0.03093937 0.01449335 -0.20536266 0.112659715 0.16405204 0.09907925
00000000: 4dda 2c3e 1e9d c63d 30f4 ea3e 5dca 43be
00000010: c952 b3be f73e bebd 0935 c3bc b523 28be
00000020: 8a63 003e 4924 9dbc 26f8 bc3e f906 6dbe
00000030: a4ac c53c 0f2f 703e 238f 89be 4f1c 47be
00000040: 1a58 143e 811c 65be 4a86 e6bd 8d9b 393e
00000050: b0fb 273d 3777 50bc a527 69bd 49c2 9a3c
00000060: 39eb 39bd 9989 6abe 262f e5be 9fa1 fcbc
00000070: 402c c33d 743f ac3e 38e0 edbd 1ce0 b53d
00000080: 7bf4 e3bd f1e1 ff3d e029 b2be faa0 783e
00000090: 987b 153e 359a b0be d17d 9fbd e719 1c3e
000000a0: a8d0 b9bd 9c65 adbd 9074 fd3c 8475 6d3c
000000b0: 974a 52be 23ba e63d 42fd 273e 10ea ca3d

2.bias f4 [2]
0.052862424 -0.038297556
00000000: 4586 583d e6dd 1cbd
