reinforce_agent_policy_20250526_163138.pth (torch, 3539 bytes, 4 tensors)

0.weight f4 [24, 4]
000000 a0 fa 17 bd 1c 33 5b 3e 80 73 79 bc 7c 1e 47 3e
       -0.03710425 0.21406215 -0.015225291 0.19445223
000010 85 67 c2 3e a1 ca 3b 3c b7 0c cd be 12 0f 36 be
       0.37969604 0.011461885 -0.40048763 -0.17779186
000020 8d 69 4c be 21 0f ea bc 6e 13 e4 3e 69 83 9c be
       -0.1996214 -0.028571667 0.44546074 -0.30569008
000030 05 41 f7 3e ab 86 06 3f d2 4e 0c 3e c0 b7 9e 3e
       0.48291793 0.52549237 0.13701943 0.30999565
000040 ac 44 03 3f 27 91 68 3e 8d ba ff 3e 40 24 90 3c
       0.5127666 0.22711621 0.49947014 0.01759541
000050 75 22 c5 bd 28 06 ac be 76 94 e7 bd 45 39 e5 3e
       -0.09625713 -0.33598447 -0.113076136 0.44770256
000060 40 5e 37 be dc 1a b8 3e f1 34 a8 be 7d cb 24 3e
       -0.17907047 0.35957992 -0.3285289 0.1609325
000070 79 d2 4a 3e cd 2a 1d be 2c 68 3a be db a6 8d 3e
       0.19806851 -0.15348358 -0.18203801 0.27666363
000080 9a da 5b 3e 5f 19 d0 be e2 03 dd 3e db 1a 50 be
       0.21470109 -0.40644357 0.43167025 -0.20322745
000090 f7 13 b2 3e b6 c9 3a 3e 34 81 eb 3e fa 06 f5 3e
       0.34780857 0.18241009 0.45997012 0.47856885
0000a0 2c 86 c4 3e 54 0c b3 3d c1 7a 79 be 65 2b 25 3e
       0.38383615 0.08742586 -0.24363233 0.16129835
0000b0 fd 13 a9 3e 5a 1f ac 3e 09 26 f2 be 72 ef 93 3e
       0.33023062 0.3361767 -0.47294644 0.2889362
0000c0 0b 26 cb 3e a2 d9 c8 3e dc 87 92 3e d9 9c a1 be
       0.39677462 0.3922854 0.28619277 -0.31564978
0000d0 18 7b c1 be 2b d9 f4 3e b7 56 c0 3e d0 62 bf 3e
       -0.37789226 0.47821936 0.37566158 0.37380075
0000e0 c8 dc 4b be 0a e4 f2 3e cc 6b 97 be 38 ea 34 be
       -0.1990844 0.47439605 -0.2957443 -0.17667472
0000f0 cc eb b4 be a7 72 12 be 8c 32 ac 3d 96 70 a9 3e
       -0.3533615 -0.14301549 0.084080786 0.3309371
000100 56 8c cd be ff 04 99 be b5 28 ae 3e 65 95 af bc
       -0.4014613 -0.29886624 0.34015432 -0.021433542
000110 2f 3f e9 3e 0f 71 d7 3e 60 18 ba be 40 cd 88 3e
       0.45556018 0.42078444 -0.36346722 0.26719093
000120 ee bc 9a be b1 9b dd 3e 3d e6 5f 3e d9 31 79 be
       -0.30222267 0.43282846 0.21865173 -0.24335422
000130 1a 8e b9 bd 0b 2e c3 3e 01 eb 9f bd d5 ad 45 3e
       -0.09060307 0.38121065 -0.07808495 0.19304593
000140 66 d0 d7 be 30 4d f6 bd 58 5f 52 3e 58 c7 23 be
       -0.42151183 -0.12026441 0.20544183 -0.15994012
000150 95 0a c2 3e 83 59 c2 bc 7f 6f 04 bf 67 15 9e be
       0.37898698 -0.023724323 -0.5173263 -0.30875704
000160 cf be e1 be b9 70 e9 be ed 88 a3 3c 47 fe bc be
       -0.44090888 -0.45593813 0.019962752 -0.36912748
000170 20 b2 92 be f5 1b 5e 3e ec 4f 9b be 6a 14 ba 3e
       -0.28651524 0.21690352 -0.30334413 0.363437

0.bias f4 [24]
000000 34 12 c9 be d2 d4 f8 bc 78 9b c2 3d 07 86 fd 3e
       -0.392717 -0.030374918 0.095023096 0.49516317
000010 d9 4e ec be 22 a2 a6 bc af c9 76 be 17 b3 85 3e
       -0.46153906 -0.020340983 -0.24100374 0.26113197
000020 e1 f7 e3 bd ba 1f bb 3e b4 17 c5 bd 3e dc 04 3e
       -0.111312635 0.36547643 -0.09623662 0.1297464
000030 69 d4 e1 be 60 fa e8 bd 63 6b 1b 3e 2d 3a f2 3e
       -0.4410737 -0.1137588 0.15177684 0.4731001
000040 fd 28 68 be 1e 7e b5 3b c3 cb 07 bf fe e0 8a 3e
       -0.22671886 0.005538716 -0.5304529 0.2712478
000050 9a 42 ee be 78 98 76 be dd d1 ce 39 cb 84 a0 be
       -0.46535188 -0.240816 0.00039447742 -0.31351313

2.weight f4 [2, 24]
000000 1b c1 27 3e 1e d6 94 bd d6 d5 9e 3b 5b 3a 1d be
       0.16382258 -0.07267402 0.0048472686 -0.15354292
000010 87 af d8 3d 93 76 10 be 62 f8 de bc 25 54 b7 bd
       0.10580354 -0.14107732 -0.027218048 -0.08951596
000020 df 4b cf 3c a3 0b 5e 3d fd f9 2b 3e 45 00 56 3d
       0.025304733 0.054210316 0.16794582 0.05224635
000030 42 61 0e bb 96 b4 b1 3c 7d 12 2e be 43 b6 32 bd
       -0.002172545 0.021692555 -0.1699924 -0.04363085
000040 d2 c2 83 bd e5 1e 36 be 45 4f 0e 3e 79 1c e0 bd
       -0.064336434 -0.17785223 0.13897426 -0.10942931
000050 37 03 4f be dc 90 f4 bd f7 1f b7 3d 00 97 90 3d
       -0.2021607 -0.11941692 0.08941644 0.07060051
000060 a8 38 05 3b b1 38 9f bd cc 6c 1b 3d f1 00 d1 bb
       0.002032796 -0.07774485 0.037945554 -0.006378286
000070 d3 fb 57 bd b2 d5 5b 3c c7 52 a4 3c 70 0c c1 bd
       -0.052730393 0.013417648 0.020059003 -0.094262004
000080 94 16 7f 3d 8b 25 83 bd d5 1e 14 3d a8 47 0a 3e
       0.06227739 -0.06403645 0.036162216 0.13503897
000090 30 85 29 be d1 fc 47 3e 7d 83 2a 3e e0 29 4b be
       -0.16554713 0.19530036 0.16651721 -0.19840193
0000a0 89 81 fe 3d b5 5f 38 3e 7f 78 02 be 18 aa e4 bd
       0.124270506 0.1800526 -0.12741278 -0.11165255
0000b0 b6 8f 0d 3e 59 6a 38 3e c9 d3 bb 3d 20 d2 4e 3d
       0.13824353 0.18009318 0.09171254 0.05049336

2.bias f4 [2]
000000 46 4e 3e bd 43 65 04 bd
       -0.046461366 -0.032323133
